adapter_hunyuan_to_kvae3d.safetensors (safetensors, 11736 bytes, 28 tensors)

blocks.0.conv1.bias f4 [16]
000000 29 cd 6b 3e ed 4d d5 bd 5a 58 73 3d de 12 8b 3e
       0.23027481 -0.10415254 0.05941043 0.27162832
000010 1d 07 e0 bc 71 3e a2 3d 6c 2c 9e bd e1 7f 37 be
       -0.027347142 0.07922066 -0.077233166 -0.17919876
000020 9a 7c 51 3e 6f 51 ab be 58 c5 77 3e 3c 26 dd 3c
       0.20457688 -0.33460566 0.24196374 0.02699577
000030 c3 a5 4f be 0e a6 27 3c 76 fd 1a 3e 8d a3 fe bd
       -0.20278077 0.010232462 0.1513575 -0.124335386

blocks.0.conv1.weight f4 [16, 16, 1, 1, 1]
000000 6d d9 6f bd b2 de d9 3d 26 e2 4f 3e b6 8c 6b be
       -0.058556963 0.10638179 0.20301113 -0.23002896
000010 d9 91 f7 3d 9b 04 a8 bd ce e1 04 3e 0d c2 19 3d
       0.12088365 -0.082040034 0.12976763 0.037538577
000020 34 d2 d3 bd 22 24 11 be cf 35 27 bd 67 41 1c bc
       -0.103428274 -0.1417394 -0.0408228 -0.0095370775
000030 43 0e a6 3c af c7 e9 bd be 3b 3e be 36 1a 00 3e
       0.020270472 -0.1141504 -0.18577477 0.12509999
000040 0c 90 2f be cb 32 80 bd df 2d 4a 3e a8 78 64 bd
       -0.17144793 -0.06259688 0.19744061 -0.05577913
000050 74 01 7b bd 57 ec 0b 3e e5 28 4a be e6 44 26 be
       -0.061280683 0.13664375 -0.19742163 -0.1623722
000060 ff 7f 95 bd b9 cf bd 3d a8 d6 ce 3d 4c d0 21 be
       -0.07299804 0.092681356 0.10099536 -0.15802115
000070 28 a5 63 3e fd 0c c2 bd a5 1e f0 bd 77 b3 c5 be
       0.22230971 -0.094751336 -0.11724595 -0.38613483
000080 07 2b 1a 3e 28 ab 0d be a2 94 bb 3d ea bc 8f be
       0.15055476 -0.13834822 0.09159209 -0.28073817
000090 54 3e 23 3d da 8a 4c 3d 7a b3 03 3e 08 92 7c 3d
       0.039854363 0.049937107 0.12861434 0.061662704
0000a0 44 f3 1f 3e 32 4a f2 be e3 3b 5a be 2c d3 1a bd
       0.15620142 -0.47322232 -0.21311907 -0.037799045
0000b0 ae ba 86 bd ae 61 f8 3c 21 4a 8a 3b a1 72 64 be
       -0.06578575 0.030320015 0.0042202626 -0.22309352
0000c0 2a 5c a4 3d 83 b7 9a 3d 33 9a f4 bd df 11 4a be
       0.080253914 0.07554533 -0.11943474 -0.1973338
0000d0 e8 d9 f7 bd 83 38 4f 3e 20 ca a5 3d b5 19 d8 3d
       -0.12102109 0.20236401 0.08095193 0.10551778
0000e0 6a 4e 16 3e c2 7f 05 be 7f d2 4c 3b 71 ff 4f bd
       0.1467835 -0.13037017 0.0031253395 -0.050780717
0000f0 d6 f4 da 3d da ee 41 3d b3 e2 1b be 94 45 b0 3d
       0.1069123 0.047346927 -0.15223198 0.08607021
000100 dc af 8a 3e 8e 3d 79 be 3a 5a 8b 3e e0 60 72 3e
       0.27087295 -0.24339887 0.27217275 0.23669767
000110 16 22 a8 bd 34 f3 bf 3d 95 d1 b9 bc aa 60 c1 3b
       -0.082096264 0.09372559 -0.022682944 0.005901416
000120 e2 7f 6e bd e4 bc 92 3e 7a 40 f2 3d 73 70 2b 3d
       -0.058227427 0.28659737 0.11828704 0.041855287
000130 8a fe fb 3c 33 ab 4d 3e 7f a1 4d be 64 df 8f 3e
       0.030761022 0.20084839 -0.20081137 0.2810012
000140 53 f3 c0 3d 0c ac 09 3e 73 8c e7 bd 34 60 72 be
       0.094214104 0.13444537 -0.113060854 -0.23669511
000150 de 57 82 bd 38 63 93 3d a9 32 c6 bd 49 e1 43 3e
       -0.063644156 0.07196659 -0.096776314 0.19128908
000160 c0 6d 2a 3e 6e 20 8b bd 7a 93 d9 3d ce c4 bd bd
       0.16643429 -0.06793295 0.10623832 -0.09266053
000170 25 95 a4 3d c1 a0 e5 bd ca 20 d5 bd b5 80 25 3e
       0.080362596 -0.11212302 -0.10406645 0.16162379
000180 d3 88 60 be ec 07 0b 3e bc b4 2d bc d1 83 2d 3e
       -0.21927194 0.1357724 -0.010602172 0.16944815
000190 a7 43 00 be 9d 55 6f bc ab 23 14 be 99 1f 08 be
       -0.12525807 -0.014607814 -0.14466731 -0.13293304
0001a0 57 ac 9b 3d 2c 01 03 3d db a7 84 be b6 28 4c bd
       0.076012306 0.03198354 -0.25909314 -0.049843512
0001b0 8b e4 af bd 8d da dc 3d 50 60 42 3d cd 93 5b be
       -0.08588513 0.10783873 0.047455132 -0.214431
0001c0 cc 01 88 be 03 3d c7 bd 40 a6 01 3d 26 9e 01 bc
       -0.2656387 -0.09728434 0.03165269 -0.007911241
0001d0 6d 45 d9 be 69 92 48 bd d8 ff 9f bc 58 25 cf bd
       -0.4243578 -0.048967753 -0.019531175 -0.10114545
0001e0 17 1d 1b 3e 63 62 1d be d5 2d 27 3e 10 7e 66 3e
       0.15147816 -0.15369563 0.16326077 0.22509027
0001f0 f8 1c b8 3d 5f 58 17 3e 51 ea e5 3e ca 1a fd bd
       0.089899 0.14779805 0.44905332 -0.12358625
000200 36 3b 75 3e 86 c2 38 3d 24 2d 65 bd fc 36 9e 3d
       0.23948368 0.045107387 -0.055951253 0.07725331
000210 40 10 7e 3d 32 55 6d bd 58 72 7d 3e 7b e4 e2 3d
       0.062027216 -0.057942577 0.2475065 0.110787354
000220 e1 83 a4 3c 07 fa 29 be e5 ce 9a 3d 42 d5 dd 3d
       0.020082416 -0.16599284 0.07558993 0.10831691
000230 3e db a0 3d 42 9b d5 bc 4d bc 4f bd ad c4 a3 bc
       0.07854317 -0.02607501 -0.050716687 -0.019991243
000240 5f b8 b5 3d 00 e0 5d 3d 78 35 37 bd 0b 65 d8 bd
       0.088730566 0.0541687 -0.044728726 -0.105661474
000250 73 7c cf be fe 04 3c be 32 6b 02 3c 88 1c 00 3e
       -0.40524635 -0.1836128 0.007960128 0.12510884
000260 c6 5e f3 bd f8 71 6d 3e 16 37 50 be 27 6d c2 bd
       -0.11883311 0.23188007 -0.20333514 -0.094934754
000270 dc 54 8a 3d fd 17 4e 3e 26 de f4 3d d4 1d 8c bd
       0.06754467 0.20126338 0.11956434 -0.06841627
000280 7f bf 95 be a7 9e e1 bc 95 48 a8 3d 86 6c 48 bd
       -0.29247662 -0.027541472 0.08216969 -0.04893162
000290 89 db 8d 3d df bd b6 3c 8e ba c5 3d 0c 4b 47 be
       0.06926639 0.022307334 0.09654723 -0.19462222
0002a0 a7 01 cf 3b da c3 d8 3c f7 b3 bd 3d 2b fe 92 bd
       0.0063173356 0.026460577 0.09262841 -0.07177385
0002b0 9c 27 b2 3d 38 cc 26 3e 0e fe d0 3d 70 f5 89 3e
       0.08698961 0.16288841 0.10204707 0.26945066
0002c0 95 e1 3d 3b 35 f8 b7 3d fb 0b 2a 3d df b1 f9 3b
       0.0028973569 0.089828886 0.04151533 0.007620081
0002d0 f4 a7 83 3c b0 60 45 3e ae ae 11 3d b9 9d 83 be
       0.016071297 0.19275165 0.03556698 -0.2570627
0002e0 6b 42 89 be 90 84 ad 3e 5a cb 30 bd 6f 4f c4 3d
       -0.26808485 0.338902 -0.04316268 0.09585463
0002f0 af 38 7b 3d bf 32 27 be 5c ce 6f 3e 9b 1b 6f 3d
       0.061333355 -0.16327952 0.23418564 0.058375936
000300 01 6b bf 3b 92 4f e0 bd 93 d3 dc 3d fb 63 8c 3d
       0.0058416133 -0.10952677 0.10782542 0.06855007
000310 5a 09 b6 bd 8b a3 1a 3e 6e 86 22 be b4 29 97 3d
       -0.088885024 0.15101449 -0.15871593 0.07381001
000320 d5 44 28 ba d2 d8 e7 3c 08 6f fb bd 22 54 81 3d
       -0.0006418948 0.02830163 -0.12277037 0.06314875
000330 b6 1b 94 be 47 17 73 be 6f fe 02 be d7 ad 02 be
       -0.28927392 -0.23739348 -0.12792371 -0.12761627
000340 f0 22 b7 3d 2d eb 48 be bc 32 4c bd 87 b9 96 3d
       0.08942211 -0.19620962 -0.04985307 0.07359605
000350 5b 1c 9d 3d 96 13 b7 3d 6c ae 15 3c 06 3f 16 3d
       0.07671424 0.089392826 0.009135824 0.036681198
000360 72 1d 31 3c 17 b9 0c be ac 25 22 bd 62 02 a1 3c
       0.010810243 -0.13742481 -0.039586708 0.019654457
000370 64 0b 04 3e 1f 09 10 be d5 a6 d1 bd 0b 57 bf bd
       0.1289497 -0.1406598 -0.10236899 -0.09342774
000380 f8 62 41 be f1 c5 92 be 70 bc 85 bb 95 32 8b bb
       -0.1888541 -0.28666642 -0.0040813014 -0.004247973
000390 d6 cb 96 be 44 e0 2e be 0e 7b 9d 3c 64 48 3f 3e
       -0.2945239 -0.17077738 0.019223716 0.18679959
0003a0 16 d6 a9 3d 73 44 85 3e 7d 6c 73 bd 73 8c 66 3d
       0.08292787 0.26028785 -0.059429634 0.056286287
0003b0 d6 7f a5 bc eb d6 9b 3d 60 09 e9 bd 2c ec bf 3b
       -0.020202558 0.07609352 -0.11378741 0.0058570113
0003c0 50 d0 a4 bd 09 af 1c bd e0 87 82 3d d9 1f 93 be
       -0.08047545 -0.038252864 0.06373572 -0.28735235
0003d0 8c aa 03 3e e1 b3 12 be d5 bd 2b be 7a 5c 6a bc
       0.12858027 -0.14326431 -0.16771634 -0.014304275
0003e0 47 ba e0 3c f7 3d 97 bc 51 b7 17 3e b2 8f c0 bd
       0.027432574 -0.018462164 0.14816023 -0.09402408
0003f0 3b b2 02 3e c0 7b 89 3d 6b 43 3d be 57 05 2a 3e
       0.12763302 0.067130566 -0.18482749 0.166036

blocks.0.conv2.bias f4 [16]
000000 8a ba 1b be 3f cd e7 bd 5e 91 14 3d 3d 63 75 3d
       -0.15207878 -0.113184445 0.036271445 0.059909094
000010 bf 71 5b bd ba f8 94 be 11 c2 64 3e a7 83 3d 3e
       -0.053575274 -0.29096013 0.22339655 0.18507253
000020 2b 42 b2 3d 2d 6f 5c 3e c3 d9 a3 3d 5f 51 1f 3e
       0.08704027 0.21526785 0.08000519 0.15558384
000030 c3 d3 b0 3e a8 55 09 be fb ae 73 bd 98 66 0a 3e
       0.3453656 -0.13411582 -0.059493046 0.13515699

blocks.0.conv2.weight f4 [16, 16, 1, 1, 1]
000000 d9 af 87 3e 27 58 83 3c 52 71 86 bc 0b f3 05 bd
       0.2650135 0.016033245 -0.016411457 -0.032702487
000010 a3 6f 2e 3d 41 64 bc bc 05 26 9b bc 73 83 5a 3e
       0.042586934 -0.022997024 -0.018939028 0.21339206
000020 a6 1f e6 3c b0 9f 96 3d 23 42 87 3b f2 76 eb 3d
       0.028091263 0.07354677 0.004127757 0.114972964
000030 5b f3 20 3e 60 49 d6 bd a6 75 f9 bd 36 33 41 bc
       0.15717833 -0.10463214 -0.12180643 -0.011791995
000040 65 0c f6 bc 36 86 96 bd 7b 05 27 be 33 e4 4a be
       -0.030035207 -0.073498175 -0.16310684 -0.19813614
000050 52 25 27 be 30 75 2b 3d 43 bb e6 bc 01 1c 82 3d
       -0.1632283 0.041859806 -0.028165465 0.063529976
000060 7e f9 b2 3d 44 55 25 3e 93 e6 c6 3d 0a b2 80 3e
       0.08738993 0.16145808 0.09711947 0.25135833
000070 6d 2d 57 be 4e f6 87 be b7 19 f8 3c 6e a7 ba 3c
       -0.21013422 -0.26555103 0.0302857 0.022784915
000080 24 11 98 3d df 39 c4 3d d0 8e ee bd fc ec c1 bc
       0.07425144 0.095813505 -0.11648333 -0.023672573
000090 80 9d 5e 3e 9a 40 1d 3e f2 3b 5b 3e 31 7f 90 3b
       0.21739769 0.15356675 0.21409586 0.0044096936
0000a0 a2 23 28 bc d0 a0 97 bd d3 b4 aa bd 0f b6 3f 3e
       -0.010262402 -0.074037194 -0.08335271 0.18721794
0000b0 51 87 68 be 70 0e 98 3e e9 7f 01 3e a5 e8 52 3e
       -0.22707869 0.29698515 0.1264645 0.2059656
0000c0 d0 b6 94 be 4f da 2e 3e 0c 5c 1a be c0 90 ab 3d
       -0.29045725 0.17075466 -0.15074176 0.08377218
0000d0 d0 7e 07 be c0 fd 3f 3e 86 35 36 3e 29 fd 3d 3e
       -0.13231969 0.18749142 0.17793855 0.18553604
0000e0 48 a8 26 bd b3 7b 8f bd 59 b2 31 3e aa 52 c4 bd
       -0.04068783 -0.07006016 0.1735319 -0.095860794
0000f0 19 66 ec 3c 9d 87 20 3e e1 36 14 3e 8f 4c 11 3e
       0.028857278 0.15676732 0.1447406 0.14189361
000100 1a c6 d9 3d d4 d2 7e bd 6a 6b 45 bd 7b de 22 be
       0.10633488 -0.06221278 -0.04819814 -0.15905182
000110 4a 4f 7b be 14 30 9b bd 45 f9 3f be 3e 09 ab 3d
       -0.24541965 -0.075775295 -0.18747433 0.08351372
000120 92 4c 23 3e 57 22 85 3d ff cb 7a 3e cd 3d 08 be
       0.15947178 0.065006904 0.24491881 -0.13304825
000130 34 40 4e be 61 9f 72 be 44 83 9c be 2f 32 06 be
       -0.20141679 -0.2369361 -0.30568898 -0.13105081
000140 50 fc 5f bc d6 03 aa 3c 11 71 85 bd 92 e7 49 be
       -0.013670996 0.020753782 -0.06515706 -0.19717243
000150 ea 7e 00 be 36 7d 3c 3e 7e 9a 49 be db 56 5c 3e
       -0.12548414 0.18407139 -0.1968784 0.21517508
000160 95 e8 5c bd 75 04 7e be 71 af 3e 3c e3 b4 4f 3e
       -0.053932745 -0.24806388 0.011638508 0.20283847
000170 02 c0 52 bd 80 bd a9 3d 61 39 39 3d 06 fc 15 be
       -0.051452644 0.082880974 0.045220736 -0.1464692
000180 45 f2 f6 3d f6 ec b2 3d 58 94 20 3e 8b 0b 73 3e
       0.12057928 0.08736603 0.15681589 0.23734872
000190 76 b1 c6 bd 1b b8 c3 3c d1 6e e0 bb d3 f2 17 3e
       -0.09701817 0.0238915 -0.006849148 0.14838724
0001a0 23 cd 14 3c 1d e9 61 3e 42 27 cc bc e1 eb cd bd
       0.0090821115 0.22061582 -0.024921063 -0.10054756
0001b0 d2 23 97 3d c0 5e e6 3d 49 fd d0 bd ca c5 43 be
       0.07379879 0.11248541 -0.1020456 -0.1911842
0001c0 7b d6 5b 3e 58 60 99 bd c4 92 6e bd 6d 28 d3 3d
       0.21468537 -0.07489079 -0.058245435 0.10310445
0001d0 71 39 04 be 19 a4 54 bc 5e 86 f8 3c 65 df 0f bc
       -0.12912537 -0.012978577 0.030337509 -0.008781289
0001e0 5a 1c 04 be 8e 26 2c be 88 91 42 3d ae ca 0b bd
       -0.1290144 -0.16811582 0.04750207 -0.034128837
0001f0 41 a5 b4 3d 83 9e b5 bd 58 22 ff 3d a2 08 8c bc
       0.08820582 -0.08868124 0.124577224 -0.01709396
000200 b2 03 90 be 5b 6f f2 bc ff 90 2c 3d 49 d2 3b be
       -0.2812782 -0.029594114 0.042130467 -0.18341936
000210 f8 cc 2d be 61 c7 80 be c8 ce 35 3e 69 10 51 be
       -0.1697272 -0.25152114 0.17754662 -0.20416416
000220 02 d0 8e be 5d c7 1e be b9 7f 20 bc f4 ca 14 3e
       -0.27893072 -0.15505739 -0.009796076 0.14530545
000230 f5 a0 8f 3e db b2 5e be 73 f3 1b 3e be 0f 92 3e
       0.28052488 -0.21747915 0.15229587 0.28527635
000240 84 d3 88 bb 0c ad bf bd 86 84 04 be df b4 02 3e
       -0.0041756053 -0.09359178 -0.12941179 0.1276431
000250 2f c8 8e bb ca f8 68 bd f1 e4 8c bc 81 20 59 3d
       -0.00435736 -0.05687789 -0.017199012 0.053009514
000260 42 13 7e 3d f9 3c 25 bb c9 95 4d bd bc c3 59 bd
       0.062030084 -0.0025213344 -0.050191674 -0.053165182
000270 96 19 33 3c c1 47 31 bd 6e 47 04 3e af 66 fd 3c
       0.010931393 -0.04328132 0.12917873 0.030932752
000280 ae 90 9b 3e 89 85 06 bc be 68 91 be 8e 42 5e 3c
       0.3038382 -0.008210548 -0.28400224 0.013565673
000290 80 68 3c 3c b3 77 08 be 2a fd c0 3d 4b 72 27 3d
       0.011499524 -0.13326912 0.09423287 0.040880483
0002a0 e6 f5 62 3e cc 6c 72 be 2c 67 0b 3d 03 df 7a 3e
       0.22164115 -0.23674315 0.03403394 0.24499135
0002b0 d1 62 63 bc f1 67 71 3e 72 b0 0e 3e 3a f0 44 bc
       -0.01387854 0.23574807 0.13934496 -0.012020165
0002c0 80 74 e0 bd 1e fd 27 3d 2e 11 54 3e 8d e5 ad bd
       -0.109597206 0.041012876 0.20709679 -0.08491049
0002d0 3c 21 29 be 57 71 d3 bd d9 e7 3c 3e 38 84 d7 3d
       -0.16516584 -0.10324352 0.18447818 0.105232656
0002e0 eb 07 b1 bd 5d 52 1d 3e ad 67 62 be 6a 12 0d 3d
       -0.08644088 0.1536345 -0.22109862 0.03444139
0002f0 c7 8b d1 3d 27 af 05 3e 5a 2f 12 bc 47 ce 18 3e
       0.102317385 0.13055097 -0.008922422 0.14922439
000300 f8 90 e3 3d a8 59 b3 3d f7 47 d7 bd 4d e7 37 bc
       0.11111635 0.08757335 -0.10511773 -0.01122458
000310 d3 0d 15 3e ec c9 2b bc 73 9c f0 bc 69 15 bd 3d
       0.14556055 -0.010485154 -0.029371476 0.09232599
000320 28 0a 14 be 9e 1a 63 be 1e 10 19 3e a1 d0 f9 bd
       -0.14457 -0.22178122 0.14947554 -0.12197996
000330 f3 a4 bd 3c 51 e9 5b 3e 8c 93 14 bd cc 87 d6 3d
       0.023149943 0.21475722 -0.036273524 0.1047512
000340 49 69 55 be 09 ca 62 bc 1e 7a 0a 3e 88 a2 0d 3d
       -0.20840944 -0.013842114 0.13523147 0.03457883
000350 d1 94 33 be 4b ca 3e 3e 36 7b 09 3d bd d1 8b bd
       -0.17537238 0.18631856 0.03356477 -0.06827114
000360 f6 ca 0a be 51 ee c2 3c a7 c2 28 bc 88 23 3f 3e
       -0.13553986 0.023795279 -0.010300315 0.18665898
000370 00 61 ae 3d 7e 20 87 3e 20 89 e5 3d d8 a2 b6 ba
       0.08514595 0.26391977 0.11207795 -0.0013934029
000380 3d 5a e5 bd db 84 d3 3d b5 14 9f 3e 8f 49 98 bd
       -0.11198852 0.103280745 0.31070486 -0.07435905
000390 63 9f e3 3b 17 d4 08 be 84 c6 be 3d 90 ff b9 bd
       0.0069464906 -0.13362156 0.093152076 -0.09081948
0003a0 29 77 00 be 30 86 4d bd e4 6e 54 be c7 fb e5 bb
       -0.12545456 -0.0501768 -0.20745426 -0.0070185396
0003b0 9e bf d6 bd 61 cf 0e bd 57 0c 8e bc da e7 23 be
       -0.10485767 -0.03486574 -0.017339868 -0.16006413
0003c0 94 47 38 3c e9 03 47 be f5 d2 15 bc 0d c5 4e 3e
       0.011247534 -0.19435085 -0.009144534 0.20192356
0003d0 47 df d4 bd d7 ea 42 bd 26 4d 06 be 77 5a b0 3e
       -0.10394149 -0.047587242 -0.13115367 0.3444402
0003e0 d6 42 00 be b1 61 b7 3d 33 1a 27 3e 8f d8 2f 3e
       -0.12525496 0.0895418 0.16318588 0.17172454
0003f0 7d c1 1e 3e c4 51 29 be ff 8b 0a bd e0 f5 c7 3d
       0.15503497 -0.16535097 -0.033824917 0.09763694

blocks.0.norm1.bias f4 [16]
000000 17 82 45 3e ad 80 a1 3d 2d 2e ea 3c 48 7a e3 3c
       0.19287907 0.07885871 0.028586471 0.02776827
000010 4b 1b 14 3e 72 f4 b6 3d a1 00 9a 3d e9 46 4a bc
       0.14463536 0.08933343 0.07519651 -0.012346008
000020 63 44 31 3d df 23 05 3e ad bd 1b bd ed 8b 18 3e
       0.04327811 0.13001965 -0.038022686 0.14897127
000030 fd 26 9b 3d 4f a2 fe 3d 74 08 2a 3e 9c 8f 25 3e
       0.07575796 0.12433302 0.16604787 0.16168064

blocks.0.norm1.weight f4 [16]
000000 62 6e 84 3f 90 65 41 3f 3d 8b 63 3f 02 46 7f 3f
       1.0346186 0.755456 0.88884336 0.997162
000010 4a fe 8a 3f 1d 41 45 3f 58 cc 84 3f 33 69 70 3f
       1.0858853 0.7705248 1.0374861 0.9391052
000020 1e 22 5c 3f 7f 07 7c 3f 85 d6 68 3f d6 9a 59 3f
       0.8598956 0.9844894 0.9095233 0.85001886
000030 13 0f 86 3f f0 14 5a 3f 31 dc 55 3f b0 25 82 3f
       1.047335 0.851882 0.8353911 1.0167751

blocks.0.norm2.bias f4 [16]
000000 03 02 40 3e c1 f4 56 3c 94 39 c7 bc b7 78 c9 3b
       0.18750767 0.013119877 -0.024319448 0.0061484235
000010 1f 78 93 3d 30 dc 36 bd 94 00 00 3d 25 c8 8d 3e
       0.07200646 -0.04464358 0.03125055 0.2769176
000020 cb 95 a3 3d d6 8f 54 3d fe 4e 28 3b 9b 54 01 3e
       0.07987555 0.051894985 0.0025681849 0.1262993
000030 8f 3b e6 3c e5 2e b4 3d 03 c1 a4 3c 21 ed 16 3b
       0.028104572 0.08798007 0.020111566 0.0023029523

blocks.0.norm2.weight f4 [16]
000000 14 d5 8b 3f 91 38 6c 3f f0 f8 7d 3f 00 26 78 3f
       1.0924401 0.92273813 0.99207973 0.96932983
000010 da bd 81 3f e8 ff 75 3f dc 85 7a 3f 87 e1 80 3f
       1.0136063 0.96093607 0.97860503 1.0068825
000020 2d 67 88 3f a6 d4 79 3f 93 82 78 3f b3 74 8f 3f
       1.0656487 0.975901 0.9707424 1.1207489
000030 af d6 81 3f a4 aa 83 3f dc de 7d 3f 68 82 7d 3f
       1.0143641 1.028645 0.9916818 0.9902711

blocks.1.conv1.bias f4 [16]
000000 30 74 dd 3d 17 49 5f be 6d 3c 92 3e 0d 93 58 3b
       0.10813177 -0.21805225 0.28561726 0.0033046633
000010 15 50 65 bd 2c 97 32 bd b3 e6 92 be b0 63 0d be
       -0.055984575 -0.0436012 -0.28691635 -0.13807559
000020 74 cb 04 be 60 60 83 3e 06 ec 82 bd ad 1d fe 3d
       -0.12968236 0.25659466 -0.06392674 0.12408004
000030 da c1 cb 3d 92 05 3f 3d c6 7f 7e be 68 8b 34 3e
       0.099490836 0.04663617 -0.24853429 0.17631304

blocks.1.conv1.weight f4 [16, 16, 1, 1, 1]
000000 4b ef a4 3e 40 b2 54 3d c7 e5 dc bd 31 07 86 be
       0.32213816 0.051927805 -0.10786014 -0.26177362
000010 59 a3 bf bd 01 64 4d bd d1 48 ca 3d 11 0a a1 3d
       -0.09357328 -0.0501442 0.0987717 0.07863248
000020 a6 73 ef 3c a9 bc 38 3e 78 a1 33 3e 53 98 6e bc
       0.02922995 0.18040718 0.17542064 -0.014562684
000030 4a 86 69 3e ae 13 12 be dd b6 28 3e 86 91 c3 bc
       0.22805133 -0.1426532 0.16476007 -0.023873102
000040 7a 79 04 3e 34 e8 e5 3d 7e 3e 2a 3e 11 e0 4c be
       0.12936965 0.1122593 0.16625401 -0.2000735
000050 55 c2 4f be b5 06 c0 3d 75 20 93 be 7c 51 cf bd
       -0.20288976 0.09376279 -0.287357 -0.10122964
000060 c1 2c d0 ba 59 1c 10 3d cf d3 73 3e 29 1f 6f 3e
       -0.0015882478 0.035183284 0.23811267 0.2335173
000070 96 7b 74 3e 82 48 4d 3e cd fb a0 bd df 75 59 3e
       0.2387527 0.20047191 -0.07860527 0.2123637
000080 ac a7 7e 3d e7 08 dd 3d 23 77 47 3e 54 a6 48 be
       0.062171623 0.107927136 0.19479041 -0.19594699
000090 fc a4 b2 bd 1a 34 3b 3e 5a 99 26 3e cf 98 b3 3d
       -0.087228745 0.18281594 0.16269436 0.0876938
0000a0 ba ba 14 3e 89 26 e5 3d 02 67 64 bd e6 76 c2 bb
       0.14524356 0.111889906 -0.0557623 -0.005934584
0000b0 90 97 1e 3e 32 90 fb bc d7 48 ae bd d0 49 4c bb
       0.15487504 -0.030708406 -0.08509987 -0.0031171925
0000c0 39 d4 20 be ff b9 02 be 3a f6 8e bd 51 ba 0e be
       -0.15705957 -0.12766264 -0.06980558 -0.13938262
0000d0 16 82 01 be 63 d2 ee 3d 4c 0b 31 be 4f d2 b5 bc
       -0.1264728 0.11661222 -0.17289466 -0.02219501
0000e0 17 dd 28 3e ff f2 47 3e 38 ad 9b 3d 4d 7f 3b 3e
       0.16490589 0.1952629 0.07601398 0.1831028
0000f0 3e d2 21 be 9b 5a 71 3e c8 a3 8a 3c 74 81 77 be
       -0.15802857 0.2356972 0.0169238 -0.24170476
000100 fb c9 5c bc 12 79 73 3d aa 52 d5 3d 5d ed b0 bd
       -0.01347589 0.059441634 0.104161575 -0.086390235
000110 e4 1b 8a be 01 ca df 3d b1 88 18 bd 88 fb ac bd
       -0.26974404 0.10927201 -0.037239734 -0.08446413
000120 81 75 d0 bd d4 74 1d 3e 5b 00 57 be 35 c1 f1 bd
       -0.10178662 0.15376598 -0.2099623 -0.118044294
000130 cc 21 82 be 77 7e aa 3c 89 0f 86 3d 30 c0 fe 3d
       -0.2541641 0.020812256 0.06545932 0.124390006
000140 31 e8 18 3e 36 26 91 be 0e 4a 47 3d 76 3b 5c 3e
       0.14932324 -0.28349465 0.04865461 0.21507058
000150 d5 2b e8 3d 3b 56 75 3e 98 3c 55 be a8 84 78 3d
       0.11336485 0.23958676 -0.20823896 0.060673386
000160 14 2e 86 3d dc 89 fb bd 53 9b 51 be 31 43 d9 3d
       0.065517575 -0.12282154 -0.20469408 0.10608519
000170 bf 5f 9e 3d 9d 4f fe bc f8 4b 13 3e a0 14 70 3d
       0.07733106 -0.031043822 0.14384449 0.05861342
000180 5c c3 b9 bd cc a5 4d 3d 2f 75 36 3e c1 9b 03 be
       -0.09070465 0.050206944 0.1781814 -0.12852384
000190 a4 87 0d be 63 9a c0 bd bc 68 45 bb 49 53 d6 bd
       -0.13821274 -0.09404447 -0.003012224 -0.10465104
0001a0 1e 34 84 3c 01 f9 c8 bc f1 f0 62 be 4a 57 1e 3d
       0.016138133 -0.024532797 -0.22162224 0.038657464
0001b0 d2 86 16 bd 4f 5d 03 3e 43 d5 30 be 18 67 77 3c
       -0.03674967 0.12828563 -0.17268853 0.015100263
0001c0 08 c2 8e bc 8d 5d 8a bd 48 8d 39 3e e4 d5 23 be
       -0.017426506 -0.06756125 0.18120301 -0.15999562
0001d0 4f 5a 04 be fc ac d7 bd f7 5e 80 3c 06 d8 95 bb
       -0.12925075 -0.10531041 0.015670283 -0.004572871
0001e0 0e 19 74 3e 85 65 92 be f9 f5 9e 3d 4f ba ae bc
       0.23837683 -0.28593078 0.07761759 -0.021329073
0001f0 d6 15 b0 3c 26 25 49 3e 2f 25 d9 3d 78 64 0a bd
       0.021494787 0.19643077 0.10602795 -0.03378722
000200 8b 9a 27 3d f4 c9 0e 3e 8e 2f f3 bc d5 e6 50 3e
       0.040918868 0.13944227 -0.029685762 0.20400555
000210 2e 3a 95 bd ef f5 b2 3d f0 89 a6 bd 18 90 ac 3d
       -0.072864875 0.08738314 -0.08131778 0.08425921
000220 67 1f 0f 3e e7 f3 eb bd 8a e7 19 3d 88 ce 0c be
       0.13976823 -0.1152113 0.03757433 -0.1375066
000230 b7 bd a6 bd 27 72 05 3e 0c cd 40 3e 84 87 44 be
       -0.08141654 0.13031827 0.18828219 -0.1919232
000240 dc 5e 9b 3d 43 da 1d 3e 54 8a 83 be c2 17 1b be
       0.07586452 0.15415291 -0.25691473 -0.15145782
000250 a0 e6 d5 3d 80 7e a2 3e 38 8a b3 bc f2 bb 1e be
       0.10444379 0.31737137 -0.021916494 -0.15501383
000260 05 fa f8 3d 32 42 11 3d b1 5b 00 3e 59 92 24 3e
       0.121570624 0.03546352 0.12534977 0.16071452
000270 51 12 04 be 02 54 12 3e 01 70 f0 3d f9 90 93 3d
       -0.12897612 0.14289859 0.11740113 0.07205386
000280 6e f1 1d be 07 f5 22 3e 67 7e 20 be 17 93 4a 3e
       -0.1542413 0.15913783 -0.15673219 0.19782673
000290 e9 79 b1 bc b4 3e 74 3c ce 5e 04 3e 4a 2a 08 3d
       -0.021664577 0.014907528 0.1292679 0.033243455
0002a0 44 5e 78 be 86 cf 7e be 92 61 ff bd 6c 0c 23 be
       -0.2425471 -0.24883851 -0.12469782 -0.15922707
0002b0 6f b9 55 be f3 f8 41 3e 83 72 30 be cf cc 7f 3d
       -0.20871519 0.18942623 -0.17231183 0.06245118
0002c0 9c 29 e8 3d 0c e5 ce 3d 3d 5e 08 be e9 76 4a 3d
       0.11336061 0.10102281 -0.13317199 0.049429808
0002d0 b8 43 e1 bc 1a 8d 5d 3e bc 89 f6 bd ba d5 13 be
       -0.027498111 0.21635857 -0.120379895 -0.14436999
0002e0 d9 19 c5 3d e3 43 d8 3d 74 9e 25 be d4 17 35 3c
       0.09624071 0.10559823 -0.16173726 0.011053044
0002f0 47 1b 4e be 9d ed 16 be 00 fe 4a be 99 f0 23 3d
       -0.20127593 -0.1473908 -0.19823456 0.040024374
000300 00 39 1f be ac 6a f1 bc cc ab 02 be ff d2 22 3e
       -0.15549088 -0.02946981 -0.12760848 0.15900801
000310 34 dd c7 bd 3b dc 06 bd 33 ce ed bd d9 14 8d 3d
       -0.09758988 -0.032924872 -0.11611595 0.06888742
000320 25 82 1f be d0 b0 22 be cb c6 78 bd 5a b3 fa 3d
       -0.1557699 -0.15887761 -0.06073646 0.1224124
000330 f7 69 00 be 6f 00 f1 bc 01 d1 a2 3d bd 5e a2 be
       -0.12540422 -0.029419152 0.079500206 -0.31712905
000340 d7 ed 80 bd 9d a9 de 3c 9d a0 20 be 54 f3 28 3e
       -0.06295364 0.027180487 -0.15686269 0.16499072
000350 4d 2a aa 3d 87 ad 6e 3d 4f db e3 ba 15 1b 0f 3e
       0.083088495 0.058270957 -0.0017384085 0.13975175
000360 a9 1c 87 bd 08 1c 7c bd ac ab b5 bd 72 af 1d 3e
       -0.06597263 -0.06155017 -0.088706344 0.15398958
000370 76 ad c2 ba 1f fe 54 be 0f 3d 46 3e 57 49 56 3e
       -0.0014852721 -0.20800065 0.1935923 0.20926414
000380 38 49 31 3d bc 17 d9 3d 1e 31 5d bd 33 60 b0 3d
       0.043282717 0.1060023 -0.05400192 0.086120985
000390 42 10 be 3c 71 52 35 be a4 f8 4f 3e ab 1c 5d be
       0.023201112 -0.1770723 0.20309693 -0.21592967
0003a0 1d e7 be 3d 99 33 8e 3c 84 9c 11 be c9 be 93 bd
       0.09321425 0.017358588 -0.14219862 -0.07214124
0003b0 3d 61 54 be f5 25 b3 bd b2 a9 1b 3e 96 80 ac bd
       -0.20740218 -0.08747474 0.15201452 -0.08422963
0003c0 87 07 8b bd 29 5b 17 3d 73 9d 94 bd 3f 64 0c bd
       -0.06788545 0.03695217 -0.072565936 -0.03427529
0003d0 c9 55 8d bd 99 bf bc bd a8 22 29 3e c9 2d e8 b9
       -0.06901128 -0.09216232 0.16517127 -0.000442846
0003e0 1c f0 e5 bc e7 e0 6d bd bd cd 66 be b2 2b 67 bd
       -0.028068595 -0.05807581 -0.2253942 -0.056438155
0003f0 26 cd 5f 3e d0 87 3f 3d 10 db 9e be 3b 65 82 bc
       0.21855602 0.04676038 -0.31026506 -0.015917411

blocks.1.conv2.bias f4 [16]
000000 fd 43 a6 bc a2 c6 8a be 48 68 2e be 47 41 71 3c
       -0.020296091 -0.2710467 -0.17031968 0.014725036
000010 0b df 91 3d 49 20 d1 3d 49 20 8d bd 67 f9 c1 3b
       0.0712262 0.10211236 -0.068909235 0.0059196237
000020 63 13 e0 3d 54 da 8f 3d 6c 4e d6 bd ce 10 33 3e
       0.10941198 0.07024065 -0.104641765 0.17486879
000030 34 e8 76 3e 0e 0e ae bd 2b 3c 9b 3d 66 29 4f 3e
       0.24112016 -0.084987745 0.075798355 0.20230636

blocks.1.conv2.weight f4 [16, 16, 1, 1, 1]
000000 28 74 9b bd cc ac 01 be 7c 0f 21 3e 17 f9 e2 bd
       -0.075905144 -0.12663573 0.15728563 -0.11082666
000010 fd c0 14 3e 8a e5 b6 bd 03 50 12 be 8d bb 32 3c
       0.14526744 -0.089305 -0.14288335 0.010908973
000020 9e c4 e4 bd d7 9e 4a bd 48 f4 c7 3d f8 a9 de 3d
       -0.11170314 -0.049467888 0.0976339 0.10872263
000030 90 7e 4a 3e c5 04 97 bd 5b 9a 8f be cf 6c b2 3d
       0.19774842 -0.073739566 -0.2804745 0.0871216
000040 de e6 fc bd f5 ff 8c bd d3 33 3b be 94 0d 69 3d
       -0.12348722 -0.068847574 -0.18281488 0.056897715
000050 6b 64 51 be 14 34 50 be 28 f5 c9 bd 1a 06 9a 3b
       -0.20448463 -0.20332366 -0.09861213 0.0047004344
000060 3d 0c ee 3d ef a9 4f be 6d dc 47 bc d4 7a 97 be
       0.11623428 -0.20279668 -0.01219855 -0.29585898
000070 9e 9c 57 be c8 10 5b be 51 ad 51 be ee 34 37 3e
       -0.21055838 -0.2139312 -0.20476271 0.17891285
000080 31 46 bf 3e a3 1d 86 3e 17 3e 37 3c 2a ac 06 bd
       0.3735824 0.26194486 0.011184237 -0.032879032
000090 ad 3a 92 bd 44 f4 ed bc 4f 54 51 bc ed 05 3b be
       -0.07140098 -0.029047139 -0.012776448 -0.1826398
0000a0 a9 5e 4b be 94 2a 55 bd 1a 30 97 3d 87 4a 9d 3d
       -0.19860329 -0.05204256 0.073822215 0.076802306
0000b0 be 86 07 3e 3a 56 d1 bb fe da 68 be 87 f2 01 be
       0.13234994 -0.006388453 -0.22739789 -0.12690173
0000c0 c7 73 78 be ac a7 97 be fc 11 89 be e8 ad ae 3d
       -0.24262916 -0.2962011 -0.26771533 0.08529264
0000d0 f5 a1 0b be 32 b0 ed 3d 27 8b 3c be 52 91 ac 3d
       -0.13636 0.11605872 -0.18412457 0.08426155
0000e0 43 3d 7d 3d 71 68 20 be 22 51 67 be a4 47 b5 bd
       0.061826 -0.15664841 -0.22589543 -0.08851555
0000f0 d9 a0 4e bc 58 9c 5b 3d 0c c7 6e 3e b9 85 47 be
       -0.012611591 0.053615898 0.23318118 -0.19484605
000100 05 fd b4 bc 07 99 a6 bd 17 46 4c bd 7a 97 c8 bd
       -0.022093305 -0.081346564 -0.04987153 -0.09794517
000110 c9 aa 15 be c7 74 77 3e 4a 96 14 3e 33 38 98 3d
       -0.1461593 0.24165641 0.14510456 0.07432594
000120 29 d0 9e bd 6b 50 08 3d f0 43 a6 bc b7 f2 8a 3d
       -0.07754547 0.033279818 -0.020296067 0.067845754
000130 3f 42 40 3e a3 e9 72 3d ea 25 70 be 42 06 8c 3e
       0.18775271 0.059304845 -0.23451963 0.27348524
000140 48 a1 3d 3e 62 db 10 3e a7 a7 44 3e 46 28 40 be
       0.18518555 0.14146188 0.1920458 -0.18765363
000150 79 61 db bc 0e b3 e5 3c 70 65 fd 3c 9d 68 8e be
       -0.026779877 0.028039481 0.030932158 -0.2781419
000160 2a 23 60 3e e1 00 37 bd b0 1b f6 3b 8b bf 9a be
       0.21888414 -0.044678573 0.007510625 -0.3022426
000170 87 6b e4 3d 21 7e 60 be ba 5f a6 3d 31 ba 5f be
       0.11153322 -0.21923114 0.08123727 -0.2184837
000180 cf a2 9d be 2d 93 d9 bd 4b be 24 be 71 cf 33 3e
       -0.30788276 -0.10623775 -0.16088216 0.17559601
000190 4c 4e 50 3d 44 bb 0b be 80 52 58 3d 8c fa 9d 3e
       0.05085592 -0.13645655 0.052813053 0.30855215
0001a0 61 d0 e1 3d 57 99 bb 3c 8d c3 ff bb 00 b0 1b be
       0.11026073 0.022900267 -0.007805294 -0.15203857
0001b0 e3 d8 4a be a2 b6 59 3e 87 41 76 bc 4f 25 5e bd
       -0.19809298 0.21261075 -0.015030271 -0.0542348
0001c0 e0 85 dc 3b 51 c4 a6 3d b1 c7 d6 3d 07 21 79 3d
       0.0067298263 0.08142913 0.10487307 0.060822513
0001d0 44 35 f9 bd e6 14 0d be 4e 1f cb 3c ff 8b 8f be
       -0.12168363 -0.13777503 0.0247952 -0.28036496
0001e0 c2 59 3b be bb d6 35 b9 a8 37 c9 3d f9 d8 85 3d
       -0.18295959 -0.00017341498 0.09825069 0.06535525
0001f0 67 4c de bd ca f6 31 3e 1d fc 32 be cb ed 15 3e
       -0.10854416 0.17379299 -0.17478986 0.14641492
000200 89 3b de 3d 86 13 98 3e fa d4 f9 3d 46 2d 92 be
       0.10851199 0.29702395 0.12198825 -0.28550166
000210 fa 34 7a 3d 7b 0b 22 be 27 b5 4f 3d 2c eb 76 be
       0.06108568 -0.15824692 0.05070987 -0.24113148
000220 63 0e a0 bb b5 73 04 be e5 c1 f7 be 47 d1 3a bb
       -0.0048845275 -0.12934764 -0.48390117 -0.0028506087
000230 31 78 68 be b5 03 e3 bd b0 99 00 be c6 bc 27 bd
       -0.227021 -0.110846914 -0.12558627 -0.040951513
000240 43 f6 bf 3c c6 4a 9e 3c 69 5f 4e 3d fc 64 29 3e
       0.023432856 0.019322764 0.05038396 0.16542429
000250 40 a2 ec 3d 43 46 4e bc f0 59 63 3c 4a d4 ea 3d
       0.11554384 -0.012589994 0.013876423 0.11466272
000260 da 6e b9 3c 9f 3d 06 be e9 f4 e8 bb 49 59 3f be
       0.022635866 -0.13109444 -0.0071092737 -0.18686403
000270 60 ab 4e 3e a6 d2 37 bd f6 ee 8d be 45 03 a1 bd
       0.20182562 -0.044878624 -0.27721375 -0.07861952
000280 b4 bf 8f bd fc 8e 1b be c1 8b 12 3e fe f4 3d bd
       -0.07018986 -0.15191263 0.14311124 -0.04637622
000290 42 1f 88 3d f3 19 2a 3d 1c 38 12 3d 18 6d 6d be
       0.06646587 0.041528653 0.03569804 -0.23186147
0002a0 12 85 26 bd 41 c7 5e 3e ee a3 0b 3d 0e 77 36 3e
       -0.04065425 0.21755697 0.034091882 0.17818853
0002b0 5f 24 46 be a3 e4 24 3e 41 63 fd bd 50 8e 26 3e
       -0.19349812 0.16102843 -0.12372447 0.16265225
0002c0 ad 3a 14 be 61 fd 7a bc 37 12 87 be 65 30 27 3e
       -0.14475508 -0.015319199 -0.26381084 0.16327055
0002d0 05 46 0f 3e 63 a2 3f bc 53 91 a6 bc e3 d7 ea 3d
       0.13991554 -0.011696431 -0.020332968 0.114669584
0002e0 79 dc 5e 3e e7 5a 43 3d 4a 1f 91 be d9 6f 4c be
       0.21763791 0.047694113 -0.28344184 -0.19964541
0002f0 e1 52 c3 bc b7 6b 48 be 48 77 3d 3e 98 7f 5e bb
       -0.02384323 -0.1957234 0.18502533 -0.0033950564
000300 05 37 09 3e ad 9e 15 be b6 0c 87 bd c5 ae 8d bc
       0.13399895 -0.14611311 -0.06594221 -0.01729525
000310 65 ad 00 3d ab 4d 1c 3e 1c a4 22 be 01 b3 93 3e
       0.031415362 0.15264003 -0.15882915 0.28847507
000320 b2 d9 3f be 90 9e e0 3d 47 db e9 3b 82 ea 8d 3d
       -0.18735388 0.109677434 0.0071367356 0.069294944
000330 7b 55 09 3e bb 81 e6 3d d9 0f b6 be 02 41 1b 3d
       0.13411514 0.11255213 -0.35558966 0.037903793
000340 8d bd 0e 3e a9 58 71 3e 92 90 e5 3c 69 7c 71 3d
       0.13939495 0.23568977 0.028023038 0.058956537
000350 ee 85 3e 3e 93 c4 0e be 4f c2 57 3e df 0e 65 bd
       0.18605778 -0.13942175 0.21070217 -0.055922385
000360 d6 ad 39 3e 34 79 21 3d 0e 2e e1 3d 75 f1 3e bd
       0.1813272 0.03942223 0.10995112 -0.04661699
000370 b7 a9 cd 3d 11 7a 9f bd 4b 82 22 3e 04 69 4e 3e
       0.10042136 -0.07786954 0.15870015 0.20157248
000380 ef 0c 92 3d 8c 7e 2a bc d3 97 29 3c 63 e7 07 3d
       0.07131373 -0.010406148 0.010351139 0.033179652
000390 b2 a5 8a bd 0d 35 c0 3c 82 3c 3e 3e d7 5d c5 bc
       -0.06769885 0.023462797 0.1857777 -0.024092598
0003a0 5c cf 78 3d d9 d1 6a 3e 25 1b 09 be d5 f7 ee bc
       0.06074463 0.22931613 -0.13389261 -0.02917091
0003b0 5f b9 0d bd 6f e0 9f 3e a7 50 4f be bb bb 39 3e
       -0.03460061 0.31225917 -0.2024561 0.1813802
0003c0 4e 74 01 be 66 b8 5e 3d bf f5 98 bc d7 d4 ed bb
       -0.12642023 0.054375075 -0.018671868 -0.0072580385
0003d0 1f e7 4e bd f6 aa 8a 3c af 64 6d 3d 0a 94 1a bd
       -0.050513383 0.016927224 0.057957347 -0.037738837
0003e0 dd 7f 04 3e 94 0e 77 3d a3 27 03 be e3 4b 11 bd
       0.12939401 0.060316637 -0.12808089 -0.03547276
0003f0 79 d5 b8 bd 1c ad 15 3d 41 d2 4d 3e 32 e2 5d 3e
       -0.09025092 0.036542043 0.20099737 0.21668318

blocks.1.norm1.bias f4 [16]
000000 f1 b5 f3 3d 87 d8 b9 3d 89 39 91 bd 1e 41 88 bb
       0.11899937 0.090745024 -0.07091052 -0.004158153
000010 43 3a 0e 3e d9 cc 75 3e 74 85 1d 3d 03 f1 e1 3d
       0.13889413 0.24003924 0.03845735 0.110322975
000020 5b 06 b3 3d 19 2a 56 3e 51 9a 11 3d 9b eb 80 bd
       0.087414466 0.20914496 0.03554756 -0.06294938
000030 9d 96 07 3e f2 ad 79 3d 21 bb 39 3e df 43 25 3e
       0.13241048 0.060956903 0.1813779 0.16139172

blocks.1.norm1.weight f4 [16]
000000 3c 20 81 3f e2 fb 63 3f 65 70 3f 3f 11 2c 74 3f
       1.0087962 0.8905622 0.74780875 0.9537974
000010 66 aa 70 3f 6a 52 54 3f 48 1d 7c 3f fa a0 8c 3f
       0.9401001 0.82938254 0.9848218 1.0986626
000020 69 bc 4a 3f a5 b3 8f 3f f8 ab 6c 3f 85 94 69 3f
       0.7919374 1.1226698 0.92449903 0.9124225
000030 29 b5 76 3f 98 66 78 3f 06 7d 5b 3f ce 20 75 3f
       0.9637018 0.97031546 0.85737646 0.9575318

blocks.1.norm2.bias f4 [16]
000000 aa f6 15 3d 06 6a 14 3d ab 1c 32 3d 2d f4 28 bd
       0.03661219 0.036233924 0.04348437 -0.04124849
000010 86 2c 17 3c 6f 42 6b 3d 49 52 b6 3d 64 b0 84 3d
       0.009226924 0.057436403 0.089024134 0.06478956
000020 ac 75 25 bd 45 2d 40 3e b1 67 7c 3d 79 f6 d8 3d
       -0.040395424 0.18767269 0.061622325 0.10593886
000030 31 1c 72 3d a8 b1 97 3d b0 5d ec bc eb 28 87 3d
       0.059108917 0.07406932 -0.028853267 0.06599601

blocks.1.norm2.weight f4 [16]
000000 de e0 82 3f b4 e0 76 3f 36 df 83 3f 00 4d 6c 3f
       1.0224874 0.9643662 1.0302494 0.9230499
000010 9d 83 6d 3f bb 29 73 3f df 93 80 3f 0a e5 87 3f
       0.9277895 0.9498555 1.0045127 1.0616772
000020 60 6f 82 3f b8 0c 88 3f 91 96 7e 3f 83 b3 8b 3f
       1.0190239 1.0628881 0.99448496 1.0914158
000030 8c c6 67 3f 53 94 81 3f 8a 52 65 3f 81 31 85 3f
       0.90537333 1.012339 0.8957907 1.0405732

blocks.2.conv1.bias f4 [16]
000000 62 d2 58 be c4 84 35 3e e5 bc 31 3d 18 f7 6e 3e
       -0.21174005 0.17726427 0.043393034 0.23336446
000010 5f c1 6f bd c3 45 ba 3d cf 97 4d 3e 28 22 0d 3d
       -0.058534022 0.09095337 0.20077442 0.034456402
000020 c4 50 27 3e f4 ab c7 3c 73 49 dd bd ba 27 64 be
       0.16339403 0.024373986 -0.10805025 -0.2228078
000030 e8 ff 84 3e 3f 87 1c 3e 39 2b d0 3d f0 20 e2 3d
       0.2597649 0.15285967 0.10164494 0.110414386

blocks.2.conv1.weight f4 [16, 16, 1, 1, 1]
000000 81 9c aa 3e 2d 67 4f bd db da 61 bc eb 09 09 bd
       0.33322528 -0.050635505 -0.013785089 -0.033456724
000010 90 d3 63 3e 3c fc 17 bd f5 d4 06 3e 96 0c 1c be
       0.22248673 -0.037105784 0.13167174 -0.15239176
000020 ae 21 ee 3d e2 20 2d 3e 6b 1c 14 3d 51 de 01 be
       0.11627518 0.16907075 0.036159914 -0.12682463
000030 db 5e 84 be 84 8c 4b 3e 64 d4 93 bd 2d 90 83 3d
       -0.2585362 0.19877821 -0.07218245 0.06423984
000040 d6 eb 46 bd e3 51 97 3e f0 cd a6 bd 40 e9 a8 bd
       -0.048564754 0.29554662 -0.08144748 -0.08247614
000050 43 e4 a3 3d 6a 01 73 3e 43 d2 66 be d1 41 54 be
       0.08002522 0.23731008 -0.22541146 -0.20728232
000060 c2 a8 b6 bc 08 ae 85 be 84 9b 5a be ca da 5c 3e
       -0.022297267 -0.26109338 -0.21348387 0.21567836
000070 2b 2d 7c be 43 56 10 3e 0e b9 de 3d 92 d9 99 3d
       -0.24626605 0.14095406 0.1087514 0.07512201
000080 25 69 2c bd 79 4e 8a 3e 71 32 27 3e 15 19 33 be
       -0.04209246 0.27012995 0.16327836 -0.17490037
000090 2d 53 0c 3d 04 7e 5d 3e 84 d3 c5 3d 55 67 3c 3d
       0.03425901 0.21630102 0.09659484 0.045996983
0000a0 ec 08 43 3e 9a 38 64 be 3f 37 62 bd 07 88 29 bc
       0.19046372 -0.22287217 -0.055228468 -0.010347373
0000b0 72 b9 80 be 33 ef 93 bc 98 41 49 be 13 66 97 3d
       -0.25141484 -0.018058395 -0.19653928 0.07392516
0000c0 66 98 f5 3d 68 c5 47 be 36 d9 00 3e 6e 82 49 bd
       0.11991958 -0.19508898 0.1258286 -0.049196653
0000d0 dd cb c7 3d cd b4 26 be 2e 44 9a 3d e6 f8 0f be
       0.09755681 -0.16279908 0.075325355 -0.14059791
0000e0 86 22 14 be e3 34 20 be da 20 1b be 98 de 80 be
       -0.14466295 -0.15645175 -0.1514925 -0.25169826
0000f0 27 15 42 be 74 56 ab 3d 89 f5 e6 bd 4c a5 00 3e
       -0.18953381 0.08366099 -0.11277301 0.12563056
000100 c6 09 84 be f0 e3 15 3e cd 74 29 be 73 e9 a8 3d
       -0.25788707 0.14637733 -0.16548462 0.08247652
000110 7c 38 cd 3d 4d da 83 3e 83 cc 5e be 73 83 76 bc
       0.10020539 0.25752488 -0.21757703 -0.015045988
000120 c4 2e 83 be 47 4f aa bd 95 11 78 be ea 27 34 be
       -0.25621617 -0.08315902 -0.24225457 -0.17593351
000130 ea b6 b5 3d 13 40 58 3d 94 de 77 be e7 29 cb bd
       0.08872779 0.05279548 -0.24206 -0.099201016
000140 35 78 58 3e 4c 96 19 3c 21 61 80 3c 91 99 38 3d
       0.21139605 0.0093742125 0.015671315 0.045068327
000150 eb db 5f 3e 14 fc f3 bd 33 56 35 be 2c 30 10 3d
       0.21861236 -0.119133145 -0.17708664 0.03520219
000160 be a8 86 bd 98 dd f9 3d 4d f2 44 be 49 70 35 3e
       -0.06575154 0.12200469 -0.19233055 0.17718615
000170 8c b6 f0 bd 76 67 2a be a7 52 9a 3d dc b3 18 3e
       -0.11753568 -0.1664103 0.07535296 0.14912361
000180 da 4e 50 3e 73 b9 82 bd 87 ba 21 3e 59 89 be bd
       0.2034258 -0.06383028 0.15793811 -0.09303541
000190 07 b4 3c 3e 8a 25 f3 bc 01 84 ca 3d 75 c9 db bd
       0.1842805 -0.029680986 0.09888459 -0.10731784
0001a0 10 03 06 3e 20 87 ea 3d d8 89 99 3d 20 1d 06 be
       0.13087106 0.11451554 0.07496995 -0.13097048
0001b0 af e7 82 3e e8 6b 0e be ca 3c 66 3c 8f d6 23 3d
       0.25567386 -0.1390835 0.014052579 0.03999954
0001c0 ad 3b ec 3b e6 14 29 3d 10 5b b8 3d db 98 c3 3b
       0.0072092623 0.041279696 0.09001744 0.0059691495
0001d0 b5 c0 a7 3d 25 e8 5f bd 27 fc 35 3d de 5b 1b 3d
       0.08191053 -0.05466475 0.044429924 0.03792941
0001e0 aa dc 71 3d 4a 9a b3 3d 4f 73 1c 3e c2 71 05 be
       0.059048332 0.08769663 0.15278362 -0.13031676
0001f0 58 27 99 3d d0 a0 90 bd b3 34 0f 3e 65 41 02 bc
       0.07478207 -0.070619226 0.13984947 -0.007950162
000200 f9 40 3d 3e cd 18 8e 3d 91 40 6b bd 1c b8 ac 3d
       0.18481816 0.06938324 -0.057434622 0.084335536
000210 08 67 bf bc 52 f2 fe 3c 57 ce 66 3c 2a 80 42 3e
       -0.023364559 0.031121407 0.014087281 0.18994203
000220 92 cc 2b 3e 62 fe f2 bd 19 7c 3e bd 68 04 4b 3e
       0.16777256 -0.11864926 -0.046505067 0.198259
000230 8d 9a de be ac 26 08 be b0 bb 42 3e 89 87 1b 3e
       -0.43477288 -0.13296002 0.1901691 0.15188421
000240 ef e2 35 be e8 e8 55 be 30 c5 b0 3c 1e 1d 7f bd
       -0.1776235 -0.20889628 0.021578401 -0.062283628
000250 c8 9c 84 3e 42 02 43 3c 66 3a 98 3a 9d 31 0f be
       0.25900865 0.011902394 0.0011614084 -0.1398377
000260 69 83 91 3d 02 0e 2d be 0d a8 41 3e 2f 7e 77 3e
       0.071051426 -0.16899875 0.18911763 0.24169229
000270 8e 87 5f 3e 68 69 03 3e 7f 79 41 3d ff 91 02 be
       0.21829054 0.12833178 0.04723501 -0.12751006
000280 26 5d 01 be 36 bb 00 3e e2 03 6b 3d 64 fb c2 3c
       -0.1263319 0.12571415 0.05737675 0.023801513
000290 a2 b1 4c 3e 3f 75 cb bd 31 2e 94 3d 9a 68 48 be
       0.19989637 -0.09934472 0.07235373 -0.19571152
0002a0 a0 c3 36 3d 59 f1 12 3e 89 53 c2 ba d1 07 08 bd
       0.044620156 0.1434988 -0.0014825921 -0.03321058
0002b0 59 0a 94 3d 68 62 86 3d e8 68 ab bd 00 73 28 3e
       0.07228536 0.06561738 -0.08369619 0.16450119
0002c0 d8 db 6c bd a1 83 e4 3d cc 9e 98 3c 19 5c 6b be
       -0.057826847 0.11157919 0.018630408 -0.22984351
0002d0 7b f9 c0 be 0d 34 73 3e c2 e0 b7 bd 7d c2 68 be
       -0.37690338 0.23750325 -0.08978416 -0.22730441
0002e0 a0 db d6 bd 87 16 a9 bd a8 3b 20 be de d4 5b 3e
       -0.10491109 -0.0825625 -0.15647757 0.21467921
0002f0 b1 06 04 be 3a 5d 4e be b1 9c 15 3c 75 14 0c be
       -0.12893178 -0.2015275 0.009131596 -0.13679679
000300 69 14 3e 3e c9 9f 75 3d 6d 42 08 be 55 0e 5d 3e
       0.18562473 0.059966836 -0.1330659 0.21587498
000310 f1 8f e1 bd 14 ba 3f 3e 50 14 2a 3e 56 2f 41 3e
       -0.11013783 0.18723327 0.16609311 0.18865713
000320 4e d1 a2 bd 4d d2 fc bd c4 3c 46 3d 2f 5d 53 bd
       -0.07950078 -0.12344799 0.048397794 -0.05160254
000330 78 bf 55 3e ef d7 3d bb 20 8a de bc 3a 2e 48 bd
       0.20873821 -0.0028967818 -0.027165473 -0.04887221
000340 f4 50 22 be 16 05 29 be 34 5c 04 bd da 58 16 be
       -0.15851194 -0.16505846 -0.032314494 -0.14682332
000350 9e 3b 54 3e 6d 0b 4e bd f6 d5 8e bd 9d fe a7 bd
       0.20725867 -0.050303865 -0.069744036 -0.082028605
000360 26 7c 63 be 7f a5 e9 3d a6 5e a8 3a 7f a7 a2 bd
       -0.22215328 0.11408519 0.001284559 -0.079421036
000370 28 b1 5b be c2 96 60 3e bf 06 04 be 65 19 47 3d
       -0.21454298 0.2193251 -0.12893198 0.048608202
000380 03 69 f9 bc 4b 94 32 be 6e c7 47 3e 48 a0 51 3e
       -0.030445581 -0.17439382 0.1950967 0.20471299
000390 11 75 5b be f9 d3 48 be e3 60 ad 3d 8a aa 8e 3b
       -0.21431376 -0.19612111 0.08465745 0.004353826
0003a0 ab ce 0f be fd ae d0 bd d5 13 f5 bc 5a 7a 22 3e
       -0.14043681 -0.10189626 -0.029916683 0.15866986
0003b0 24 3f 9d 3c 4b 50 0e bd 67 31 44 be 69 33 bd bd
       0.019195147 -0.034744542 -0.1915947 -0.09238321
0003c0 1c c6 58 3e 79 93 61 bd fb 81 4f 3e 48 f8 68 3e
       0.21169323 -0.05507228 0.20264427 0.22750962
0003d0 f8 a5 3a 3e 7f 88 0d bc 6d d2 78 be 07 38 2a 3c
       0.18227375 -0.0086385 -0.24299021 0.0103893345
0003e0 f8 23 e4 3d e1 f3 4d 3e 89 a3 dc 3c 1f 51 8d be
       0.11139673 0.20112564 0.026933448 -0.27600953
0003f0 63 73 78 3d ef a3 37 be 35 0c 2b 3e 94 0b e8 3d
       0.060656916 -0.1793363 0.16703875 0.11330333

blocks.2.conv2.bias f4 [16]
000000 84 27 68 bc 6a c9 1b be e3 6f 83 3c 15 69 da 3d
       -0.0141695775 -0.15213552 0.016044563 0.10664574
000010 58 f4 19 be ed 2d 5c bd 59 d7 13 be 95 42 07 3e
       -0.15034616 -0.053754736 -0.14437617 0.13208993
000020 ae 19 04 3e 17 63 59 be cf f6 e7 bd 3c d1 a6 3d
       0.12900421 -0.21229206 -0.11326372 0.08145377
000030 dd 56 03 be ec 0c 41 be 58 70 c8 3d e8 fd d4 3d
       -0.12826104 -0.18852586 0.09787053 0.10399991

blocks.2.conv2.weight f4 [16, 16, 1, 1, 1]
000000 d9 18 f8 bd 84 84 73 be ef 98 39 be 7a 65 30 be
       -0.12114114 -0.2378102 -0.18124746 -0.1722621
000010 64 ff 35 3d 5c 0a 05 3d f4 a8 0d be 33 78 fe bd
       0.044433013 0.032480583 -0.13833982 -0.1242527
000020 42 11 f1 bd 02 fc 4c 3d 40 7f 0c 3e 16 99 a1 3d
       -0.1177087 0.05004502 0.13720417 0.07890527
000030 11 98 75 3e 47 36 41 bd 97 79 82 be 7e be 1f be
       0.2398379 -0.047170904 -0.2548339 -0.15600011
000040 fc f3 3d be 0d e4 3e 3d 8e a1 e9 3d 04 1d 8a be
       -0.18550104 0.046604205 0.11407767 -0.26975262
000050 17 e4 0c be 1a 03 3c be 71 bc 80 3e f8 99 28 be
       -0.13758884 -0.18360558 0.2514377 -0.16464984
000060 a7 db 1f be a9 a4 6f 3e 18 78 e1 3d c3 06 88 3e
       -0.15611134 0.23402657 0.11009234 0.2656766
000070 38 91 a3 3d 23 ee 9f bd 7a af a2 3e f6 4d 5e 3e
       0.07986683 -0.07809093 0.31774503 0.21709427
000080 34 34 a0 3d 6a d6 f3 3d e3 e0 65 bc 3f e1 26 3e
       0.07822457 0.119061306 -0.014030668 0.16296862
000090 19 fd 0f be 43 b9 16 be 52 8b 38 3d e4 ea aa 3d
       -0.14061393 -0.14719109 0.04505474 0.08345583
0000a0 91 87 2b 3a 37 fe 3a be 0b f8 76 3c c3 0b ab bd
       0.00065433333 -0.18261038 0.0150737865 -0.08351853
0000b0 38 eb ba 3d 0a 9e de bc ff d7 78 3b 01 a9 8a bc
       0.09126896 -0.027174968 0.003797054 -0.01692629
0000c0 ef 5b a0 bc 10 27 5f 3e b8 c5 6d 3d 4c e6 45 bc
       -0.019575087 0.21792245 0.058049887 -0.012078833
0000d0 b5 de 1d 3e 76 5f d5 3b 59 d2 00 be cd 73 3a 3d
       0.15416987 0.006511624 -0.12580241 0.045520592
0000e0 5a a8 36 3d 90 d7 18 bc cd d2 11 bb 51 71 0a 3e
       0.044594146 -0.009328738 -0.0022250891 0.1351979
0000f0 ae d8 ba bd b7 29 08 be de c7 b8 3d e0 d6 d9 3d
       -0.091233596 -0.13297163 0.09022497 0.10636687
000100 1a 13 88 3d 10 ac 1d bb 8e 74 97 3b 53 f7 00 be
       0.06644268 -0.0024058856 0.0046220487 -0.12594347
000110 14 d9 0e be 92 65 43 be 24 e3 c1 3d a3 c8 4b 3c
       -0.13949996 -0.19081715 0.09467152 0.012437972
000120 2f c0 cf bd ab cd 0f 3e 88 26 09 be 89 62 19 be
       -0.10144078 0.140433 -0.13393605 -0.14978994
000130 8e 28 09 be a9 a6 9d 3e 77 45 e1 b9 3f 87 f6 3d
       -0.13394377 0.30791214 -0.000429671 0.12037515
000140 42 61 48 be 5f 51 77 3d c7 c6 30 3e 99 73 95 be
       -0.19568351 0.060380336 0.17263328 -0.29189757
000150 2c f0 40 be 17 ff 84 be a7 ae 17 3e df d9 c3 3c
       -0.18841618 -0.25975868 0.14812718 0.0239076
000160 96 4f 33 be 7e 82 39 bd 41 54 9f bc 85 cc 9a 3e
       -0.17510828 -0.045290463 -0.019449355 0.3023416
000170 f6 88 7a 3d 0f de eb 3d 9f 32 51 3e 4c ac 15 be
       0.061165772 0.11516964 0.20429467 -0.14616507
000180 c8 e8 e6 bd 88 91 9d bd 01 f1 e9 3d 9a d1 84 3b
       -0.11274868 -0.076937735 0.11422921 0.0040533068
000190 c4 0c 7f 3e 33 da 0c be f3 52 e0 3c bd 23 2c 3e
       0.24907213 -0.13755111 0.027383303 0.16810508
0001a0 c6 52 22 be 9d a4 08 3d 91 17 ce bd 1b 2a 3c 3e
       -0.15851888 0.033360112 -0.10063089 0.18375437
0001b0 46 10 32 3e 71 d2 5f bd 53 f8 93 3d b7 09 ce bc
       0.1738902 -0.054644052 0.072250985 -0.025151117
0001c0 2c c1 9c be a1 7f 4c be 4b 9f ae bd 77 a8 09 be
       -0.30616128 -0.19970562 -0.085264765 -0.1344317
0001d0 74 e3 5d 3e 2d 00 3b 3e 7b c7 0f be 37 dc 4b bc
       0.21668798 0.18261786 -0.1404094 -0.01244264
0001e0 95 84 8e be c8 e6 d9 3d 22 2b 9a bd 26 e1 42 be
       -0.27835527 0.10639721 -0.07527758 -0.190312
0001f0 fe 0d fd 3b f8 eb 8b 3e 13 b6 f1 bd f8 2e 33 3e
       0.0077226153 0.27328467 -0.11802306 0.17498386
000200 d9 a0 34 3d 42 fa 59 3d f5 e7 31 3d 08 76 95 be
       0.04409871 0.05321718 0.043434102 -0.29191613
000210 b0 e0 8f bd f7 7c ba 3d fc 05 9f 3d f3 b0 f3 3b
       -0.070252776 0.091058664 0.07764813 0.0074368655
000220 1e 87 49 3e 64 67 e0 bd 2e bd 8f bb 33 7f 25 3d
       0.1968045 -0.1095722 -0.0043865656 0.04040451
000230 0d e6 05 3e 6a 61 b3 bd 67 14 f1 bd 53 9b 7d bd
       0.13076039 -0.08758815 -0.117714696 -0.061915707
000240 73 23 b1 3c 7e d9 6a be de 80 7d 3d 98 24 36 bd
       0.021623349 -0.22934529 0.061890475 -0.044468492
000250 54 c1 7e be ad 76 af be 8c 0a 3a 3e ee 47 44 be
       -0.24878436 -0.3427023 0.18168086 -0.19168064
000260 d6 b4 2d be 3b 35 87 3e be 20 e8 3d d0 89 00 3e
       -0.16963515 0.264078 0.1133437 0.12552571
000270 37 59 e6 3b e8 26 1a bd ae c0 a8 3d 8f 61 15 bc
       0.007029678 -0.03763476 0.08239876 -0.009117498
000280 a9 79 d0 bd 47 7d 6b bd 8b 37 8b 3e 73 a9 87 3d
       -0.10179455 -0.05749252 0.27190813 0.06624117
000290 e3 58 a6 bd 8d 31 3f 3d 40 13 e9 bd 5f 63 0c bd
       -0.081224225 0.046678115 -0.11380625 -0.034274455
0002a0 9c db 43 be fa ec 8c bd ba 13 a4 3d b7 90 f5 3d
       -0.19126743 -0.06881137 0.08011575 0.11990493
0002b0 32 fd e6 bd 90 af 6e bd 9a 31 cc bc ad b7 91 3d
       -0.11278762 -0.0582729 -0.024925996 0.071151115
0002c0 13 f5 b2 3d 5a a3 13 3e dd 9e 22 be 0f fd 24 be
       0.087381504 0.14417782 -0.15880914 -0.16112159
0002d0 2b e5 5b bd 3a 99 1e 3e 26 cd 39 bc f4 8e a1 3c
       -0.05368535 0.15488139 -0.011340415 0.019721486
0002e0 af 9b 2f 3e 30 bd dc bd 67 d2 8d 3d 9c 27 73 3c
       0.17149232 -0.10778272 0.06924897 0.014840987
0002f0 41 30 f3 bd b4 88 3d be ef a1 62 bd d1 b6 0e be
       -0.11874438 -0.1850918 -0.055330213 -0.13936926
000300 9d 3d 80 be 81 47 c3 bd c3 d5 a9 bd 6c 4e 3e 3e
       -0.25047007 -0.09535123 -0.08292725 0.18584603
000310 cf 7e 4c 3e 54 d9 99 3c 0a c5 43 3d f8 94 83 be
       0.19970249 0.018780388 0.047795333 -0.25699592
000320 c5 b1 88 bd a0 b0 ca 3d a2 e7 35 3e cf b4 62 3e
       -0.06674532 0.0989697 0.17764142 0.22139286
000330 c1 3d f9 3c d1 43 c0 3d 44 2d 01 3e f8 fb a9 bc
       0.030424954 0.09387935 0.12614924 -0.02075003
000340 45 ec 4b 3d 2f a1 83 3d 1a 29 d1 bc 62 56 2f 3c
       0.04978587 0.06427228 -0.025532294 0.010701748
000350 c7 67 ac bd 3c 43 b4 3d 6a 8e 98 3e 6d b8 22 be
       -0.084182315 0.088018864 0.29796153 -0.15890665
000360 58 19 31 bd d5 21 7a 3e 01 a6 e2 3d ca d8 7d 3e
       -0.04323706 0.24426968 0.11066819 0.2478973
000370 f3 ed 1a 3e 2f 8f b4 bd 20 27 e6 3d 6c b9 3d 3d
       0.15129833 -0.088163726 0.11237931 0.04631941
000380 77 41 74 bd fe ae f7 bd 9b 9e f0 bc 27 4b 42 bd
       -0.059632745 -0.12093924 -0.029372504 -0.047434952
000390 39 96 fb bd ae 2e dc 3d 17 f8 b6 3d 82 c4 2b be
       -0.12284512 0.10751091 0.08934038 -0.1677418
0003a0 38 ae 58 3d 2b d1 3b be 00 6a 47 3e 14 e6 4e be
       0.052900523 -0.1834151 0.1947403 -0.20204955
0003b0 d4 26 2a 3e a1 6b 5e be cb 16 50 be f8 db f9 bd
       0.16616374 -0.21720745 -0.20321195 -0.12200159
0003c0 76 9b 06 be 12 4f 4e be 4e 9d 01 bd 2b a4 c8 3d
       -0.13145241 -0.2014735 -0.031644158 0.097969376
0003d0 ef 00 0c 3e e2 05 eb 3d 6d 92 00 bd f2 de 3b 3e
       0.13672231 0.114757314 -0.031389643 0.18346766
0003e0 1c 71 75 3c 4c 62 f1 bd cd 28 47 be 48 1b c9 3d
       0.014980581 -0.11786327 -0.19449158 0.098196566
0003f0 3c 77 d4 bc e2 66 c9 bd ec 27 a7 3d 08 a8 b3 3d
       -0.025935762 -0.098340765 0.08161911 0.08772284

blocks.2.norm1.bias f4 [16]
000000 e3 70 41 3d 3f d0 d6 bc a6 95 85 bd 94 33 48 bc
       0.047226798 -0.026222346 -0.06522684 -0.012219328
000010 b2 99 0e 3e b4 e2 65 bd 5d 4d 54 3d 10 fa 81 bd
       0.13925818 -0.056124404 0.051831592 -0.06346524
000020 38 09 8d 3d fb 24 90 3d 8b 73 c4 3d f3 91 96 3c
       0.06886524 0.070383035 0.095923506 0.01838014
000030 58 7f 34 3e be 64 91 3c 36 5d 14 3e 61 a1 24 3e
       0.17626703 0.017748233 0.14488682 0.16077186

blocks.2.norm1.weight f4 [16]
000000 78 e1 8c 3f d2 66 6a 3f ea 0c 79 3f 33 5c 73 3f
       1.1006308 0.9156314 0.9728533 0.9506256
000010 bd d1 71 3f 6e 11 50 3f 97 31 7f 3f 83 bc 4d 3f
       0.9446066 0.81276596 0.99685043 0.8036577
000020 94 b6 63 3f d6 2c 76 3f a1 c8 83 3f ff f6 63 3f
       0.8895047 0.96162164 1.0295602 0.8904876
000030 78 ba 9b 3f f1 e2 71 3f 1f 49 7a 3f 91 8c 6c 3f
       1.2166281 0.9448691 0.97767824 0.9240199

blocks.2.norm2.bias f4 [16]
000000 97 24 87 3d e6 69 3b bd 6f d6 77 bd b5 a2 42 3e
       0.06598776 -0.04575529 -0.060507234 0.1900738
000010 a3 03 b2 bc 6f 4c 28 3d 6d d1 6e 3d 69 5e ac bd
       -0.02173025 0.041088518 0.058305193 -0.08416445
000020 46 73 d9 bc fc 21 53 3d 85 d7 44 3d bd cd 97 bd
       -0.026544224 0.051546082 0.048057098 -0.07412288
000030 c5 98 e9 3d 47 b1 07 3b 89 33 16 bd 50 79 c8 bc
       0.114060916 0.002070503 -0.03667024 -0.024471909

blocks.2.norm2.weight f4 [16]
000000 5c 52 88 3f fe a0 7c 3f 83 7c 72 3f 71 95 8e 3f
       1.0650134 0.98683155 0.9472124 1.1139356
000010 58 71 72 3f ab 68 83 3f 9b f7 96 3f 0e 28 69 3f
       0.947042 1.0266317 1.1794313 0.91076744
000020 8c 78 7b 3f 7f 9f 68 3f a3 61 82 3f 49 54 8d 3f
       0.98230815 0.9086837 1.0186046 1.1041347
000030 ce 56 83 3f 75 9f 86 3f 65 b6 83 3f 95 80 71 3f
       1.0260866 1.0517412 1.0290037 0.94336826

in_proj.bias f4 [16]
000000 fc 3c 0c 3e ae 69 37 3e 84 cc 18 be ea be 10 3e
       0.13695139 0.17911407 -0.14921767 0.14135328
000010 51 5d 36 3e 82 d0 49 bd 64 74 b0 bd 62 0c aa 3d
       0.17809035 -0.049271114 -0.0861595 0.08303143
000020 b9 39 83 bd f3 da 14 3e 1b 30 9d 3b d3 6d 85 be
       -0.06407494 0.14536647 0.0047969944 -0.26060352
000030 e2 f1 5f 3e 18 70 b4 3c 29 60 dd 3b bb 25 36 3c
       0.21869615 0.022026107 0.006755848 0.011117394
