adapter_kvae3d_to_hunyuan.safetensors (safetensors, 11736 bytes, 28 tensors)

blocks.0.conv1.bias f4 [16]
00000000: dd4d 3abe 5feb 35be 164c 3fbe 94eb 193e
00000010: 29db c03d b9dd 51be aa4e 653d 7a30 cb3d
00000020: 50f2 1c3e cdb3 cb3d 7f9c ce3d eb5d 8a3c
00000030: 48cb 05bd 7549 a93d 9f32 4d3d 4389 69be
-0.18193765 -0.17765568 -0.18681368 0.15031272 0.094168015 -0.20494737 0.055983223 0.099213555
0.1532681 0.09946404 0.10088443 0.016890487 -0.032664567 0.08265964 0.050097104 -0.22806267

blocks.0.conv1.weight f4 [16, 16, 1, 1, 1]
00000000: dc0e c63c dd71 9d3e af40 25be 0f53 823e
00000010: 4baa f33d f48f 20bd dd12 6d3c 1ee4 003d
00000020: 76fe da3d f036 313e 3834 e93d b4ac 8e3c
00000030: e0db 10bd 9b97 1f3d f807 733d 684a 12be
00000040: 29f8 293e c850 c3bd 8b21 f03d 6bbb 003e
00000050: d289 b53d 33fa 93bc 9ab0 a73e 9433 203e
00000060: 16e8 46bd 3289 8dbd 6388 ebbd a66e 0dbe
00000070: ec7a 4fbe 9799 713e ab5b 483e f4bb 82be
00000080: ed89 d3bc 843f b1be 9c73 223e bfdb 60bd
00000090: 5b30 673e d2fe c5be 78aa ad3d 1c89 cd3d
000000a0: 8238 4c3e cd2a ab3d 77af de3d 9fdd 95be
000000b0: 2ab3 3ebe 5e71 bf3d 1daf 4fbd 1200 4a3e
000000c0: a08e 833d ce3e 4c3e 5a17 773d 7865 73bd
000000d0: 123e b63d 33b3 10bd bf80 873c bf65 24bd
000000e0: 9a6a 2abe a6eb d3bd 355b 2ebe 3d79 49bd
000000f0: 7c97 edbc cf67 593d 6d2e 50bd 00a8 673d
00000100: c9b9 fbbd b59c 833d 20c3 bebc d3d7 a23e
00000110: 1d2d a0be 7c60 373e 2209 263e d8c0 5bbd
00000120: 4b57 47be 71c2 d53b 1ef7 2c3d c9cf f53d
00000130: 36d5 08be ade5 7ebc 0aff 02be 871c 2ebe
00000140: 9b96 2bbe c655 2e3e 5491 1c3d 46ca 76be
00000150: 0e82 493e 672a 90be 8467 b1bd 4091 823d
00000160: 4034 5b3e e94f d2bd 4951 4dbe bd80 88bd
00000170: c072 433e 23de 363e d22e 81bc 6779 21be
00000180: 147b 873d c82b febe dc78 243d d69a a6bd
00000190: c5d7 ad3d b413 d23d 776c 3aba 0e54 08be
000001a0: 169e a4bd eea5 5ebd 6655 203e 243f 3a3e
000001b0: af85 24be 857d b6bb 691a 0ebd 685c ca3c
000001c0: 87ef 333d 42bc 133e 0646 c53d af8f 51bc
000001d0: 930f 54bd 28ad 0c3e a60a 863d 0b49 943e
000001e0: 95bd 233d 76b2 63bd 30cd 0bbe 91b3 acbd
000001f0: a1f5 413e ac1c 783e b489 2e3e ad3e b2bd
00000200: 1d33 1a3e ecba a03d e036 833e 71f0 e7be
00000210: dea8 a83c a1f7 aa3d 61ad 293e b33b b2bd
00000220: 0dfc 0ebe 2069 d0bd 4a19 5e3e 9f7f f3bd
00000230: ac01 f7bd ac81 283e 8b5f 7b3e feb3 67bd
00000240: 21b6 863d 4526 3b3d d01c 1e3d bdbc 0e3e
00000250: 3f51 40be e9fe 713c 35c7 213c decd 53bd
00000260: a38f 14bd 2dca 7cbb 8b91 1bbd 33c5 533d
00000270: c3d5 e83d ce2f 463d 84e7 393d 02ce febc
00000280: 98e0 80bd 5726 c13d c3c1 9fbd 8735 56bc
00000290: bfb5 0abc 6cd7 81be 5667 8ebe dc22 583c
000002a0: 90b8 433e ed39 36bd 8063 453e 80c8 963d
000002b0: cae4 253c 8bea 073e 1e2c 823d 9511 05bd
000002c0: 35f3 97bd ae99 86bd b4f0 04be 49ac 313e
000002d0: c924 60be f28a e53d bf0b 2e3e 4df2 643d
000002e0: b9a5 27be 973c 3a3e d529 0cbe 4c20 7f3e
000002f0: acc5 6b3d 8e1f 6ebe 30e3 983d f32d 033e
00000300: f44e 2b3d 9fe2 26bd bb04 523e a54c 1bbe
00000310: 2832 f43d 7395 0a3e 44e0 b43b db01 b83c
00000320: 2fc8 803d 524f 89bd 6387 db3d 33a0 52be
00000330: 4b85 37be c2d7 863e a5f5 88be 6e1d 843d
00000340: 8edd 5fbd c5ce 8d3d b85a d3bd 58dd bfbd
00000350: 7b0b 7ebe 04ce df3d 5548 493e dadf 42bc
00000360: 8012 bebd e81c bb3d f916 ebbd 09e4 11bd
00000370: 6301 fb3d 6f0b 4fbe 6549 353e 3c31 4bbd
00000380: 781a a2bd 1d02 903d b9d6 993c b553 1fbd
00000390: 9eef cc3b 20d4 873d f31f f63c 9345 cd3c
000003a0: c238 f8bd 9693 d2bc f83e d5bb 6f07 2ebd
000003b0: fa2b 363d 0462 7abd 4580 5d3b fd5e 8cba
000003c0: 66c0 cfbd 906b 353e a2bb 7ebd e5f8 413e
000003d0: 1c13 683e 307d 93be 8b3d 083d 3186 183e
000003e0: 322e 1f3e f476 4c3e 0383 8c3b fadd 50bd
000003f0: 85b6 e7be 4c6a 963e 6a80 0f3e f274 19bc
0.024177007 0.30750933 -0.16137956 0.25453994 0.11897715 -0.039199784 0.014469829 0.03146755
0.10693066 0.17306113 0.11386913 0.017416336 -0.03536594 0.03896294 0.05933377 -0.14286196
0.16598572 -0.09536892 0.11725148 0.12571494 0.08864178 -0.01806364 0.32751924 0.15644675
-0.04856118 -0.069109336 -0.11500623 -0.1381174 -0.20261735 0.23593746 0.19566219 -0.25534022
-0.025822604 -0.3461877 0.15864414 -0.054897066 0.2257704 -0.38670975 0.0847978 0.10035917
0.19943431 0.08357773 0.10873311 -0.29270646 -0.18623033 0.09347795 -0.05070411 0.1972659
0.06423688 0.19945833 0.060325004 -0.05942294 0.08898558 -0.035327148 0.016540883 -0.040136095
-0.16642228 -0.10347681 -0.1702698 -0.049187887 -0.029002897 0.053077515 -0.050825525 0.0565567
-0.12291295 0.06426374 -0.023286402 0.31805286 -0.3128442 0.179079 0.16214421 -0.053650707
-0.19466893 0.0065234234 0.042227857 0.120025225 -0.13362584 -0.015557689 -0.12792602 -0.1700307
-0.1675667 0.17024907 0.038224533 -0.24100599 0.19678518 -0.2815735 -0.08662322 0.063753605
0.2140665 -0.10269148 -0.20050539 -0.0666518 0.19086742 0.17858176 -0.015769396 -0.15768968
0.06615272 -0.49642777 0.040154323 -0.08135001 0.084884204 0.10257664 -0.00071114994 -0.13313314
-0.08037965 -0.05435746 0.15657577 0.18188149 -0.16066621 -0.0055691623 -0.034693155 0.024702266
0.043929603 0.14427283 0.096324965 -0.0127906045 -0.051772665 0.13737929 0.06545 0.28961977
0.03997572 -0.055590115 -0.13652492 -0.08432687 0.18941356 0.24229687 0.17044717 -0.08703361
0.1505856 0.078481525 0.25627804 -0.4530063 0.020588335 0.08348013 0.16570045 -0.08702793
-0.13963337 -0.10176301 0.21689335 -0.11889576 -0.12060866 0.16455716 0.24548166 -0.05656814
0.06577707 0.045690794 0.038601696 0.13939185 -0.18780993 0.014770248 0.009874155 -0.051710002
-0.036269795 -0.0038572655 -0.037980597 0.051701736 0.11368897 0.048385434 0.045386806 -0.031104092
-0.06292838 0.09431141 -0.07800629 -0.013074285 -0.008466183 -0.25359666 -0.27813214 0.013191905
0.19113374 -0.044488836 0.19276237 0.07362461 0.010125348 0.13273065 0.06356071 -0.03248747
-0.07419435 -0.06572281 -0.12982446 0.17350878 -0.21889032 0.11208142 0.16996668 0.05589514
-0.16371812 0.18187176 -0.13687833 0.24914664 0.05756156 -0.23254225 0.074652076 0.12810497
0.041823342 -0.040743466 0.20509617 -0.15165956 0.11923629 0.13533573 0.0055198986 0.022461822
0.06288182 -0.06704582 0.10719182 -0.20568924 -0.17921941 0.26336485 -0.26749912 0.06450926
-0.05465465 0.06924204 -0.103200376 -0.0936839 -0.24809067 0.10927966 0.19656499 -0.011894191
-0.09280872 0.09136373 -0.11478991 -0.035617862 0.12256124 -0.20219205 0.17703779 -0.0496075
-0.07915205 0.07031653 0.018779146 -0.03889819 0.0062541505 0.066322565 0.030044531 0.02505759
-0.12120201 -0.02570514 -0.0065077506 -0.042487558 0.044475533 -0.06112863 0.0033798378 -0.0010709461
-0.10144119 0.17716813 -0.06219066 0.18942602 0.2266354 -0.28806448 0.033261817 0.1489494
0.15544966 0.19967252 0.0042880788 -0.050992943 -0.4525644 0.29377973 0.1401383 -0.009366261

blocks.0.conv2.bias f4 [16]
00000000: f98e 59be c1b4 65be f349 c13d 3e60 88bd
00000010: ad8c fbbd bb29 89bc 6eee 8cbe cbac 893e
00000020: 36f7 8a3e 0b90 51be 738d 0e3c 0c32 2dbc
00000030: d135 143e 87e4 1b3d 102f 5bbe aa32 afbd
-0.21245946 -0.22432233 0.09437933 -0.06658982 -0.12282691 -0.016743531 -0.27525657 0.26889643
0.27141732 -0.20465104 0.008700716 -0.010571014 0.14473654 0.038059738 -0.21404672 -0.08554585

blocks.0.conv2.weight f4 [16, 16, 1, 1, 1]
00000000: b055 c9be b03c 163d eced f939 0b9f 903d
00000010: 5c33 5fbe dba4 25bd 2929 adbd 5471 2fbe
00000020: 4aac a13d cf79 8ebe 5731 91be b838 88bd
00000030: 8ee0 c63e aa84 543c ad92 f83e 9fb9 90be
00000040: db70 973e 0d37 1d3e e4c7 e9bd 1c59 953d
00000050: 10a7 a53e 2c70 febc edca a2be 8462 4c3e
00000060: 6025 f6bd 76c9 963e f8ab 4dbe aa2a 173e
00000070: 4b83 54be 7d1f 813e f7e0 b03e 6f0e 4abe
00000080: 9212 743e 312e e6bd 9eb5 fb3b b557 ad3c
00000090: 2753 d43d d465 c9bd 17dc 5d3e 9136 e2bd
000000a0: 0c3f 063e 41c6 7e3d e880 b23d 99d3 843e
000000b0: 4719 a0be bf41 503e f618 f23e 69e1 92bd
000000c0: f05a 5b3e 5f10 0dbd 0ecd cbbd fd9f 64be
000000d0: 4ec0 f93d 3f78 dbbd 62ac 63bd aa20 05bd
000000e0: bcc8 e2bd 9867 723c ea98 abbd bad1 08bd
000000f0: f3c5 523d 5032 203d 08a6 003f ae45 cbbd
00000100: 23bc 0b3e e283 e2bd 1dd6 66be cce4 02bb
00000110: 8490 abbd 5dd9 9e3e fa5d b9bc 8750 103e
00000120: 0065 2dbe df66 1abe 313e d33d 07ca 9bbc
00000130: 5009 4c3e f110 50be 8533 67be 5c8d a13d
00000140: e348 623e bdaa e7bd 4657 5dbe 4273 0e3e
00000150: b6ab 2d3e a4c8 c93d 9e26 5dbc 8e55 9e3d
00000160: e6db 79be 71f1 dabd ac83 1f3e 1a0a 973e
00000170: 3581 c43d 89af c8bc d23b 093e 209f db3d
00000180: b6aa b7be f21d 25be 5c52 c13e e189 36be
00000190: 50eb 40be 705a 0c3e 3d31 c73e 5c28 49be
000001a0: 5161 d3bc c91b 063e db91 243e 1560 423d
000001b0: 2d6a e13d 0d4f 4fbe e5c9 9cbe 0ab4 ccbd
000001c0: 378b 0b3e 67bf 74be 9c88 2a3d a9b6 43bd
000001d0: 4dde 0fbe ffbe ba3e dcac 49be 8079 2ebd
000001e0: 62ee 493e 752d 463e 9efa 4d3e 08eb 613c
000001f0: 15a3 473e 894d 3abd 1584 cd3d 80ca 56bd
00000200: 45b9 653e fbf9 793e d190 97be b700 023d
00000210: 59d3 1c3e 9df1 21be 9ec3 b9bc 33b3 4f3e
00000220: 29e6 36be f440 273e 7de2 a2be c0c4 993e
00000230: 2c9f 88be 24c2 003e dced cd3e 6caf 95be
00000240: 750c e9bb ca11 04bd 4d8f 6cbe 38ff eabd
00000250: c581 113e ac15 a8bd 50ed 8e3d 513b 9fbd
00000260: 8963 b3bd 2f0c d23d b63a 87bd 774c 0a3e
00000270: 991b 1bbe 04f4 3e3e 1c2e c0be 8032 1bbe
00000280: 9983 34be e41d e13d b0fa b53d 0aad 643c
00000290: 8909 05be ba50 1f3d d14e 973e abfd 593d
000002a0: 94ff a13e 6a92 a9be 0794 13be c86e c1be
000002b0: 285d 16bd db54 73be 9cb7 99bc c472 76bd
000002c0: 251d 27be 5f14 d4bd 846d 1e3e c318 5d3e
000002d0: 7612 3cbe f927 583b cf74 ff3c 095f 1c3e
000002e0: ac69 4e3e ba1b 253e 6db3 203e d91f 36bd
000002f0: 0ac3 8d3d 783d a5bc 3c8e bebd 56b2 9fbd
00000300: e905 fa3c d083 48be 80b3 f5bc 85bc 913e
00000310: 3a1d 4fbd 418b c53d afec 65be a1bd 7dbc
00000320: 50bc 22be b25c 03bd b51b d3bc 7822 243e
00000330: 16b3 28be 26b3 d13c d604 963d 0b00 193e
00000340: 015e 4e3e ff79 bfbd 95b3 dbbb 0430 f0ba
00000350: 3fc0 cf3e 03dd 8cbe 8f8d 8d3e eeb9 843e
00000360: 7c67 debd 1583 d23e 3e7e ee3d ec4a 8b3e
00000370: 57fe 69be 53a0 98bd 99e6 5abe df64 c4bd
00000380: 4996 dd3d 3fb3 853d ec51 9fbe 0897 9b3e
00000390: a3cc 0f3e ab21 70bc cd35 5bbd a4c0 9d3d
000003a0: 07ac b3be c0a6 54be 3171 e8ba dafe 313e
000003b0: 79af a2bd a206 913e 2072 dfbd 47bc 0dbe
000003c0: e07e ae3e 02de 323e 0937 88be 1ad9 583e
000003d0: 5be0 5f3e 9b94 e5bc 565b fe39 4ccc 6c3d
000003e0: 1378 733d 5b29 453e 5ef3 c7bd 8a30 983c
000003f0: 7e8a 18bd ddeb b63d 6c1d df3e 56e6 a4bd
-0.39323187 0.03667897 0.00047670247 0.07061585 -0.21796936 -0.04044042 -0.08455116 -0.17133075
0.0789419 -0.27827308 -0.28357956 -0.06651443 0.38843197 0.012971083 0.48549405 -0.28266618
0.2957829 0.15353031 -0.11415079 0.07292387 0.3235402 -0.031059347 -0.31795445 0.19959456
-0.120188475 0.29450577 -0.20085132 0.14762369 -0.2075321 0.25219336 0.34546635 -0.19732068
0.23835209 -0.11239279 0.0076815626 0.021159986 0.103674226 -0.09833875 0.21665989 -0.11045564
0.13109988 0.06220079 0.08715993 0.25942686 -0.31269285 0.2033758 0.4728467 -0.071719
0.21421409 -0.03443944 -0.099512205 -0.22326656 0.12194882 -0.107162945 -0.05558432 -0.032501854
-0.11073443 0.0147952065 -0.083787754 -0.033403136 0.05145831 0.03911048 0.50253344 -0.099254
0.13645987 -0.11060311 -0.22542615 -0.00199728 -0.083771735 0.3102521 -0.02262782 0.14093219
-0.1693306 -0.15078305 0.103145964 -0.019017233 0.19925427 -0.20318963 -0.22578247 0.0788829
0.22098117 -0.113118626 -0.21615323 0.13911155 0.16960034 0.09852722 -0.013497977 0.07731162
-0.24400291 -0.106905825 0.15577573 0.29499894 0.09594957 -0.024497764 0.13401726 0.1072371
-0.3587243 -0.16124704 0.37758148 -0.17826034 -0.18839765 0.13706374 0.38904753 -0.19644302
-0.02580324 0.13096537 0.16071264 0.047454912 0.110065795 -0.20244999 -0.30622783 -0.09995277
0.13627325 -0.23901139 0.041634187 -0.04778162 -0.14049645 0.36473843 -0.19694847 -0.04259634
0.19719842 0.19353278 0.20115134 0.013788946 0.19495805 -0.0454841 0.10034958 -0.052439213
0.22433956 0.24411766 -0.29602674 0.031738963 0.15314998 -0.15814824 -0.022676285 0.20283203
-0.17861237 0.16333371 -0.31813422 0.3003292 -0.26683939 0.12574059 0.40220535 -0.292354
-0.0071120807 -0.032243527 -0.2310154 -0.1147446 0.1420966 -0.082072586 0.069788575 -0.077749856
-0.08759219 0.1025623 -0.06602995 0.13505732 -0.15147246 0.18647772 -0.3753518 -0.15155983
-0.17628326 0.10992029 0.088857055 0.013957271 -0.12991919 0.038895346 0.2955232 0.053220432
0.31640303 -0.33119518 -0.14411937 -0.37779832 -0.036709934 -0.23762839 -0.01876431 -0.060168043
-0.16319712 -0.10355448 0.15471464 0.21591477 -0.18366417 0.003298281 0.031183628 0.15270628
0.20157498 0.16123858 0.15693446 -0.044463966 0.069219664 -0.020170912 -0.09304473 -0.07797687
0.030520396 -0.19581532 -0.029992819 0.2846414 -0.050564982 0.09645701 -0.22453569 -0.015487106
-0.15892148 -0.032070823 -0.025770048 0.16028774 -0.16474566 0.02559812 0.07325141 0.14941423
0.20153047 -0.09349441 -0.0067047575 -0.0018324857 0.4057636 -0.2751237 0.27647063 0.25923103
-0.10859582 0.41115633 0.116451725 0.27205598 -0.22850929 -0.074524544 -0.21377029 -0.09589552
0.1081968 0.06528329 -0.3111719 0.30388665 0.14042906 -0.014656465 -0.053518105 0.07702759
-0.35092184 -0.20766735 -0.0017733929 0.17382374 -0.07943625 0.28325373 -0.109104395 -0.13841353
0.34081173 0.17467502 -0.26604488 0.21176568 0.21862929 -0.028024962 0.00048514706 0.05781202
0.059440684 0.19254057 -0.097632155 0.018577833 -0.03724145 0.08931706 0.43577135 -0.080517456

blocks.0.norm1.bias f4 [16]
00000000: 38ef 81bd d8c5 533e 8677 f73d 8b6e fb3d
00000010: 6d73 3e3e 2ba4 3f3e 9bc5 e73d 8c1f c03c
00000020: ac05 4c3e adc2 84bd e05a 533e 418d 323e
00000030: 2ca5 883e 945b 913e 3f5e 6d3d 7ded 043d
-0.063444555 0.2068094 0.12083344 0.12276944 0.18598719 0.18714969 0.11316987 0.023452543
0.19924039 -0.06482444 0.20640135 0.17436697 0.26688516 0.2839018 0.05795121 0.03245305

blocks.0.norm1.weight f4 [16]
00000000: 708a 523f a5d6 7a3f eb8d 673f 78a6 5f3f
00000010: 1744 833f 5994 633f 2a06 673f d5ee 603f
00000020: 2c18 4d3f a423 653f 361f 723f 11a5 733f
00000030: 2789 563f cf18 3f3f dc9f 523f bf02 723f
0.8224249 0.9798377 0.90450925 0.87363386 1.0255154 0.88898236 0.9024378 0.8786443
0.8011501 0.8950751 0.94578874 0.95173746 0.8380303 0.7464723 0.82275176 0.9453544

blocks.0.norm2.bias f4 [16]
00000000: a9a6 343e 682a c93d b4f2 3f3e a338 073e
00000010: aad8 0a3e 9d65 0e3e 278f f33d fb19 cf3d
00000020: c1a5 3b3e 87c3 203e 0d61 153e b844 2d3e
00000030: 0d31 733e 9060 143e a7d9 653e cccd 573e
0.17641701 0.098225415 0.18744928 0.13205199 0.13559213 0.1390595 0.118925385 0.10112377
0.18324949 0.15699588 0.14587803 0.16920745 0.2374918 0.1448996 0.22446309 0.21074599

blocks.0.norm2.weight f4 [16]
00000000: c408 903f d919 753f 2983 973f 625e 8f3f
00000010: 209d 913f 8f89 913f 04f7 903f eba6 893f
00000020: da6e 8f3f 1902 903f 672b 933f 4fcf 953f
00000030: 4f97 913f 8546 943f 85be b23f 5884 6b3f
1.1252675 0.95742565 1.1836902 1.1200678 1.1376076 1.1370105 1.1325383 1.0754064
1.1205704 1.125064 1.149762 1.170389 1.1374301 1.1584021 1.3964392 0.91998816

blocks.1.conv1.bias f4 [16]
00000000: 130a a43d a1ef 8ebd 96ef 91bc 698e 8b3e
00000010: 1266 313e d4f2 8ebe fe04 7b3d 4282 f5bd
00000020: af5f a6be 26e2 64bd 11b0 553e 9f5f 9cbc
00000030: a5ff 813d 836c d03d 5a1b 9b3d 5aa2 1abe
0.08009734 -0.06979299 -0.017814439 0.27257088 0.17324093 -0.27919638 0.061284058 -0.11987735
-0.32494876 -0.055879734 0.20867945 -0.019088564 0.063475884 0.10176947 0.07573576 -0.15100995

blocks.1.conv1.weight f4 [16, 16, 1, 1, 1]
00000000: 469b e6bc a724 cabd 4eb3 bf3d 0bea ac3d
00000010: 7753 fcbd 5b56 a53d 1c8f a23d 16b4 41be
00000020: ff59 4fbe 53ba 80bd f10d 8f3d c503 c93c
00000030: 78ff bd39 b9d1 21be 2e08 ac3e b004 57be
00000040: 5540 093e adfe a0bc 8d3f 233e dc56 37be
00000050: edb0 253e 3864 873d 0295 f93c 3cf9 cf3d
00000060: 70c5 283e 064a 363c c53d 88bd adb9 a2be
00000070: 970d eabd 9bc1 9dbd ebee 00bc 1982 1d3d
00000080: afd0 d23c 93a3 89bc 0639 a73d f9f5 91bd
00000090: 2669 1c3e f611 143e a6aa a33d 6401 943d
000000a0: 95db 683d 15e0 cb3c a666 c93d 0b54 c2be
000000b0: ae83 3ebe 51cf f03d e130 3ebd 6feb b33d
000000c0: 4c33 bb3d c022 68bd aa5b 2bbe 5af3 5c3e
000000d0: 0905 5d3d 81ed a63d ff0f 7bbe b72a 40bd
000000e0: f510 65be fd58 02bd 1ce1 46bd aad6 cd3d
000000f0: 9924 093e 447d e53d 180a 25be af97 f4bc
00000100: 0b32 92bd 86db 8b3d 315d 453e 6dcf 67be
00000110: 26a4 63be b254 5e3d 8ebe b4bd 56e8 4ebd
00000120: 152c e73d 1e3b 8bbd bb5d 90be 04ab 253c
00000130: 5dd8 ebbd 372e ae3d 411f 61be 2ac6 8b3c
00000140: 5dca a8be b60b e5bc d38f 40be 8d5e 3c3d
00000150: c61b 1abe ac50 693e 34f4 cd3c ea70 74be
00000160: b31c 6bbe e47b 343e bb4a 143d 44b4 b13d
00000170: fa50 5bbe 44bd 4e3e 6870 553d 2467 243e
00000180: 376b 3bbe 5077 0fbe 53de 61be c4b7 ce3e
00000190: d0b6 00bd a58e 213e d95f 3abe 6961 6b3e
000001a0: 1b7c b3bc 7bda e83d 88e3 11be 3e8a 243e
000001b0: 859e 2d3d 7495 5dbd 1cc8 f93d acba 6bbe
000001c0: 1dbd 2abe 1103 2c3e 4f49 1d3e d837 56be
000001d0: 55c0 c93c 7000 04bd 064c abbe fce5 0bbd
000001e0: 31ce 853d c7cc 113c c6e6 d5bd fe00 34be
000001f0: 9d7d 553e dc30 823c 637e 093e 03aa da3d
00000200: f087 05be fdcc bb3d 98bc 56be f2c9 353e
00000210: b2d7 85bd 1192 babd 9d6c 163c 17ee 5a3d
00000220: b3bc 50be f057 663c 2ce7 debc 9416 243e
00000230: c5c9 ef3d 4a64 ad3b d2ad 84ba d810 553d
00000240: e183 c53c e111 913e 1221 2bbd 6c79 193e
00000250: a9f5 39be 2188 9ebd f12a 91bd b1f0 943e
00000260: 8e96 303d 24c7 53be da71 6ebe 38d5 2e3e
00000270: 1541 91bc 69d9 103d aaff 8bbb 88df 0ebb
00000280: 00a6 61bd 79a8 6b3e e324 293d f731 bb3b
00000290: 7602 8c3e 50e6 923d 71ef eabc 3a77 623e
000002a0: df9e a9bc 3ea0 1bbc b73f 12be 83d4 403d
000002b0: afb0 f3bd a17b 343e 94a5 abbc e0ee 77bd
000002c0: 37a3 973d f10a 573e 8419 3ebe 2559 243e
000002d0: e15e 9d3d 66d2 d53d f269 513e 9bb8 253d
000002e0: 5b04 57be a7a2 18bd 10b4 593d b89c 5d3e
000002f0: 9a57 76be 21a4 bc3d 5713 f9bd 39de 213d
00000300: 48e4 873e dbb8 e03d 7297 88bd 246d 963d
00000310: e805 683e 378c 69bc 71c0 5d3d 496a 02bd
00000320: b4f0 a53d 2be0 2f3d 2d44 93bd fe1e 6f3e
00000330: a086 4cbe 8d55 bf3a 9d01 fb3c 6179 063d
00000340: 9a0c 523e d64d 33bd 77cf 59be dd11 b7be
00000350: 4a5d 113e 63a6 2e3e 410a 73be 0793 08bb
00000360: 5be2 a5bd 034a dfbd d5ba a2bc 119c 7cbe
00000370: 6f49 1b3e a932 79bd f0df 68be dfe4 003e
00000380: 58b9 ed3b 70e2 25bd a0ff 10be f565 a83d
00000390: 2930 163d 05f1 8a3d 29a5 3a3c 8247 31bd
000003a0: 7555 e33b 006f 8cbd 0952 013e 205a 30be
000003b0: 212c ea3c 5aff 7dbe 72c8 1cbe 6658 06bd
000003c0: 9d39 f6bb dd1f ad3b 49ed 3abb 5841 0fbe
000003d0: f0f4 333e 3511 833c 2c6c 24be 1f32 e7bd
000003e0: a1b8 1cbe 7487 3fbe aa34 423d c012 323e
000003f0: dc07 a53e bd2d 82bd 06d6 4cbb eb31 e73d
-0.028150212 -0.09870272 0.093603715 0.08443078 -0.12320607 0.080731116 0.07937452 -0.18916354
-0.20249175 -0.062855385 0.06985081 0.02453793 0.00036239228 -0.15802659 0.3359999 -0.20997882
0.13403447 -0.019652689 0.15942211 -0.17904228 0.16180773 0.06610912 0.03046656 0.101549596
0.16481566 0.011126047 -0.066524066 -0.31782284 -0.11428373 -0.07702943 -0.0078694625 0.03845415
0.025734274 -0.016801631 0.08165173 -0.07126994 0.15274486 0.14459977 0.07991533 0.07226828
0.056850035 0.024887124 0.09834032 -0.37954745 -0.1860492 0.117582925 -0.046433333 0.0878514
0.091406435 -0.056673765 -0.16734186 0.21577206 0.05395988 0.08150769 -0.24517821 -0.046915736
-0.2236975 -0.031823147 -0.048554525 0.100507095 0.13392867 0.11205533 -0.16117132 -0.029857485
-0.07138451 0.0682898 0.19273831 -0.2263772 -0.22230586 0.05427999 -0.08825408 -0.05051454
0.11287705 -0.06798385 -0.2819651 0.010111574 -0.115158774 0.085049085 -0.21984579 0.017062265
-0.3296689 -0.027959686 -0.18804865 0.04598861 -0.15049657 0.2278468 0.02514086 -0.23871198
-0.22960167 0.17625386 0.03620408 0.08676961 -0.21417609 0.20189387 0.052109152 0.1605497
-0.18302618 -0.14010358 -0.22057466 0.40374577 -0.031424344 0.15777071 -0.18200625 0.22986378
-0.021909764 0.11369797 -0.14246953 0.1606836 0.042387504 -0.054097608 0.12196371 -0.23020428
-0.16673703 0.16798045 0.15359996 -0.2091974 0.024627844 -0.03222698 -0.3345644 -0.034154877
0.065334685 0.00889892 -0.10444407 -0.17578503 0.20848699 0.015892439 0.13427119 0.106769584
-0.13040137 0.09169958 -0.2097038 0.17752817 -0.06535281 -0.09109891 0.009181169 0.053449716
-0.20384483 0.014059052 -0.02720984 0.16024238 0.11708406 0.0052914964 -0.0010122603 0.052018017
0.024110736 0.28333953 -0.041779585 0.14987725 -0.18160118 -0.07740808 -0.070882685 0.29089883
0.04311233 -0.20681435 -0.23285618 0.17073524 -0.017731229 0.03536359 -0.004272421 -0.0021800715
-0.05508995 0.23013486 0.041294944 0.0057127434 0.27345628 0.07172835 -0.028678628 0.22115794
-0.020705638 -0.009498654 -0.14282118 0.047077667 -0.11898934 0.17625286 -0.020952977 -0.060530543
0.07404178 0.21000268 -0.18564421 0.16049631 0.07684112 0.10440521 0.20450571 0.040459257
-0.20997755 -0.037264492 0.053150237 0.21641815 -0.24056855 0.092109926 -0.12161892 0.03951857
0.26541352 0.109727584 -0.06669511 0.07345036 0.22658503 -0.014254621 0.054138605 -0.031839643
0.08102551 0.042938393 -0.07190738 0.23351666 -0.1997323 0.001459764 0.030640418 0.0328306
0.2051262 -0.043775402 -0.21270548 -0.35755816 0.14195743 0.17055659 -0.2373438 -0.0020839588
-0.080998145 -0.109027885 -0.01986448 -0.2466891 0.15164731 -0.06083933 -0.22741675 0.12587307
0.0072547607 -0.04049915 -0.14160013 0.08222572 0.036667023 0.06784252 0.011391916 -0.043281086
0.0069376775 -0.06857109 0.1262895 -0.1722188 0.028585495 -0.2480444 -0.15310839 -0.032799147
-0.0075141923 0.0052833394 -0.002852278 -0.1398977 0.17573905 0.015999416 -0.1605689 -0.11288857
-0.15304805 -0.18704015 0.047413506 0.17389965 0.3223256 -0.0635638 -0.0031255498 0.11288818

blocks.1.conv2.bias f4 [16]
00000000: 6bf4 07be 4ed2 c0bd 8183 9dbe b71b 90be
00000010: c2a9 4fbe c8f2 d03e c4e1 8fbe f496 343e
00000020: 0dff ffbd 8426 95bc 65a5 113e e1b9 8fbc
00000030: 3721 f8bc 59a4 47bd c3d0 50bc 986d 5cbe
-0.13276832 -0.094151124 -0.30764392 -0.28146145 -0.20279601 0.40810227 -0.28101933 0.17635709
-0.12499819 -0.018206842 0.1422325 -0.017544689 -0.030289276 -0.04874072 -0.012745085 -0.21526182

blocks.1.conv2.weight f4 [16, 16, 1, 1, 1]
00000000: 5406 603e aa1f 4cbd e7d3 8b3e 6663 c1be
00000010: 1d71 323e ed98 353e 5f75 6cbe 2105 8a3d
00000020: c84c 1c3e 953a a2be 2031 a3be 7420 6f3d
00000030: c3c0 c7bc 5141 7c3e bdc8 603e 26f6 8bbd
00000040: b629 3dbe 0c2c 9cbd 8a8a 443d f1ba 7e3d
00000050: a69f bbbd 2c37 5cbe c0fb 183e 115f 1c3d
00000060: 230f bfba 5340 a4bd 932f c3bc 1d8b 503e
00000070: 3b7c f8bd 7ff2 093e 6a34 66be 1cc2 013e
00000080: 5e7d 4cbe 8a99 53be de19 97bd 522c b8bd
00000090: b04a d5be 74ee e83d bf01 993d 8894 3c3e
000000a0: 8078 7b3e cd71 b6bc 1fbb 263e 215c c93e
000000b0: 3d80 e63d 602a dc3c 2327 07be c088 613e
000000c0: 369b 693d 8c5e 3cbe dae4 8abd 7d70 57bb
000000d0: 68da 203d 9aed 823e fc55 313d b0c8 60be
000000e0: d76c 933d 7ee2 c5bd ae05 833e f72b a73d
000000f0: 9ea8 2b3e 9874 123e 5597 eebd e3a6 6dbe
00000100: bdf0 8dbd 6f7c 973d ef99 55be b9f2 13be
00000110: f94b 9d3c 7acf 013e f589 e0be 2635 08bd
00000120: f4bd cc3d c4a1 25be 91c5 c0be 4c7a 8bbe
00000130: f39d 5cbd 3b2e 0e3e 8b57 9dbe ac7e bb3d
00000140: bd32 22bc 4be6 28be 3731 70be 8fd7 023d
00000150: 9118 b73e 451b d0bd 1206 1bbd d4c7 57be
00000160: e16d b0bd fb73 7cbd daab 343d 1d8b cebe
00000170: 5e8e b2bc bced 833c ce31 0c3c 03a0 923e
00000180: e680 a13e 5bbb efbc ebb4 bf3e 80e6 35be
00000190: 275a 4fbd 03fb ffbc f56f 21be 928b 6dbd
000001a0: d5ca 15bd c3cc 83be 6e00 51be 1d37 f1bd
000001b0: 1d1d 053e 336e c53d 5f55 3d3e 43a8 a43e
000001c0: cad4 08be 2939 053e 2f80 60be 0a54 6a3d
000001d0: d196 95bd 7f94 7dbe 5baf a0be 93ca 0e3e
000001e0: 927a 163e d6c1 92be faa7 87bc ba4b 16be
000001f0: 1560 7dbe a5b0 84be 149d 043e e679 3d3d
00000200: f883 a93d 345f 9ebe 075e 3ebe 8a5c 4a3e
00000210: 45d8 cb3b 26f6 603e 7980 903e 370c 85bd
00000220: 6e95 793e bfbd bbbc cd4a 293e 62c2 24be
00000230: 99c5 c33d a787 103c 06f3 b8be f60b 37be
00000240: 0ea2 963c b0c3 e9bd c73b c13d dda9 6b3b
00000250: 9d3e 8c3d a20f 4fbe 7fe8 7a3e a1fd 803d
00000260: 796a 173e 3688 4fbe c4e8 823c cb6a 673d
00000270: b725 0fbd 1a28 30be cd64 1a3d 6d63 9d3e
00000280: b086 15be 7058 21bd 700c 6f3e 94e8 b5be
00000290: 7b62 583e 942f 1ebe 5b98 55be 2220 99bd
000002a0: 72d2 c7bd 3999 003d f32b 853d 70da 53be
000002b0: 0342 91bb 81e2 873e e11d 913d 4546 a1be
000002c0: 2c25 4c3d dbd0 70bd 6247 883c 9670 12be
000002d0: ec19 3ebc f987 bdbd 56cb 32be 7953 7a3d
000002e0: dc94 c9bd 3f81 b0be 3dad cc3d 2e9e e3bd
000002f0: 0565 94bd 0fc5 943d da11 54be e2b0 203d
00000300: fd08 79be 902c 0cbe 9ec6 e03d 0e38 753d
00000310: 30e5 293e c395 92bc bdc5 003e 7c26 a0be
00000320: 8f12 81be b8fe 753e 6142 693e c33f a43d
00000330: 7c41 be3d f23e 9b3d 96b4 b7be 982d 15be
00000340: 25ab 89bc cd86 3c3e 61b3 84bd 5e2b 8f3e
00000350: 139f c7bd fe2e 46be 2814 fe3e c682 c0be
00000360: 2f8a 3c3d 8a05 853e 3997 8bbd 53ac 6d3e
00000370: f63e b03c bfea 62be 389d eebd 9d5f 433e
00000380: ad7c 36be e7d6 b5be f03b 03bc a39a c03e
00000390: 6855 ab3c 50c9 f8bc da44 493e 38c3 00bc
000003a0: 8fb6 0d3e a7e5 873d b992 3b3e 342d 1c3e
000003b0: cc12 853e 2a18 a6be 891f 0e3c 4fcd 953a
000003c0: 1a0d 81bc 3497 1ebe 12f2 37be dc21 69bd
000003d0: 4b16 e53d beb1 3638 7631 083d eb15 9a3e
000003e0: 7ad5 85bd 6383 afbc 894a 1cbd e8d1 af3d
000003f0: 7d7b 08be 8236 e13d af1d df3c b3cf 2abe
0.21877414 -0.049834885 0.27310106 -0.37771147 0.17425962 0.17734118 -0.23091649 0.067392595
0.15263665 -0.3168532 -0.31873417 0.05838056 -0.024383908 0.24634291 0.21951576 -0.068340585
-0.18472943 -0.07625589 0.047983684 0.06219 -0.0916131 -0.21505421 0.14939785 0.0381766
-0.0014576655 -0.08020081 -0.023826396 0.20365568 -0.1213307 0.13471411 -0.22480932 0.12671703
-0.19969699 -0.20664039 -0.07377981 -0.089928284 -0.41658545 0.11373606 0.07471036 0.18416035
0.24557686 -0.022271061 0.16282319 0.393281 0.11254928 0.026875675 -0.13198523 0.22024822
0.057032786 -0.18395442 -0.06781931 -0.0032873445 0.03927079 0.255719 0.04329489 -0.21951556
0.07198494 -0.096623406 0.2559027 0.081626825 0.16763541 0.1430229 -0.11649958 -0.23208193
-0.06930683 0.07396781 -0.20859502 -0.1444806 0.019201266 0.12676802 -0.43855253 -0.03325381
0.09997168 -0.1617499 -0.3765073 -0.27241743 -0.05386157 0.13884823 -0.30730852 0.0915502
-0.009899792 -0.164941 -0.23456274 0.031943854 0.3576093 -0.10161451 -0.037847586 -0.21072322
-0.08614708 -0.061634045 0.044109203 -0.4034051 -0.021796402 0.016104572 0.008556796 0.28637704
0.31543654 -0.029264143 0.37442717 -0.1776371 -0.050623085 -0.031247621 -0.15765364 -0.057994433
-0.03657039 -0.25742158 -0.2041032 -0.1177809 0.12999387 0.096401595 0.18489598 0.32159624
-0.13362423 0.13010086 -0.21923898 0.057209052 -0.073041566 -0.24763678 -0.31383786 0.13944463
0.14695194 -0.2866351 -0.01655959 -0.14677325 -0.24743684 -0.2591602 0.12950546 0.04625883
0.08277124 -0.3093201 -0.18590556 0.19761863 0.0062208497 0.21968898 0.28223017 -0.064964704
0.24373409 -0.022917626 0.1653244 -0.16089776 0.09559173 0.008821405 -0.36122912 -0.17875656
0.01838782 -0.114142776 0.0943523 0.00359594 0.0684788 -0.20220807 0.24502753 0.06298376
0.1478671 -0.20266804 0.015980132 0.05649833 -0.034948077 -0.17202798 0.037693787 0.30739918
-0.1460216 -0.03939098 0.23344588 -0.35529006 0.21131317 -0.15447837 -0.208589 -0.07476832
-0.09756936 0.031396125 0.06502523 -0.20688796 -0.004432918 0.26539996 0.07085777 -0.31498924
0.049840137 -0.05879293 0.0166356 -0.1430076 -0.01160286 -0.0925445 -0.17460379 0.061114762
-0.09842846 -0.34473607 0.0999398 -0.11114155 -0.072458304 0.072641484 -0.20709935 0.03923119
-0.24319835 -0.13688874 0.10975383 0.05986791 0.16591334 -0.017893678 0.12575431 -0.3127936
-0.25209472 0.24022949 0.22779228 0.08019974 0.09289834 0.07580365 -0.35879964 -0.14568174
-0.01680524 0.18410797 -0.06479526 0.27962774 -0.09747138 -0.19353864 0.49624753 -0.37599772
0.04603022 0.25980788 -0.06815953 0.23210268 0.021514397 -0.22159861 -0.11651081 0.19079442
-0.17820998 -0.3551552 -0.008009896 0.37617978 0.020914748 -0.03036943 0.19655171 -0.007859044
0.13839172 0.066355996 0.18317689 0.15251619 0.25990903 -0.3244031 0.008674511 0.0011428985
-0.015753318 -0.15487367 -0.17963436 -0.056917056 0.11185893 4.3557717e-05 0.033250295 0.30094847
-0.06534858 -0.021424955 -0.03815702 0.08584958 -0.13328357 0.10996725 0.027235834 -0.16680793

blocks.1.norm1.bias f4 [16]
00000000: 29ea 923e d8bf a13d 8721 273e 5e45 173e
00000010: c855 0c3e f39a e7bd 47a6 7abd abc1 b6bc
00000020: ff02 093e e2d7 a8bc c3c1 c7bd 4689 023e
00000030: daf7 363e 16cf 86bd b8cd a9bd bef4 773d
0.28694275 0.078979194 0.16321383 0.14772555 0.13704598 -0.11308851 -0.06119373 -0.022309145
0.13380049 -0.020610753 -0.09753754 0.12747678 0.17867985 -0.06582467 -0.08291191 0.06053614

blocks.1.norm1.weight f4 [16]
00000000: d2a8 533f bc9c 623f f4b2 853f b08a 853f
00000010: faac 643f 3317 513f b875 5b3f b9a1 823f
00000020: a201 5f3f 5d6b 353f 2846 713f ff3a 843f
00000030: 2524 623f af5f 543f dd34 683f 72e9 6d3f
0.82679474 0.8852041 1.0445237 1.0432949 0.8932644 0.81676024 0.857265 1.0205604
0.87111866 0.7086695 0.94247675 1.0330504 0.883364 0.829585 0.9070566 0.92934334

blocks.1.norm2.bias f4 [16]
00000000: 148e ecbb 65f6 f43d bcb2 183e 7b64 443e
00000010: b17c e83d ecc8 06bd e9ac 493e 07c4 04be
00000020: bef8 fc3b 3d6c 113e 7f41 103e 8769 663d
00000030: 649b bdbc d03e 1a3e 1773 1f3e 6756 2f3e
-0.0072190855 0.119610585 0.14911932 0.19178955 0.11351908 -0.032906458 0.19694866 -0.12965403
0.007720082 0.14201446 0.14087485 0.056252982 -0.023145385 0.15063024 0.15571247 0.17122804

blocks.1.norm2.weight f4 [16]
00000000: 7079 543f de0a 863f 3da8 843f 0680 983f
00000010: 262f 883f 230a 813f 9e5c 933f 8b92 3a3f
00000020: 5e96 883f 0a92 8f3f 1a9f 8b3f 0602 803f
00000030: c0a7 7f3f b7d7 993f 0970 913f 7b22 963f
0.829978 1.0472066 1.0363842 1.191407 1.0639389 1.0081218 1.151264 0.72879857
1.0670888 1.1216443 1.0907929 1.0000618 0.9986534 1.2018956 1.1362315 1.1729273

blocks.2.conv1.bias f4 [16]
00000000: a477 22be 1728 82bd 275f ef3d aaad 23be
00000010: b289 103e c649 143e 7ca2 9a3d a6a1 253e
00000020: ea77 1cbe 4797 963d 638c 873d 46fe fabd
00000030: a782 35be 4eb2 a53c 1b2a 5abe d313 f3bc
-0.15865952 -0.06355303 0.11688071 -0.15984216 0.14115027 0.14481267 0.07550523 0.16174945
-0.15280119 0.073530726 0.066185735 -0.1225553 -0.17725621 0.020226624 -0.21305124 -0.029672539

blocks.2.conv1.weight f4 [16, 16, 1, 1, 1]
00000000: 6f24 74be ddd7 3dbe a537 ad3d 1a2b 6dbe
00000010: d577 403e ff2b 7a3e 6fd3 d9bb d65e 05be
00000020: 61c2 3abc 24cf 843c 95e6 053e b082 7ebe
00000030: 9a98 ea3d 97fd 28be e16d 223e c548 3bbd
00000040: c0e5 d9bd fca9 2b3d 02d1 923b ce33 ac3d
00000050: 281c 15be e21a 94be b383 6d3d f18c 05be
00000060: d492 34be bc98 e6bd f153 abbe 4504 453e
00000070: aa53 a1be 9543 adbd 187d 3abe 8e2e 5b3e
00000080: 0a8a e93c 539a 513e 7489 bcbd 00d6 2d3d
00000090: f09c 3dbe c689 0dbe c1f5 35be cccc c03d
000000a0: 18dd 08be 0b63 3f3e 1321 a7bd a469 173e
000000b0: c511 cebd 24a7 813d 0dbb 963d baf3 b9bd
000000c0: 29db ca3e c20e 8fbe b9a0 93bc 33b3 74bd
000000d0: 183f 2b3e 7518 043e 412a 9fbd ce02 8e3d
000000e0: c668 fc3d 640a 7dbe 3b1b dcbd d180 933e
000000f0: 005f 83bc acfa 633e 0638 a4be 7d45 a33e
00000100: 83f3 a13e be19 25be 146d f8be ed93 ce3d
00000110: 346e 71bd 837e b8bd 43a2 663c 240f 253e
00000120: 28c7 24bd da03 c1bd 57a3 14be 3ee8 b0bb
00000130: 3a5c 65be 3441 153e f8ab c83d 572f 813d
00000140: fa5a eabd 3203 1cbc 5ea1 073d 8d53 233b
00000150: 0001 1cbe e716 09be 52e1 a1bb 4cfc 413e
00000160: 39f4 7cbd a86a 07be c467 b93d d822 a8bd
00000170: 2e52 063d 4b7e d6bc 10f7 2d3e 5b5a e2bd
00000180: 0409 073e ae77 b8bd f08e 24bd 4d70 a23d
00000190: 5e80 00bf 6d66 2bbd 4bad a3bd 4dc8 813e
000001a0: 7d40 14be 5bf8 213e 4353 b0bc 5dbe 913d
000001b0: 563e b7bc f537 0cbe 8b64 f4bd 221e c53d
000001c0: f2d3 39bd 69c1 4abc e06f 85bd cd5e 8f3d
000001d0: 79ad be3d fcb4 e0be 2545 703e 76a4 fd3b
000001e0: 2fbc afbc b13b cb3d 2276 d63d e470 22bd
000001f0: a6c0 1c3d 73b7 ef3d 913c 943d e7ad b63c
00000200: a5d4 c23d 8cb1 853e 1e22 29bd 5e08 f23d
00000210: 66fd 2c3e 5c58 15bd 83ff 86bd 0520 cabd
00000220: 69f3 e0bc 3519 19bc 2271 58bc 5de1 0d3e
00000230: 3234 053e 3898 bdbe a9a8 c7bb 44be d3be
00000240: 1579 c93d 6a2a 7dbd 30ce 0e3c 4523 d9bd
00000250: 9d97 0ebd be49 0bbe 5d7d f8bc db22 abbc
00000260: e7fa ba3c a73d d23d 7551 c7bd ba76 58be
00000270: bb6c cc3d 94eb ef3d 6f09 56bd 81d3 403c
00000280: 9784 8ebc 4dae 8abe 7709 4e3e 444c 1abd
00000290: aedf be3d c448 143e 56ec 983d 2550 d0be
000002a0: 3bf9 85bc e7b8 3bbe 0aca 46be d4f3 afbd
000002b0: 7468 00be adab 023e 18aa 55bc 9cc3 efbc
000002c0: 7f38 203e 3ee8 04be 9921 7cbd fb29 cebd
000002d0: 61e7 8f3c 79fc 343e a0b9 793d 985b 053e
000002e0: b807 863d d83a 013e ad0a 8fbd f3c2 f43b
000002f0: ca19 18bc eb0f 3abe 0f11 a23d 4352 d03d
00000300: fd3f 6e3d 2131 ed3d 9e9a b53c fc3a cc3d
00000310: 8c68 88be 3fb3 063e 006b c9bd 68d3 523e
00000320: acd4 0d3e c33d 923e 037f 793e 79a9 6f3c
00000330: fd7c 13be a600 42be ad78 97bc 1e69 22be
00000340: b3a0 c8bc 1de2 8f3d 5aec 6c3c 34d4 55be
00000350: 624e c73d c335 3cbe 9fce 10be 9aaa 9dbc
00000360: d8dd 913e 9159 1a3e 5f6f b4bd 814e 3cbd
00000370: 6504 f4bb 78f5 f7bd 54b5 0a3c 8afd 11be
00000380: da1f 8fbd 43d0 36be aadc a4bd eac9 b13e
00000390: fa8e e3bd c403 883e 1599 b93c 1cba 8cbd
000003a0: e287 9bbe 1ef8 25bd f892 093e aa74 8a3e
000003b0: 105f 183e bb40 7fbd 7f05 67be 10e5 983d
000003c0: b79d 94bd 2109 9cbd 53ea 05bd 2a30 bb3c
000003d0: 9831 6f3e 792f aa3d 7af1 d3bd d9db c9bd
000003e0: 0afa fe3c 9962 83bd 96bd 7c3e b301 29bb
000003f0: 926d cb3c cafa 88bd d15c b7be 3427 853d
-0.23842023 -0.18539377 0.08457879 -0.23160973 0.18795712 0.24430846 -0.0066475193 -0.13024458
-0.011398883 0.016212054 0.13076241 -0.24854541 0.11454888 -0.16502987 0.15862228 -0.045723695
-0.106395245 0.041910157 0.004480482 0.084083185 -0.14561522 -0.2892676 0.057986926 -0.13042046
-0.17634135 -0.112596005 -0.3346248 0.1923991 -0.31509143 -0.08460156 -0.18211782 0.21404478
0.028508205 0.20469026 -0.092059046 0.042440414 -0.18516898 -0.13822088 -0.17769529 0.09414062
-0.1336559 0.18690126 -0.08160605 0.14786392 -0.10061983 0.06330708 0.07359896 -0.0907969
0.3962033 -0.27940947 -0.018020974 -0.05974121 0.16723287 0.12899955 -0.07771731 0.06934129
0.123246714 -0.24710995 -0.10747381 0.28809217 -0.01603651 0.22263592 -0.32073992 0.31888953
0.31631097 -0.16123101 -0.4852072 0.10086808 -0.05894299 -0.09008505 0.014076772 0.16119057
-0.040228993 -0.09424563 -0.14515434 -0.005398779 -0.22398463 0.14575654 0.097984254 0.063078575
-0.11443134 -0.009522246 0.033112876 0.0024921626 -0.15234756 -0.13387643 -0.0049401904 0.189439
-0.061756346 -0.1322428 0.09052995 -0.08209771 0.032793216 -0.026183268 0.16988778 -0.1105239
0.13187033 -0.09007202 -0.04017538 0.07931576 -0.5019587 -0.041845728 -0.079920374 0.2534813
-0.14477725 0.15817396 -0.021524077 0.07116387 -0.022368591 -0.13693221 -0.119332395 0.09624888
-0.045368142 -0.012375214 -0.06515479 0.07000504 0.09310431 -0.4388808 0.23463877 0.0077405525
-0.021452038 0.099234946 0.10471751 -0.039658442 0.03826966 0.11704912 0.072381146 0.02229972
0.09513215 0.2611202 -0.041292302 0.11818002 0.16893539 -0.03646122 -0.06591704 -0.098693885
-0.027459817 -0.009344389 -0.013210567 0.138555 0.13008192 -0.37030196 -0.006093104 -0.413561
0.09837548 -0.061808027 0.008716151 -0.1060243 -0.03481256 -0.13602349 -0.030333215 -0.020890644
0.022824718 0.102656655 -0.097323336 -0.2113904 0.09981676 0.11714855 -0.05225509 0.011769176
-0.017397208 -0.27086106 0.20120798 -0.03767039 0.09320007 0.14480883 0.074669525 -0.40686145
-0.016354194 -0.18332253 -0.1941301 -0.085914284 -0.12539846 0.12760802 -0.013041042 -0.029268079
0.15646552 -0.12979218 -0.06155548 -0.10066601 0.017566385 0.17674436 0.06096804 0.13023221
0.06544441 0.12620103 -0.06984458 0.007469529 -0.009283492 -0.18170135 0.0791341 0.1017194
0.058166493 0.11581636 0.022168454 0.09972188 -0.26642263 0.13154314 -0.09834862 0.20588458
0.13850659 0.28562745 0.24364857 0.014627808 -0.14403148 -0.1894556 -0.01849016 -0.15860412
-0.02449069 0.070255496 0.0144606475 -0.2088173 0.09731747 -0.18379883 -0.1414132 -0.019246388
0.28489566 0.1507323 -0.08810305 -0.045973305 -0.007446813 -0.12107366 0.008466084 -0.14256874
-0.06988497 -0.17852883 -0.08049901 0.3472436 -0.11111255 0.26565373 0.022656003 -0.06871435
-0.30377108 -0.040519826 0.1343497 0.27042133 0.14880013 -0.06231759 -0.2256069 0.07465565
-0.07256644 -0.07618929 -0.032694172 0.022850115 0.23358762 0.08309836 -0.103487924 -0.09856386
0.031125087 -0.064152904 0.24681696 -0.0025788366 0.02483252 -0.06688459 -0.35813 0.06501618

blocks.2.conv2.bias f4 [16]
00000000: f6c9 49be d3b0 07be 79cd 273c f4ed 56be
00000010: a87a 2c3e adef 793e 37c8 d8bd fb2e 1e3e
00000020: 6eef 413e a8a7 9b3e 52cf 99bd 3b7b bdbc
00000030: 1261 6bbc 5f60 f5bd f06d 403e 56f3 4cbb
-0.19705948 -0.13251047 0.01024186 -0.2098921 0.16843665 0.24407835 -0.10585063 0.15447609
0.18938991 0.3040135 -0.07510246 -0.02313005 -0.014366405 -0.11981272 0.18791938 -0.003127297

blocks.2.conv2.weight f4 [16, 16, 1, 1, 1]
00000000: cfa6 b83e 4c00 8dbc 85ff 7dbe a613 863e
00000010: c3af 27bd 3c17 83bd 04c0 00be 6289 233e
00000020: c21a 34be cfce 953e 223c 84bc 45ac 97be
00000030: a3d2 09bd 3078 12be 728c 6ebc cbb0 f3bc
00000040: 735f b3be bf80 f2bc 13f7 813e 5644 0c3e
00000050: 2e3c 233d 6480 b1bd efa9 813e 6068 97be
00000060: d1eb b4bd 79d1 a1bd 3000 f0bc 3d1e 823e
00000070: 258b 253d 6443 393d 3efa b3bc 9d55 dfbd
00000080: 301f 703e cc52 243d 79e7 3c3e 4b99 2dbe
00000090: 6734 7cbe 6dc9 9f3e c4a9 e3bd 1152 c039
000000a0: 5433 2c3e 923a 58be 5c63 c33e f040 c3be
000000b0: 9ce7 b8bd cfc9 91bc dd1e 91bc 082f 0abc
000000c0: 725d 43bd 81be cfbc 9cf5 35bd 8e76 153d
000000d0: 7258 0c3e cc47 d73c 3882 f43d 2be1 96bd
000000e0: 815d 733d b9bb 083d 2b3b 39be c9e5 9b3b
000000f0: d106 0f3e 0ac0 aabe 41b1 3abc eaaf 813d
00000100: 8040 203e 7c25 633e 02ec c8be f8d0 ab3e
00000110: e2ed 463e ba89 5ebd 7188 d03e c7d0 88be
00000120: cf93 8bbe ad8e 9a3e 66f2 10bd 8af1 943e
00000130: 92c1 293d 9ca2 af3d 47c3 95be 141a ee3d
00000140: 5066 01be 4032 c1bd 962c 8c3e 0214 1bbe
00000150: bc2b d63b b80b d5be 343b 0c3e d5dd 9abe
00000160: e9c3 823d 2556 86bd f31a 9ebe f7c1 7f3e
00000170: b70c 7d3e 8bef b0be d935 b83e ffa3 dfbe
00000180: b833 863d 81ad a9bd 3053 f03c fccd 493d
00000190: a250 523d 79a8 39be 1233 8cbe 36d4 c63e
000001a0: f1dd c7be 0e8b 133d 8e61 bb3d 6fe5 dabc
000001b0: f92d cdbd 0837 6a3e 74f5 b5be ba7e b23e
000001c0: 61b6 b7bd f3e4 0e3e 4954 b1be fff2 843d
000001d0: ca80 0bbd 2252 03be 4f7c 44be db46 ee3d
000001e0: 32d1 a43c 471d bc3d 32d3 0dbe 31b5 1a3d
000001f0: bafe b5be 42f5 06be d516 bdbd dbcb 9c3d
00000200: 42b4 a1be 50ac 9cbd 7cc1 243e 2cf4 043e
00000210: f2b9 953e 5bf2 82be 843b 653e be3a 5fbe
00000220: c3af 933e 72ed 95be f7f6 ccbd b73f 9d3e
00000230: 1497 553e b4b8 2a3c 700e 903e cbe9 ddbd
00000240: bc7f ae3c 1733 c73d 685f 3a3e 6c87 39be
00000250: 1f9e ba3d 36fc b23c 67c2 f4bd 9df4 463e
00000260: 766d 773e 9f2a 99be 4eff dd3d 4f70 e73d
00000270: 71a4 08be debb 04be b51a 923e cec8 98be
00000280: e9c3 e53e 18cd 81bd f0e1 813d 6027 dabd
00000290: 28ea 923b 9095 963e 295d 133e 4afe bd3d
000002a0: 0228 b43c 3cfe 1d3d bf0d d7be 42fb af3e
000002b0: f466 5fbd fa8b a8bd 3cc1 abbe 69ef 643e
000002c0: 2e05 c33d 1de6 823d 7586 aabe 4d17 993d
000002d0: 8bfa 20be 3cfe 9a3d 9236 93bd 938c 963e
000002e0: 0098 6c3e f04c aebe 9016 7f3e d94b 073e
000002f0: 5c62 2bbe b465 b73d 61d7 45be f824 fcbc
00000300: 20c3 68be 818d 903e 69cd 3f3e a64e 80be
00000310: d924 b2bd 66d6 313e 1555 df3d fd7e acbd
00000320: 0337 833d 6f4a dcbe 5c98 033e b749 883d
00000330: d9bb 2cbd 73a6 9fbc 2724 9e3d 63f8 e53d
00000340: 57f6 c7be efb3 223e a493 0b3e b7ff 1b3e
00000350: 6b2d a63e b35d cebe 7b7b 74bd 112e cb3b
00000360: 881f babd 1c37 35be 949f 2b3e 5008 87bd
00000370: 3486 863e 9fa4 7fbc 0183 9c3e 2f40 17be
00000380: 288d b53d 21a2 183e 5429 873e 58c7 7fbe
00000390: 4720 2a3e 9a34 9cbe f0a0 23be 0ed2 d93b
000003a0: 0cd9 bebc 650e e0be ab32 043e 40e9 96bd
000003b0: f1e1 51bd 7ce1 e2bd cb55 d23e d4d0 ea3c
000003c0: 2920 9abe 202d 3bbd ba2f 253e 597c 39be
000003d0: 2a51 05be 81eb c5bd 1156 083e 08c3 92be
000003e0: f2ed 5e3d 400f c3bc ca54 93be 61ea e93d
000003f0: 6b52 82bd 48f9 3bbe d81f 86ba 58dc edbd
0.36064765 -0.017212056 -0.24804504 0.26186866 -0.040939104 -0.06400916 -0.12573248 0.15970376
-0.17588332 0.29259345 -0.016141955 -0.2962362 -0.033648144 -0.1430366 -0.014559852 -0.029747387
-0.3503376 -0.029602407 0.25383815 0.13697943 0.039852314 -0.08667067 0.25324962 -0.2957182
-0.08834041 -0.07901282 -0.029296964 0.25413695 0.0404159 0.045230284 -0.02196991 -0.10905001
0.23449397 0.040118024 0.18447675 -0.16953008 -0.24629365 0.31208363 -0.111163646 0.00036682238
0.16816455 -0.21116093 0.38161743 -0.3813548 -0.09028551 -0.017796425 -0.017714912 -0.008434065
-0.04769654 -0.025359394 -0.044423684 0.036490016 0.13705614 0.026279353 0.119389 -0.07367166
0.059415344 0.03338215 -0.18088977 0.004757617 0.13967444 -0.3334964 -0.0113948 0.06332381
0.15649605 0.22182268 -0.3924256 0.33557868 0.19426683 -0.054330565 0.40729097 -0.26721784
-0.27261207 0.30186978 -0.03538742 0.2909053 0.04144437 0.08575937 -0.29250547 0.11626068
-0.12636685 -0.094334126 0.27377766 -0.15144351 0.0065359753 -0.41610503 0.13694459 -0.3024737
0.06385023 -0.065593995 -0.30879936 0.24976335 0.24711882 -0.34557757 0.35978583 -0.43679807
0.06552833 -0.08285046 0.029336542 0.049268708 0.05134643 -0.18130673 -0.27382714 0.3883378
-0.39036515 0.036021285 0.091494665 -0.02672073 -0.10018534 0.22872555 -0.35538828 0.3486231
-0.08970333 0.13954525 -0.34634617 0.0649166 -0.03405837 -0.128243 -0.19188045 0.11634608
0.020119283 0.09185272 -0.13850096 0.037770454 -0.35545903 -0.13179496 -0.092328705 0.0765607
-0.31582838 -0.076500535 0.16089433 0.12983769 0.29243428 -0.25575528 0.22385985 -0.21799752
0.28845033 -0.2928272 -0.10008042 0.30712673 0.20858413 0.010420013 0.28136015 -0.10835608
0.021301143 0.097265415 0.18200457 -0.18118066 0.091121905 0.02184878 -0.11951142 0.1942925
0.2416285 -0.2991533 0.10839711 0.11300718 -0.1334398 -0.1296229 0.28536 -0.29840702
0.4487603 -0.06337947 0.06341922 -0.106520414 0.00448348 0.29410982 0.14391007 0.092770174
0.021991733 0.038572535 -0.42002675 0.34371382 -0.054541543 -0.082298234 -0.33545864 0.22356953
0.09522472 0.06391547 -0.33305708 0.074751474 -0.15720575 0.075680226 -0.07188143 0.29404125
0.23104858 -0.34043074 0.2491095 0.13212527 -0.1673674 0.08954945 -0.19320442 -0.030779347
-0.22730684 0.2823296 0.18730702 -0.25060004 -0.086984344 0.17366943 0.109049 -0.084226586
0.06406977 -0.43025538 0.12851089 0.06654685 -0.042171333 -0.019488549 0.07721739 0.11229017
-0.3905513 0.15888952 0.13630539 0.15234266 0.32456526 -0.40305862 -0.059688073 0.00620056
-0.09088045 -0.17696804 0.16760093 -0.06593382 0.26274264 -0.015603214 0.30568698 -0.14770578
0.08864814 0.14905597 0.26398718 -0.24978387 0.16613875 -0.30508882 -0.15979362 0.006647355
-0.023296855 -0.43760982 0.12909953 -0.07368708 -0.051240865 -0.11078164 0.4108108 0.02866403
-0.3010266 -0.04569733 0.16131487 -0.18113841 -0.13019243 -0.096640594 0.13314082 -0.28664422
0.05442614 -0.023810983 -0.28775626 0.11421657 -0.06363376 -0.18356812 -0.0010232879 -0.11614293

blocks.2.norm1.bias f4 [16]
00000000: 3470 613e 9c42 8a3d baba fc3d 8ea4 d43d
00000010: 48ce 753e e8e8 2c3e c59f e1bd a5b0 3d3d
00000020: c8a0 373e 2869 cf3d 65e3 003d 7927 5b3e
00000030: d5d4 3fbd 9ee7 963d f4fc 583e fcaf 943e
0.22015458 0.06750986 0.12340303 0.10382949 0.24004471 0.16885722 -0.11016802 0.04631104
0.17932427 0.10127479 0.03146686 0.21401776 -0.04683383 0.07368396 0.21190244 0.29040515

blocks.2.norm1.weight f4 [16]
00000000: 0126 113f c924 7b3f bb2b 723f 2173 523f
00000010: 77aa 653f a9be 423f 9a6f 5f3f fdca 843f
00000020: da6f 673f 5add 593f 685a 603f c20e 6f3f
00000030: 8724 573f 4103 3c3f 3155 433f a593 543f
0.56698614 0.98103005 0.9459798 0.8220692 0.89713234 0.76072174 0.87279665 1.0374447
0.90405047 0.8510338 0.8763795 0.93381894 0.8404011 0.73442465 0.76301867 0.8303779

blocks.2.norm2.bias f4 [16]
00000000: 5b34 623e 54db 2d3d aa76 fe3d d902 513d
00000010: 1b32 8f3e 92f1 7f3e 1e15 5f3e f714 423e
00000020: f7a4 433e 0dcc a23e 4f5a 123d 778c 073e
00000030: 89c0 193e 4f62 de3d c86a 463e 9222 393e
0.22090285 0.042445496 0.12424977 0.051028106 0.27967915 0.24994496 0.217854 0.1895331
0.19105898 0.31796303 0.035730656 0.13237177 0.15014853 0.108585946 0.19376671 0.18079594

blocks.2.norm2.weight f4 [16]
00000000: 0cad 913f ce7c 4e3f c8a5 903f a218 763f
00000010: 74fc 903f 1e69 a03f 4b6a 9f3f 659a 9a3f
00000020: a2f2 843f d8d7 a33f b97c 9d3f 7caf 963f
00000030: 59da 8f3f d6b1 623f b36f 8f3f 4daa 953f
1.1380935 0.80659187 1.1300592 0.96131337 1.1327043 1.2532079 1.2454313 1.2078367
1.0386546 1.2800245 1.2303687 1.1772304 1.123851 0.88552606 1.1205963 1.1692597

in_proj.bias f4 [16]
00000000: a1ec b93c 8e81 783d f51a b93d 14eb 10be
00000010: 2bfb a1bc 7e10 26bd 3b47 2a3d 35e3 673e
00000020: f587 dc3c ff21 f03c 8465 683e fa0f 81bd
00000030: 2e05 4e3e 4b18 e7bc f4c5 a5be 425c ac3d
0.022695841 0.060670428 0.09038345 -0.14152175 -0.019773087 -0.040543072 0.041571837 0.22645266
0.026920298 0.029313086 0.22694975 -0.063018754 0.20119163 -0.028209826 -0.3237759 0.08416034
