adapter_hunyuan_to_kvae3d.safetensors (safetensors, 11736 bytes, 28 tensors)

blocks.0.conv1.bias f4 [16]
0	0x3cac61c2	0.021042708
1	0x3c605039	0.013691002
2	0xbe4b97c3	-0.19882111
3	0x3e3a9e75	0.18224509
4	0x3d3ddd26	0.04635348
5	0xbdbb57af	-0.09147584
6	0xbcb8bc00	-0.022550583
7	0xbdf7e64a	-0.12104471
8	0xbdac3b60	-0.084097624
9	0xbc5187ae	-0.012788696
10	0x3e8a7bf5	0.27047697
11	0xbdc0e2d9	-0.09418268
12	0x3e52106d	0.20514078
13	0x3d94a19a	0.072573856
14	0xbe14bb45	-0.14524563
15	0x3e14bc5b	0.14524977

blocks.0.conv1.weight f4 [16, 16, 1, 1, 1]
0	0x3e7c6e6a	0.24651495
1	0xbd61e959	-0.05515418
2	0x3dbf6b2e	0.09346615
3	0x3ce89b7f	0.028394459
4	0x3cc934cd	0.02456131
5	0x3d1e7c00	0.038692474
6	0xbaeeb23b	-0.0018211076
7	0x3dff00ed	0.124513485
8	0xbc7fc185	-0.0156101035
9	0xbdcec81c	-0.100967616
10	0xbdc2f87f	-0.09520053
11	0xbe420e7f	-0.18950842
12	0x3d9fee03	0.07809069
13	0xbe84979c	-0.2589692
14	0xbd9680f8	-0.073488176
15	0x3e6163fd	0.22010799
16	0x3e6e34de	0.23262355
17	0x3d27f99c	0.04100953
18	0x3e68ae82	0.2272282
19	0xbe570ef0	-0.21001792
20	0x3e1ed794	0.15511924
21	0xbdab9a03	-0.08378985
22	0x3d55d962	0.052209266
23	0x3da7fe47	0.082027964
24	0xbcce3b57	-0.02517478
25	0x3e0791ac	0.13239163
26	0xbd74ebbb	-0.059795123
27	0x3d841e74	0.06451121
28	0x3ce06351	0.027391108
29	0x3d06fbbf	0.032954928
30	0x3e1a2b70	0.15055633
31	0xbdd6aa20	-0.104816675
32	0x3d11e13b	0.035615187
33	0x3cd0ff47	0.02551235
34	0xbd3fdb1b	-0.046839815
35	0xbe302fba	-0.17205706
36	0xbcabcd4d	-0.020971918
37	0x3bb8564b	0.0056255213
38	0x3e268643	0.16262154
39	0xbcfcd2f5	-0.03086231
40	0x3d5ab5e4	0.05339612
41	0xbdc3ece2	-0.09566666
42	0xbe6416c4	-0.2227431
43	0xbe2206a6	-0.15822849
44	0xbe7ee234	-0.24890977
45	0x3eaa5136	0.33265084
46	0xbe015442	-0.12629798
47	0x3d866c2a	0.065635994
48	0xbacf961b	-0.0015837582
49	0x3df99434	0.12186471
50	0xbebe08b3	-0.37116012
51	0x3df93393	0.1216804
52	0xbe107771	-0.14108063
53	0xbd49a233	-0.04922695
54	0x3cf36f0f	0.029716043
55	0xbcb0b8bb	-0.021572461
56	0x3e3471ea	0.1762158
57	0xbd513d76	-0.051084004
58	0xbd2a065d	-0.041509975
59	0x3d8f9ee6	0.07012729
60	0x39f8c143	0.00047446237
61	0x3deb4cf5	0.11489288
62	0xbc7a8108	-0.0152895525
63	0xbe6d99ae	-0.23203155
64	0x3e2920fc	0.16516489
65	0x3e48034e	0.1953251
66	0x3db752a7	0.089513116
67	0xbd66361c	-0.056203946
68	0xbd97322a	-0.07382615
69	0xbc5efdbf	-0.0136103025
70	0x3e146c10	0.14494348
71	0x3c8dd147	0.017311705
72	0xbe6cce58	-0.23125589
73	0x3e8a41b6	0.27003258
74	0x3e4fb551	0.2028401
75	0x3e1aa775	0.15102942
76	0xbd9dccdc	-0.077050894
77	0xbe30ead7	-0.17277084
78	0x3dd0a2b4	0.10187283
79	0xbcb6154f	-0.022226958
80	0xbe3afe06	-0.18260965
81	0x3e002e12	0.12517574
82	0x3e81472c	0.25249612
83	0xbcd445ac	-0.025912128
84	0x3d2137c1	0.03935981
85	0x3d7bea6e	0.061502866
86	0x3df7719a	0.12082215
87	0x3d29fa75	0.04149862
88	0xbdcbc8c4	-0.099504024
89	0x3d218f58	0.039443344
90	0x3cdc5175	0.02689431
91	0x3bf0fe3a	0.007354525
92	0xbda7330c	-0.08164033
93	0xbe30adc4	-0.17253786
94	0xbdab2247	-0.08356147
95	0x3bcab5ec	0.0061862376
96	0x3d05b61e	0.032644384
97	0x3e5dfd1f	0.2167859
98	0xbd617148	-0.055039674
99	0xbe2eecb3	-0.17082481
100	0x3e8811ff	0.2657623
101	0x3d7f7531	0.06236762
102	0xbeb4d138	-0.3531587
103	0x3d0a4103	0.033753406
104	0xbeaa14c4	-0.33218968
105	0x3c9163ab	0.01774772
106	0xbdc76afd	-0.09737203
107	0xbdd51df1	-0.104061015
108	0x3df94968	0.12172204
109	0x3c987600	0.018610954
110	0xbe528c11	-0.20561244
111	0xbdd40968	-0.103533566
112	0xbc5377bd	-0.012906966
113	0x3e35b87f	0.17746161
114	0x3a62c10a	0.0008649981
115	0x3e097584	0.13423735
116	0xbe2c9f6a	-0.16857687
117	0x3d91cdc1	0.071193226
118	0x3d58bd8f	0.052915152
119	0xbccb0462	-0.024782363
120	0xbe49e51d	-0.19716306
121	0x3d950674	0.072766215
122	0xbdf70dfb	-0.120632134
123	0xbe105921	-0.140965
124	0x3de38173	0.11108675
125	0x3e95ce44	0.2925893
126	0x3d2cce08	0.042188674
127	0x3ccd22b5	0.025040964
128	0x3e2898a8	0.16464484
129	0xbe262943	-0.16226678
130	0xbda0ff1f	-0.078611605
131	0xbd419bf7	-0.04726788
132	0x3c46a708	0.012124784
133	0x3e2b94c7	0.16755973
134	0x3e2a871f	0.16653107
135	0x3d3d7c47	0.0462611
136	0xbe2dbb73	-0.16966037
137	0xbc78e34a	-0.015190909
138	0xbe3ae753	-0.18252306
139	0xbec3ebea	-0.38265926
140	0x3df57312	0.119848385
141	0xbec2f3a4	-0.38076508
142	0xbe3f0360	-0.18653631
143	0x3d38525d	0.045000423
144	0xbde0f076	-0.10983364
145	0x3e2340eb	0.15942733
146	0x3e98b0c6	0.29822367
147	0xbddfda0f	-0.10930263
148	0xbd8203ec	-0.06348404
149	0xbe14d384	-0.14533812
150	0xbd77f690	-0.060537875
151	0xbdbfff26	-0.093748376
152	0x3e3db6c8	0.18526757
153	0xbd47d35e	-0.04878556
154	0x3e27b184	0.1637631
155	0xbe211569	-0.15730824
156	0x3e673527	0.2257887
157	0x3e34d669	0.17659916
158	0x3d9a6f22	0.07540728
159	0xbc8fb4a8	-0.017542198
160	0x3e44ebe1	0.19230606
161	0x3b914d40	0.0044342577
162	0x3d55f12b	0.05223195
163	0xbd9f3768	-0.0777424
164	0xbe40b3be	-0.18818566
165	0xbdd5cb35	-0.10439149
166	0x3d99f6b7	0.0751776
167	0xbc2f9fe5	-0.010719274
168	0x3e314297	0.17310558
169	0x3dc96052	0.09832825
170	0x3e07fc80	0.13279915
171	0x3e8e1226	0.2774822
172	0x3e352f93	0.1769393
173	0x3dc4c33e	0.09607552
174	0x3cfcaf0f	0.030845193
175	0xbc811cb8	-0.015760764
176	0x3e3ae1b9	0.18250169
177	0x3d9c1f73	0.07623186
178	0x3e63f33b	0.22260754
179	0xbe1765dc	-0.1478495
180	0x3e870079	0.26367548
181	0x3d9bbfd7	0.0760495
182	0x3c62645d	0.013817874
183	0xbdd38c78	-0.10329527
184	0x3db532f8	0.08847612
185	0x3cc66d88	0.02422215
186	0xbe5f1431	-0.21785046
187	0xbd8535c9	-0.06504399
188	0xbe277423	-0.16352896
189	0x3c92092d	0.017826641
190	0xbc84599f	-0.016156016
191	0xbe67f701	-0.22652818
192	0x3bbaa5a9	0.0056960178
193	0xbe94a480	-0.29031754
194	0x3dd83f71	0.105589755
195	0xbdb7d8b1	-0.089768775
196	0x3e1c2234	0.15247422
197	0x3dc306a6	0.095227525
198	0x3d93acf3	0.07210722
199	0x3d265bfc	0.040615067
200	0xbde09dd3	-0.109676026
201	0xbcf6ddc7	-0.030135049
202	0x3dcb90f4	0.09939757
203	0x3e2f4739	0.17117013
204	0x3afe4f9f	0.0019402391
205	0xbe028110	-0.12744546
206	0x3da06f1f	0.07833695
207	0x3e7e39df	0.24826764
208	0x3d3df8e4	0.04637994
209	0xbd3166cb	-0.04331092
210	0xbe42244c	-0.18959159
211	0x3e01d33c	0.12678236
212	0xbe6fdcc8	-0.23424065
213	0xbe2058df	-0.15658902
214	0x3e2111ad	0.15729399
215	0xbdf956f7	-0.1217479
216	0x3dcdef88	0.100554526
217	0xbe2f0ea4	-0.17095429
218	0xbe5fea69	-0.21866764
219	0x3df2b2e1	0.11850525
220	0x3de59273	0.112095736
221	0xbe892d77	-0.267925
222	0xbe2b3f7c	-0.16723436
223	0xbdf05241	-0.11734439
224	0xbe98302c	-0.29724252
225	0x3dc97951	0.098375924
226	0xbe19f561	-0.15035011
227	0x3e87c5e6	0.26518172
228	0x3e1c65f4	0.15273267
229	0x3e2133a2	0.15742353
230	0xbd224f43	-0.03962637
231	0xbe26c7cf	-0.16287158
232	0x3e1e7a10	0.1547625
233	0xbda78f86	-0.08181672
234	0xbe537165	-0.20648725
235	0xbe21fdae	-0.15819427
236	0xbe9727a8	-0.29522443
237	0xbd5705fe	-0.05249595
238	0x3e8bedcc	0.27329862
239	0xbd87de40	-0.06634188
240	0x3e86e01e	0.26342863
241	0x3e0f9ca6	0.140246
242	0x3c8d7ef1	0.017272444
243	0x3d3965e3	0.045263182
244	0x3e591dfd	0.21202846
245	0xbd161ac9	-0.036646638
246	0x3e8a7a25	0.27046314
247	0x3dd4d182	0.10391523
248	0xbe35d2f0	-0.17756248
249	0x3e358667	0.17727052
250	0x3c820cbe	0.015875217
251	0xbe907f23	-0.28221998
252	0xbe49c440	-0.1970377
253	0xbcc2053b	-0.023684135
254	0x3d89f85c	0.06736824
255	0x3d008b88	0.031383067

blocks.0.conv2.bias f4 [16]
0	0xbd8119cf	-0.06303751
1	0x3de968f9	0.11396975
2	0x3e3b7be8	0.18308985
3	0x3e111a6c	0.14170235
4	0x3e11c33b	0.14234631
5	0xbc313e2b	-0.010818045
6	0x3e75a1a1	0.23987438
7	0x3d398b87	0.04529908
8	0xbd2501f9	-0.040285084
9	0x3e4ab17d	0.19794269
10	0xbd8dbb8d	-0.06920538
11	0xbe04e9f7	-0.12979876
12	0x3e45c056	0.19311652
13	0xbe84701c	-0.25866783
14	0xbe4877f4	-0.19577008
15	0x3e70b8bf	0.23507975

blocks.0.conv2.weight f4 [16, 16, 1, 1, 1]
0	0xbe373fd4	-0.17895442
1	0xbda60ff3	-0.08108511
2	0x3cba55da	0.022746015
3	0x3d8c3825	0.06846646
4	0xbe11c089	-0.14233603
5	0xbe8cd947	-0.2750952
6	0x3cd7a7cb	0.026325127
7	0xbdcac661	-0.09901119
8	0xbe6223e7	-0.22084008
9	0x3c5b550a	0.013386974
10	0x3e5699b1	0.20957066
11	0xbdc931f2	-0.098239794
12	0xbdb27950	-0.08714545
13	0xbe49e812	-0.19717434
14	0x3d9b3c17	0.075798206
15	0xbe241aff	-0.16025923
16	0xbe28499e	-0.16434333
17	0x3b0a8e83	0.0021142073
18	0xbd3e43fd	-0.046451557
19	0x394106fe	0.00018408519
20	0xbe20010d	-0.15625401
21	0xbe326a40	-0.17423344
22	0xbe6c8e7b	-0.23101227
23	0x3d4b0bee	0.049571924
24	0x3daad815	0.083419956
25	0xbdc1f113	-0.094698094
26	0xbd6c8f3e	-0.057753794
27	0xbe7fc080	-0.24975777
28	0x3e0fe93c	0.14053816
29	0xbd265801	-0.04061127
30	0x3e0ba125	0.1363569
31	0xbe5c9866	-0.2154251
32	0x3cb897a3	0.022533244
33	0xbe0dd1ef	-0.13849615
34	0xbe197a21	-0.14987995
35	0x3ba4c558	0.005028408
36	0x3b49eddb	0.003081194
37	0xbe35f040	-0.1776743
38	0x3dc27386	0.094946906
39	0xbe044145	-0.12915523
40	0xbabdd722	-0.001448367
41	0xbdcb72f2	-0.099340335
42	0x3d869ff0	0.065734744
43	0x3c5338a5	0.012891923
44	0xbde3fb68	-0.11131936
45	0x3d474c40	0.048656702
46	0x3e28d7e5	0.16488607
47	0x3df95c32	0.12175788
48	0xbd6e14e7	-0.058125403
49	0x3e94c5a1	0.2905703
50	0x3e94e17b	0.29078278
51	0xbd41f487	-0.04735234
52	0xbe034adb	-0.12821524
53	0xbe1ff4c9	-0.15620722
54	0xbddfc64e	-0.109264955
55	0x3d8dc4de	0.06922315
56	0xbe681580	-0.22664452
57	0xbe4c43f4	-0.19947797
58	0xbd9b0873	-0.07569971
59	0x3d9588db	0.07301494
60	0x3d11e99d	0.03562318
61	0xbd3376ff	-0.043814655
62	0x3e90696c	0.2820543
63	0x3daef20b	0.0854226
64	0x3e805d5e	0.25071234
65	0xbe4766e6	-0.19472846
66	0xbe9982de	-0.29982656
67	0xbe30f7f9	-0.17282094
68	0x3e921da9	0.28538254
69	0x3e5463d5	0.20741208
70	0x3da38866	0.07985
71	0xbe5b20d7	-0.21399246
72	0x3e309935	0.17245944
73	0x3dbc5586	0.09196
74	0xbe329f4b	-0.17443578
75	0x3da269cf	0.07930338
76	0x3bd2b807	0.006430629
77	0x3dcef41c	0.10105154
78	0xbd91f5d1	-0.07126964
79	0xbd198102	-0.037476547
80	0xbd102b02	-0.035197265
81	0x3e47ca7f	0.1951084
82	0xbd4a7c06	-0.049434684
83	0x3d0d0745	0.03443076
84	0xbda30055	-0.07959048
85	0xbdf474b9	-0.119363256
86	0xbdadcb19	-0.084860034
87	0x3ddcd67f	0.107830994
88	0x3d8edc2d	0.06975589
89	0x3e36b7b7	0.17843519
90	0xbe116fee	-0.14202854
91	0xbdec09f0	-0.11525333
92	0xbe177560	-0.14790869
93	0x3e7fc8e2	0.24978974
94	0xbd8427bf	-0.064528935
95	0xbe4aba2a	-0.19797578
96	0xbd089c60	-0.033352256
97	0xbdebf2f1	-0.11520947
98	0xbdb8f74e	-0.090315446
99	0x3d91ae2e	0.071133
100	0x3e252c99	0.16130294
101	0xbceba048	-0.028762951
102	0x3cc86cf6	0.02446602
103	0xbd0d7e37	-0.034544196
104	0x3e5706b3	0.2099865
105	0x3e0d0629	0.13771881
106	0x3d860c9a	0.06545372
107	0xbdf952c7	-0.12173992
108	0x3e185e12	0.14879635
109	0xbe238f06	-0.15972528
110	0x3e3703b8	0.17872512
111	0x3e596b2f	0.21232294
112	0xbe861e68	-0.26195073
113	0xbe214b6c	-0.15751427
114	0xbc849f20	-0.016189158
115	0x3e1c55e9	0.15267147
116	0xbd122b65	-0.035685915
117	0xbe5d45bb	-0.21608631
118	0xbdbb2232	-0.091373816
119	0x3e18f1a3	0.14935927
120	0xbea29a9d	-0.31758586
121	0xbd3f14bc	-0.046650633
122	0x3e7c750b	0.24654023
123	0x3d53adc7	0.0516794
124	0x3e7575c6	0.23970708
125	0xbe56aa63	-0.20963435
126	0x3e282eb8	0.16424072
127	0x3e758c14	0.23979217
128	0xbe645afc	-0.22300333
129	0xbdc0f80e	-0.09422313
130	0xbe35850e	-0.17726538
131	0x3da8235b	0.082098685
132	0x3e534b6d	0.20634241
133	0x3df35e4f	0.11883222
134	0xbe13d127	-0.14435254
135	0x3e1656ac	0.146815
136	0xbd790dfc	-0.060804352
137	0x3d92bb68	0.07164651
138	0x3d6d91a0	0.058000207
139	0x3df235ab	0.118266426
140	0xbe9b497a	-0.30329496
141	0x3e5f54e3	0.21809725
142	0x3de09402	0.1096573
143	0x3e4a6b93	0.19767599
144	0xbdf91baf	-0.12163483
145	0xbd2653f3	-0.040607404
146	0xbdcec2bb	-0.10095736
147	0xbe1cc647	-0.15310012
148	0x3d72fa20	0.05932057
149	0x3d278c5f	0.040905353
150	0xbe25c890	-0.1618979
151	0x3da72044	0.08160451
152	0x3d35485a	0.044258453
153	0x3d768036	0.060180865
154	0xbdb34df0	-0.087551
155	0xbe008064	-0.12548977
156	0x3e9ab788	0.30218148
157	0xbe5a9d04	-0.21348959
158	0x3db3be01	0.08776475
159	0xbe453303	-0.1925774
160	0x3e6c37c4	0.23068148
161	0xbdccf7e0	-0.10008216
162	0xbe806abe	-0.25081438
163	0xbe7f5a86	-0.24936876
164	0xbe2e133c	-0.16999525
165	0xbcf45bba	-0.029828895
166	0x3d621c9e	0.055203073
167	0xbd199be6	-0.037502192
168	0x3e04ef62	0.12981942
169	0x3d2953c8	0.041339666
170	0x3e212445	0.15736492
171	0xbcff929a	-0.031197835
172	0xbd78215d	-0.060578693
173	0x3e17cbfe	0.1482391
174	0x3e83cd81	0.25742725
175	0x3c49139e	0.0122727435
176	0x3db38014	0.08764663
177	0x3e61efb0	0.2206409
178	0x3da52cbf	0.08065175
179	0x3d2995a6	0.04140248
180	0x3dc13f04	0.094358474
181	0x3e4d51c7	0.20050727
182	0x3e400e41	0.18755437
183	0x3e6533a2	0.22382978
184	0x3e3e63f9	0.18592824
185	0xbc0d787d	-0.008634684
186	0x3e80468c	0.25053823
187	0xbd971aa1	-0.07378126
188	0x3e15043a	0.14552394
189	0xbe458d16	-0.19292101
190	0xbe5547b2	-0.20828131
191	0xbe5ee65f	-0.21767567
192	0x3d64b58b	0.055837195
193	0xbca21c1e	-0.019788798
194	0xbe55abfb	-0.20866387
195	0x3e28d873	0.16488819
196	0x3d5d87cf	0.054084595
197	0xbeb26a71	-0.34846833
198	0xbbef20ad	-0.0072975964
199	0x3e88a55c	0.2668866
200	0x3dfd54ba	0.12369676
201	0x3de27c88	0.11058909
202	0xbd445190	-0.047929347
203	0xbd8fc651	-0.07020248
204	0x3e4d3882	0.20041087
205	0x3dc303cb	0.09522208
206	0xbe1149b4	-0.14188272
207	0x3e9f6308	0.31130242
208	0xbd5f0f33	-0.054457854
209	0xbdd1a474	-0.10236445
210	0xbd450ec6	-0.048109792
211	0xbd607a70	-0.054804265
212	0x3ddea941	0.10872126
213	0x3e7c428f	0.24634765
214	0x3dbbc293	0.091679715
215	0x3c923609	0.017848032
216	0xbe98681e	-0.29766935
217	0xbe8d0fdb	-0.2755116
218	0xbea0d51a	-0.31412584
219	0xbdaac9ae	-0.083392486
220	0xbe7ddfbe	-0.24792382
221	0xbe457d6f	-0.1928613
222	0x3e0d8a1a	0.13822213
223	0x3d52ff17	0.051512804
224	0x3dba98b8	0.0911116
225	0xbd7960a6	-0.060883187
226	0x3d833eeb	0.06408485
227	0xbe343a9c	-0.17600483
228	0xbe49ef01	-0.19720079
229	0xbdeed230	-0.11661184
230	0x3d72d542	0.05928541
231	0x3dd2f063	0.102997564
232	0xbe350707	-0.17678462
233	0x3d81dd2a	0.06341012
234	0x3e330dcd	0.17485733
235	0x3e63c620	0.22243547
236	0x3e6a46f0	0.22878623
237	0xbd358b4e	-0.044322304
238	0x3de6de04	0.11272815
239	0x3cf08363	0.029359525
240	0xbd015eae	-0.031584434
241	0xbd7cc6fc	-0.061713204
242	0x3d48e343	0.04904486
243	0x3e8e7424	0.27822983
244	0xbd6d2b44	-0.05790259
245	0x3d29e993	0.04148252
246	0xbbd46a22	-0.0064823786
247	0xbd5a47a2	-0.05329097
248	0xbeb41faf	-0.35180423
249	0xbdcd69e6	-0.10029964
250	0x3d9da22e	0.07696949
251	0xbcbb7255	-0.022881666
252	0xbe3c89a7	-0.18411885
253	0xbe741f2c	-0.23840016
254	0x3dcfa6a1	0.10139204
255	0x3d8beed1	0.0683266

blocks.0.norm1.bias f4 [16]
0	0x3e4d400b	0.20043962
1	0x3cfdf67b	0.03100132
2	0x3c5f12f2	0.013615357
3	0x3c1d3f58	0.009597622
4	0x3e22230d	0.15833683
5	0x3d0cda46	0.03438785
6	0x3df22120	0.11822724
7	0x3d3b3b1b	0.045710664
8	0x3b989698	0.004656624
9	0xbd1db46c	-0.03850214
10	0x3dc21cd5	0.094781555
11	0x3e68f73c	0.22750562
12	0x3d88d169	0.06680567
13	0x3e003e7d	0.12523837
14	0x3cbc52fe	0.022988793
15	0x3da32d93	0.07967677

blocks.0.norm1.weight f4 [16]
0	0x3f8045a6	1.0021255
1	0x3f6f7680	0.9354019
2	0x3f8affbe	1.0859296
3	0x3f778129	0.9668146
4	0x3f484b5a	0.7823998
5	0x3f7d59d3	0.98965186
6	0x3f5552cc	0.83329463
7	0x3f7d2373	0.98882216
8	0x3f6a84fa	0.91609156
9	0x3f6593b0	0.8967848
10	0x3f6689c6	0.90053976
11	0x3f82eec1	1.0229112
12	0x3f6f0a96	0.9337553
13	0x3f857116	1.0425136
14	0x3f5df932	0.86708367
15	0x3f61ca7e	0.88199604

blocks.0.norm2.bias f4 [16]
0	0x3cf4dc3f	0.029890178
1	0xbd2933aa	-0.041309036
2	0x3d878e3f	0.06618928
3	0x3dad38fe	0.08458136
4	0x3d82e6b8	0.06391662
5	0xbd4bd304	-0.049761787
6	0x3c51b1b3	0.012798714
7	0xbb8d93f4	-0.004320616
8	0x3df21129	0.11819679
9	0xbbe1c5a2	-0.0068900147
10	0x3dbe283e	0.09285019
11	0x3e3364b0	0.17518878
12	0x3e04ce25	0.12969263
13	0xbd5c2782	-0.053748615
14	0x3d2f0608	0.04273036
15	0x3d8d9478	0.06913084

blocks.0.norm2.weight f4 [16]
0	0x3f6d86c5	0.92783767
1	0x3f786d82	0.97042096
2	0x3f8cdbc9	1.1004573
3	0x3f83baef	1.0291423
4	0x3f924023	1.1425823
5	0x3f70a4ed	0.94001657
6	0x3f6c91ee	0.9241017
7	0x3f6db87a	0.92859614
8	0x3f9ba743	1.2160419
9	0x3f6af912	0.917863
10	0x3f87f554	1.0621743
11	0x3f4b98f1	0.79530245
12	0x3f7ae9a4	0.9801276
13	0x3f7509d2	0.9571811
14	0x3f7145d2	0.9424716
15	0x3f874bcd	1.0570008

blocks.1.conv1.bias f4 [16]
0	0xbda3791f	-0.079820864
1	0x3d220c39	0.039562438
2	0x3e3fe876	0.1874102
3	0xbd1205eb	-0.035650175
4	0xbe399112	-0.18121746
5	0xbd804434	-0.06263009
6	0x3dc4169d	0.09574626
7	0x3e68397a	0.22678176
8	0x3e498fb3	0.19683723
9	0x3e166324	0.14686257
10	0xbdab0828	-0.08351165
11	0xbe629d46	-0.22130308
12	0xbd9a18a4	-0.07524231
13	0xbd8407bb	-0.06446787
14	0x3e0fe88e	0.14053556
15	0xbe82a850	-0.25519037

blocks.1.conv1.weight f4 [16, 16, 1, 1, 1]
0	0xbd2227d3	-0.03958876
1	0x3d00f3ec	0.031482622
2	0xbd7758a8	-0.060387284
3	0xbe6e788a	-0.2328817
4	0xbddd5326	-0.10806875
5	0xbcc9f088	-0.024650827
6	0xbe08038e	-0.13282606
7	0xbca03ea2	-0.019561116
8	0xbe3b41d0	-0.18286824
9	0x3e87a478	0.26492667
10	0x3e14d0a7	0.1453272
11	0xbd07ab9a	-0.033122636
12	0xbd7945a2	-0.060857423
13	0xbda43a4f	-0.08018934
14	0x3d8d0f26	0.06887655
15	0x3c384843	0.011247697
16	0x3ca48e50	0.020087391
17	0x3e520a04	0.20511633
18	0x3e5be176	0.21472725
19	0x3e5caad2	0.21549538
20	0xbcae0a1d	-0.021245057
21	0x3d931fe6	0.071838185
22	0xbd5cc0de	-0.05389487
23	0xbe07f935	-0.13278659
24	0x3dfa26ef	0.12214457
25	0x3da3a6db	0.079908095
26	0xbd188f4c	-0.037246034
27	0xbe267e6b	-0.16259162
28	0x3d487285	0.04893734
29	0x3dcd0e55	0.10012499
30	0xbd94cdc2	-0.07265808
31	0xbcf24827	-0.02957542
32	0xbdd05805	-0.101730384
33	0xbe2aa6bb	-0.16665165
34	0xbe8e1f58	-0.27758288
35	0xbe682c1c	-0.22673076
36	0xbd6c606c	-0.057709143
37	0xbd86af39	-0.0657639
38	0xbe05646c	-0.13026589
39	0xbe0dd28f	-0.13849853
40	0xbd32bd83	-0.043637764
41	0x3e0cc94f	0.13748668
42	0xbe59424f	-0.21216701
43	0x3dce006e	0.10058676
44	0x3da6e803	0.081497215
45	0xbe45b4fc	-0.19307321
46	0x3e3b56d3	0.1829484
47	0xbe4357e4	-0.19076496
48	0x3e39f69f	0.18160485
49	0x3d67cfac	0.056594536
50	0x3e3dd0bd	0.18536659
51	0xbdef3527	-0.1168006
52	0x3d24ae81	0.040205482
53	0xbcfb3da1	-0.030669035
54	0x3e3cd597	0.18440853
55	0x3d117306	0.035510086
56	0xbde4ce11	-0.111721165
57	0x3e02c3a7	0.12769948
58	0xbd47e374	-0.0488009
59	0x3d3508fb	0.044198018
60	0x3dfc6c91	0.12325395
61	0x3e504fba	0.20342913
62	0xbd7e11fd	-0.062028874
63	0xbe3b5e55	-0.18297704
64	0x3e02a6a4	0.12758881
65	0xbd754028	-0.059875637
66	0x3e72a333	0.23695068
67	0x3cb0ec47	0.02159704
68	0xbe7e6be0	-0.24845839
69	0x3e14759c	0.1449799
70	0x3d006a81	0.03135157
71	0x3e1b9432	0.15193251
72	0x3ce452c0	0.02787149
73	0x3e7767da	0.2416071
74	0xbe3e2897	-0.18570171
75	0x3e117b24	0.1420713
76	0x3e9be8c2	0.30451018
77	0xbe5e629f	-0.21717308
78	0x3daddd15	0.08489434
79	0xbd8afe5f	-0.06786799
80	0xbe68ff11	-0.2275355
81	0x3d480d3b	0.048840743
82	0xbe88b625	-0.26701465
83	0x3e03e26a	0.12879339
84	0x3c374446	0.011185711
85	0xbe0c022c	-0.13672704
86	0x3d9cf9ee	0.07664858
87	0x3d8214b2	0.063516036
88	0xbd3a2cb6	-0.045452796
89	0xbe34a96a	-0.17642751
90	0x3e416e1e	0.18889663
91	0x3d90c635	0.07069055
92	0x3e0c7f4e	0.13720438
93	0x3e874f8c	0.26427877
94	0xbd067883	-0.032829773
95	0x3cc82b97	0.024434848
96	0xbe40a7be	-0.18813989
97	0xbe307da1	-0.17235424
98	0xbd6d6911	-0.057961527
99	0xbe2a5203	-0.16632847
100	0xbd7b918a	-0.061418094
101	0x3cb263f9	0.021776186
102	0xbe1ee3b5	-0.15516551
103	0xbd8b53c6	-0.06803088
104	0x3dbec14f	0.093142144
105	0xbd509c1d	-0.05093013
106	0x3d9cd7ca	0.07658346
107	0xbe806c88	-0.25082803
108	0xbd58bce5	-0.05291452
109	0x3e0a7b43	0.13523583
110	0x3d051d6f	0.032498773
111	0xbe1a4af4	-0.15067655
112	0xbe3c3207	-0.18378459
113	0xbe2441f5	-0.16040786
114	0xbde05cc0	-0.10955191
115	0xbdffd745	-0.12492231
116	0x3da94134	0.0826439
117	0x3e813122	0.25232798
118	0xbe48ac93	-0.19597082
119	0x3e6a11fc	0.22858423
120	0xbad9b8f2	-0.0016610904
121	0xbdcacef3	-0.09902754
122	0x3d606a78	0.054789037
123	0xbcdb34b6	-0.026758533
124	0x3d6f39a2	0.058404572
125	0x3c9d7795	0.01922206
126	0x3e5cff2e	0.21581718
127	0x3d455dfd	0.048185337
128	0x3e15850a	0.14601532
129	0x3e506902	0.20352557
130	0xbeace00e	-0.3376469
131	0xbdfd047a	-0.123543695
132	0x3dd52f37	0.10409396
133	0xbe01dd91	-0.12682177
134	0xbbb4732f	-0.005506895
135	0xbd857cad	-0.06517921
136	0xbe5670e8	-0.20941508
137	0xbe788d1e	-0.24272582
138	0xbe528712	-0.20559338
139	0xbe1ec06b	-0.15503089
140	0x3dce9413	0.10086837
141	0x3e0f2d67	0.13982163
142	0x3e3f483d	0.186799
143	0xbe21e8ef	-0.15811513
144	0xbde508d9	-0.11183328
145	0xbdd43d08	-0.10363203
146	0xbe08e72e	-0.13369438
147	0xbe47c781	-0.19509698
148	0xbd9ffae4	-0.078115255
149	0x3e424c7b	0.18974487
150	0x3e13b53c	0.14424604
151	0x3da4c11d	0.08044646
152	0xbdc7baad	-0.097524025
153	0x3e242bcf	0.16032337
154	0xbcf9ed4c	-0.03050866
155	0xbe9550a0	-0.29163074
156	0x3e1f3465	0.1554733
157	0xbcdd57b3	-0.027019357
158	0xbebd2c66	-0.36947936
159	0x3e488d05	0.19585045
160	0x3e856782	0.26055533
161	0xbd22ea6b	-0.03977434
162	0x3dc7f711	0.09763921
163	0xbd0c8492	-0.034306116
164	0xbe775f44	-0.24157435
165	0xbddf04c7	-0.10889583
166	0x3e2a61a9	0.16638817
167	0xbe8be480	-0.2732277
168	0x3e295cd7	0.16539322
169	0x3dbe2557	0.09284466
170	0x3d1338ae	0.035942726
171	0xbcda05da	-0.026614118
172	0xbca1bd8e	-0.019743707
173	0xbdc83901	-0.09776498
174	0xbdb62092	-0.08892931
175	0xbc39ac9e	-0.011332659
176	0x3dbe578e	0.092940435
177	0xbc186b8a	-0.009302983
178	0x3df4a9cb	0.11946448
179	0xbe0e8ec0	-0.13921642
180	0xbd84311a	-0.06454678
181	0x3e001c60	0.12510824
182	0xbda501c2	-0.08056976
183	0x3bbc6c9d	0.0057502524
184	0xbe3dd628	-0.18538725
185	0xbe9b023e	-0.30275148
186	0x3cdc29c8	0.026875392
187	0x3e1af807	0.15133677
188	0xbe774425	-0.24147089
189	0xbe70f4bc	-0.23530859
190	0x3e5b94a4	0.2144342
191	0xbe8fd2d2	-0.2809053
192	0xbdc5603f	-0.09637498
193	0xbdf15d6e	-0.117853984
194	0xbec29761	-0.38006118
195	0xbddad968	-0.10685998
196	0xbccdd70e	-0.02512696
197	0x3d27f74d	0.04100733
198	0x3e6c15fe	0.23055264
199	0xbde8f205	-0.113742866
200	0x3e20b38a	0.15693489
201	0xbe5fbee5	-0.21850164
202	0xbb727297	-0.003699457
203	0x3e366127	0.17810498
204	0xbe1dddc6	-0.15416631
205	0x3e0dc54b	0.13844793
206	0x3dc521d6	0.09625594
207	0xbd4314be	-0.047627203
208	0xbe29cfba	-0.16583148
209	0x3e807882	0.2509194
210	0x3e0aa301	0.13538744
211	0x3daa2850	0.0830847
212	0x3d9145d2	0.07093395
213	0x3dd73b47	0.10509353
214	0x3d484ebb	0.04890321
215	0xbdcf32ca	-0.10117109
216	0xbd325bf9	-0.043544743
217	0x3c1e5b94	0.009665389
218	0x3d0904cd	0.033451844
219	0xbe341568	-0.17586291
220	0xbd261571	-0.040547792
221	0x3e3556bb	0.17708866
222	0x3c6ddf72	0.014518606
223	0xbc684e2a	-0.014178792
224	0x3e13f4c8	0.14448845
225	0x3da260f3	0.07928648
226	0xbd69c1b6	-0.057069503
227	0xbdc543e8	-0.09632093
228	0x3e1e5de1	0.154655
229	0x3e0dc324	0.13843971
230	0xbe26aee6	-0.16277656
231	0xbcc00525	-0.023439953
232	0x3de7a947	0.11311584
233	0xbb90dd61	-0.0044209217
234	0x3d681926	0.05666461
235	0xbe648f41	-0.22320272
236	0x3e64d0bb	0.2234525
237	0x3e353c4a	0.1769878
238	0xbd50f815	-0.05101784
239	0xbda1eb3b	-0.07906195
240	0xbd974722	-0.073866144
241	0x3808d482	3.262284e-05
242	0xbd192c19	-0.03739557
243	0x3e10eaca	0.14152065
244	0xbcc4bdff	-0.024016378
245	0xbe8f2cb0	-0.2796378
246	0x3e399084	0.18121535
247	0x3cc787db	0.024356773
248	0x3c64d1b4	0.013966013
249	0x3e6e23bd	0.2325582
250	0x3dec2285	0.115300216
251	0xbc2f5f3d	-0.010703859
252	0xbcbe88d9	-0.023258613
253	0xbe2a8f90	-0.16656327
254	0x3df1f084	0.11813453
255	0x3e0f84cf	0.14015506

blocks.1.conv2.bias f4 [16]
0	0x3da9f252	0.08298172
1	0x3e313704	0.17306143
2	0x3e3f45a1	0.18678905
3	0xbe88bea3	-0.26707944
4	0xbe550517	-0.20802723
5	0xbe7c256e	-0.24623653
6	0x3dad01dd	0.08447621
7	0x3da0eee5	0.078580655
8	0xbc980806	-0.018558513
9	0x3e5a7601	0.21334077
10	0x3da87952	0.08226265
11	0xbde3944c	-0.1111227
12	0x3d086ff3	0.033309888
13	0x3d4ea8f3	0.05045409
14	0x3ce60113	0.028076684
15	0xbba32c33	-0.004979634

blocks.1.conv2.weight f4 [16, 16, 1, 1, 1]
0	0x3e0b1752	0.13583115
1	0xbd59e0ef	-0.05319303
2	0xbe42067f	-0.1894779
3	0xbdc398ae	-0.09550606
4	0x3e47a0c3	0.1949492
5	0x3cafe7b7	0.021472795
6	0xbe3f8af8	-0.18705356
7	0x3d8747b2	0.06605472
8	0xbe38b98f	-0.18039535
9	0xbe045c68	-0.12925875
10	0x3deac034	0.11462441
11	0x3d9edc15	0.07756821
12	0x3e8d0156	0.27540082
13	0xbd4fae43	-0.0507033
14	0x3d5b9175	0.053605516
15	0xbe2b97bc	-0.16757101
16	0xbe09e151	-0.13464858
17	0x3dad4272	0.08459939
18	0x3dca7871	0.098862536
19	0x3d5e172c	0.054221317
20	0x3e8c861c	0.27446067
21	0x3d08622d	0.033296753
22	0xbccbf266	-0.024895858
23	0xbd8d8d37	-0.069117
24	0x3badeb55	0.005307595
25	0xbd2eccf5	-0.04267593
26	0x3e098fff	0.13433836
27	0x3d822f2c	0.063566536
28	0x3e44659c	0.19179386
29	0x3de664d5	0.11249701
30	0x3dcdc26c	0.10046849
31	0x3dfd4783	0.123671554
32	0x3df5a6bf	0.11994695
33	0xbe11f704	-0.14254385
34	0x3d9eeebc	0.07760379
35	0xbe96cc0e	-0.29452556
36	0x3e1e71e1	0.15473129
37	0xbe044eb0	-0.12920642
38	0xbb25213b	-0.002519681
39	0xbd2c06b5	-0.041998584
40	0xbd97bccb	-0.07409056
41	0x3e2137fe	0.15744016
42	0x3e1f3f0b	0.15551393
43	0xbcafad66	-0.021444988
44	0xbd3d5bde	-0.04623019
45	0x3ea939ca	0.33051902
46	0x3e40ca76	0.18827233
47	0x3c6087d8	0.013704263
48	0xbe09df9c	-0.13464206
49	0xbe37793e	-0.17917344
50	0xbe3051ad	-0.17218657
51	0x3e7bb6de	0.24581477
52	0x3e6d4889	0.23172201
53	0xbe1fb701	-0.15597154
54	0xbe7fe30b	-0.24988954
55	0xbdfb7cb6	-0.12279646
56	0xbd93f0ea	-0.07223685
57	0xbe3a7e5f	-0.18212269
58	0x3daf7a67	0.08568268
59	0xbe103c40	-0.14085484
60	0x3d2af9a8	0.041741997
61	0xbe3f943b	-0.18708889
62	0xbe183541	-0.14864065
63	0x3de3e1fa	0.11127086
64	0xbe0cf520	-0.13765383
65	0x3e40c505	0.18825157
66	0xbe52d826	-0.20590267
67	0x3da92a77	0.08260053
68	0xbd39a892	-0.045326777
69	0xbde72dad	-0.11288009
70	0xbe571f93	-0.21008138
71	0xbe2f9706	-0.17147455
72	0xbe051155	-0.12994893
73	0xbe10c8e3	-0.14139132
74	0x3db5a52c	0.08869395
75	0xbdd83719	-0.10557384
76	0x3e32cb99	0.17460479
77	0x3d9aaae2	0.075521246
78	0x3dd16136	0.1022362
79	0xbdbd6500	-0.0924778
80	0xbd787b0d	-0.060664225
81	0xbbff3fa2	-0.007789568
82	0x3d25faf6	0.040522538
83	0xbe384419	-0.17994727
84	0xbab59043	-0.0013852197
85	0xbcb7d39a	-0.022439767
86	0x3d8be4d3	0.06830754
87	0x3e7860ec	0.24255723
88	0x3c3e3b34	0.011610795
89	0x3c4c2689	0.012460359
90	0xbe265212	-0.16242245
91	0xbde6db68	-0.11272317
92	0xbe3475b8	-0.17623031
93	0x3e20cfe9	0.15704311
94	0xbe6682f9	-0.225109
95	0x3d933f03	0.07189753
96	0xbe533873	-0.20627002
97	0x3c385f47	0.011253185
98	0xbe7bb7a3	-0.2458177
99	0xbc6e5cf3	-0.014548528
100	0xbdf6dcb7	-0.12053817
101	0x3e1e98b8	0.15487945
102	0x3d727304	0.05919172
103	0x3d0b4614	0.03400238
104	0x3dfa71ce	0.12228738
105	0xbe4cd87b	-0.20004456
106	0xbe6e0902	-0.23245624
107	0x3deabc56	0.114617035
108	0xbe43f487	-0.19136249
109	0x3e381879	0.17978086
110	0xbde98c73	-0.11403742
111	0xbe249665	-0.16072996
112	0xbe20d58f	-0.15706466
113	0xbe3f3455	-0.18672307
114	0x3e4e6e11	0.20159175
115	0x3cd2c970	0.025730819
116	0x3dcaa13f	0.098940365
117	0x3e61dadd	0.22056146
118	0x3e6e0e76	0.23247704
119	0x3e70f666	0.23531494
120	0xbdc09216	-0.09402864
121	0x3e60ed21	0.21965457
122	0x3e56f1d4	0.20990688
123	0xbe1ca2a3	-0.15296416
124	0xbe5f0fe6	-0.21783409
125	0x3e1cbd26	0.1530653
126	0x3e53e0af	0.20691179
127	0x3e2a9622	0.16658834
128	0x3d801271	0.062535174
129	0xbe2ff6fc	-0.17184061
130	0xbd8193d3	-0.06327023
131	0x3e91ef30	0.28502798
132	0xbdc96aca	-0.098348215
133	0xbe3492d7	-0.1763414
134	0x3e394130	0.18091273
135	0xbeb36db3	-0.3504463
136	0x3d2892aa	0.041155495
137	0xbdac45e0	-0.08411765
138	0x3e63cd54	0.22246295
139	0x3ea13d66	0.31492156
140	0x3dac49a1	0.08412481
141	0xbe314b88	-0.17313969
142	0x3d988132	0.07446517
143	0xbe06dc24	-0.13169914
144	0xbdeb7abc	-0.11498019
145	0x3e2ab152	0.16669205
146	0xbe3343dd	-0.17506357
147	0x3baa9efb	0.00520694
148	0xbda36344	-0.07977918
149	0x3e4a98d7	0.19784866
150	0xbcdc789d	-0.026912982
151	0x3d588a49	0.052866254
152	0x3d889c92	0.066704884
153	0x3e5faa08	0.21842206
154	0x3e4b2319	0.19837607
155	0xbddf8767	-0.10914498
156	0x3e03808e	0.12842008
157	0x3e2578c8	0.16159356
158	0xbe145b7e	-0.14488026
159	0x3e0bc88e	0.13650724
160	0x3e40180a	0.1875917
161	0xbe2726d4	-0.16323406
162	0xbe083b96	-0.1330398
163	0x3da0f7d8	0.078597724
164	0x3d88829e	0.06665538
165	0x3d8d7584	0.0690718
166	0xba8c1741	-0.0010688083
167	0xbd8bca51	-0.06825698
168	0xbde5ebd0	-0.11226618
169	0xbcc27500	-0.02373743
170	0xbe3a83ef	-0.18214391
171	0xbe4e10ce	-0.20123598
172	0x3e1ead52	0.15495804
173	0x3c9eae14	0.019370116
174	0xbd6bc102	-0.057557113
175	0x3e5de813	0.2167056
176	0x3e2b3d76	0.16722664
177	0x3bd2addf	0.0064294185
178	0x3d77ab59	0.060466144
179	0x3e5d2d5c	0.21599334
180	0x3d68ae22	0.05680669
181	0xbd8fed8d	-0.07027731
182	0x3e1d7cd8	0.15379655
183	0xbdbe0028	-0.092773736
184	0xbe8227f9	-0.25421122
185	0x3d179f1d	0.037016977
186	0x3d15a762	0.03653658
187	0x3d97da36	0.07414667
188	0xbe672bfa	-0.2257537
189	0xbe518934	-0.20462495
190	0x3e5ec77f	0.21755789
191	0xbe7438b4	-0.23849756
192	0xbe51c75f	-0.2048621
193	0x3dd7e091	0.105408795
194	0xbd91509a	-0.07095452
195	0xbd8f9385	-0.07010559
196	0xbb83dd22	-0.004024164
197	0xbc57cae7	-0.013170934
198	0x3dd83004	0.10556033
199	0xbd6a4d23	-0.05720247
200	0x3e151bf8	0.1456145
201	0x3e8dcc94	0.27695143
202	0x3da2b5a5	0.07944802
203	0xbd881894	-0.06645313
204	0x3d7ea716	0.062171064
205	0x3da8162f	0.08207356
206	0x3c894fcf	0.016761689
207	0x3d8e9562	0.06962086
208	0xbc7509a2	-0.01495591
209	0x3df97347	0.121801905
210	0x3da7a27a	0.08185287
211	0xbe6715ba	-0.22566882
212	0xbdffffab	-0.12499937
213	0x3be3c2c4	0.006950708
214	0xbc873fba	-0.01650988
215	0xbd50cc13	-0.05097587
216	0x3e3862ba	0.18006411
217	0x3b8a9a03	0.0042297854
218	0xbe213f5d	-0.15746827
219	0xbe4c7fa1	-0.19970562
220	0x3e1a0f15	0.15044816
221	0xbe33b4c6	-0.17549428
222	0x3e00a845	0.1256419
223	0x3e5b9316	0.21442828
224	0xbbf8f9e9	-0.007598151
225	0x3e017060	0.12640524
226	0xbd7f1409	-0.062274966
227	0x3e83b94a	0.25727302
228	0x3d39aa7b	0.0453286
229	0xbde40276	-0.11133282
230	0xbde8ab41	-0.11360789
231	0x3e4313e3	0.19050555
232	0x3dec1f43	0.115294
233	0xbea35b55	-0.31905618
234	0xbd4fc90b	-0.05072884
235	0x3e3d3b6a	0.18479696
236	0xbe1ba18f	-0.15198348
237	0x3de84497	0.113412075
238	0xbe0c37df	-0.13693188
239	0xbe858f4f	-0.26085898
240	0x3e97479f	0.2954683
241	0x3db1d46a	0.08683093
242	0xbddf79c2	-0.10911895
243	0xbed06ec3	-0.40709504
244	0xbe47015d	-0.19434114
245	0x3e271978	0.1631831
246	0xbd22c0a4	-0.039734498
247	0xbe04247b	-0.12904541
248	0x3dde28f5	0.10847656
249	0xbeaf601e	-0.3425302
250	0x3d2a99e6	0.041650675
251	0x3dc53a9d	0.0963032
252	0x3dfa0a07	0.12208944
253	0xbe0c047d	-0.13673587
254	0x3c49b704	0.012311701
255	0xbe423f1d	-0.18969388

blocks.1.norm1.bias f4 [16]
0	0x3e12d4d5	0.14339001
1	0x3d282a25	0.041055817
2	0x3ea21782	0.3165856
3	0x3c19e916	0.009393951
4	0x3d22f43d	0.039783705
5	0x3c967ce7	0.018370105
6	0x3db29730	0.08720243
7	0xbcf841b7	-0.030304773
8	0x3d019992	0.031640597
9	0x3dcf004a	0.10107477
10	0x3d99b215	0.075046696
11	0xbd70af23	-0.058760773
12	0x3e805793	0.25066814
13	0x3cd88b1a	0.026433516
14	0xbcbcfe62	-0.023070518
15	0x3d0fe60e	0.035131507

blocks.1.norm1.weight f4 [16]
0	0x3f8c3dd6	1.0956371
1	0x3f6316b6	0.8870653
2	0x3f80e7c2	1.0070727
3	0x3f6eb4c4	0.93244576
4	0x3f6715fb	0.90267915
5	0x3f628ebb	0.8849904
6	0x3f668839	0.9005161
7	0x3f6d5c10	0.927186
8	0x3f77f602	0.96859753
9	0x3f88c217	1.0684232
10	0x3f61fd16	0.88276803
11	0x3f7c219d	0.9848879
12	0x3f68ba9d	0.9090975
13	0x3f79d3d8	0.9758887
14	0x3f751f1a	0.9575058
15	0x3f7fd7d5	0.9993871

blocks.1.norm2.bias f4 [16]
0	0xbd0f7a55	-0.035028774
1	0xbcbb4fe6	-0.022865247
2	0xbd106587	-0.035253074
3	0x3d52b35f	0.051440593
4	0x3db0e962	0.08638264
5	0x3dae8b90	0.08522713
6	0xbc96b6f9	-0.018397795
7	0x3cf81450	0.030283123
8	0xbd086ae2	-0.033305056
9	0x3cdb76ac	0.026789986
10	0x3d7a6765	0.06113376
11	0x3d057afa	0.032587983
12	0x3d4bb77e	0.04973554
13	0x3daa1f34	0.08306733
14	0x3d53a1a4	0.051667824
15	0x3b9f07e8	0.0048532374

blocks.1.norm2.weight f4 [16]
0	0x3f78c17e	0.97170246
1	0x3f7bd4b5	0.9837144
2	0x3f76205a	0.96143115
3	0x3f8cc58c	1.0997787
4	0x3f89a187	1.0752419
5	0x3f7ee49d	0.99567586
6	0x3f753b28	0.9579339
7	0x3f84e61e	1.0382726
8	0x3f7b6c96	0.98212564
9	0x3f868222	1.0508463
10	0x3f8364dc	1.0265155
11	0x3f7230ad	0.94605523
12	0x3f836a8e	1.0266893
13	0x3f88e3ee	1.0694559
14	0x3f7a8ee1	0.97874266
15	0x3f7c7a45	0.9862407

blocks.2.conv1.bias f4 [16]
0	0xbdd1f632	-0.10252036
1	0xbd8cc059	-0.06872625
2	0x3e31f978	0.17380321
3	0x3e88f878	0.26752067
4	0xbe129f17	-0.143185
5	0xbd5b7d62	-0.05358637
6	0x3e42d5aa	0.19026819
7	0xbe01cb94	-0.12675315
8	0x3e0ff87a	0.1405963
9	0x3e2d71f3	0.16938
10	0x3dfa4ca7	0.122216515
11	0x3dd16372	0.10224046
12	0xbe86c37e	-0.26321024
13	0xbcea5f2c	-0.028609835
14	0x3e156169	0.1458794
15	0xbd4410a6	-0.04786744

blocks.2.conv1.weight f4 [16, 16, 1, 1, 1]
0	0x3e1c343a	0.15254298
1	0xbe519e3a	-0.20470515
2	0x3dd86900	0.10566902
3	0x3de3bfaa	0.111205414
4	0x3d4e6d9c	0.0503975
5	0x3d58504d	0.052810956
6	0x3c894d80	0.016760588
7	0x3dc359f9	0.09538645
8	0xbe48f2bf	-0.1962385
9	0x3b9e468d	0.0048301877
10	0x3d1e4271	0.038637582
11	0x3e839f26	0.25707358
12	0x3d83a465	0.0642784
13	0x3e1dc9f5	0.15409072
14	0xbdc44d7d	-0.09585092
15	0x3bcb267c	0.006199656
16	0x3e73be3a	0.23803034
17	0x3e4986f8	0.19680393
18	0xbc100e24	-0.008792434
19	0x3d98d7b6	0.074630186
20	0xbdaa7d99	-0.08324737
21	0x3de1c650	0.11024153
22	0xbbf48484	-0.007462086
23	0xbd99a3a2	-0.075019136
24	0xbc8eade6	-0.017416906
25	0xbd12d0b2	-0.03584356
26	0x3e830082	0.25586325
27	0x3d0c7aa6	0.034296654
28	0x3e4419f4	0.19150525
29	0xbe3bdfa5	-0.18347032
30	0x3ea40c0c	0.3204044
31	0xbe0b9c7a	-0.1363391
32	0x3d277d44	0.040890947
33	0x3e5fa170	0.21838927
34	0x3c360061	0.011108489
35	0xbdbb3913	-0.091417454
36	0xbe8bed4a	-0.27329475
37	0x3e160d04	0.14653403
38	0xbd07a6be	-0.033118002
39	0xbd828b2d	-0.06374202
40	0x3d6a5842	0.057213075
41	0xbe36401b	-0.17797892
42	0x3d873a81	0.066029556
43	0xbe12fafe	-0.14353558
44	0xbe33ea59	-0.17569865
45	0xbe1d8ed6	-0.15386519
46	0x3e3b6a59	0.18302287
47	0xbdc32319	-0.09528179
48	0xbdc48c9c	-0.095971316
49	0xbd977bc5	-0.07396654
50	0x3da780a3	0.081788324
51	0xbe325d68	-0.17418444
52	0x3de4a24b	0.111637674
53	0xbe01f8bd	-0.12692542
54	0xbe07a327	-0.13245831
55	0xbdbd03ae	-0.092292175
56	0xbca6b4a2	-0.020349804
57	0x3d524c1a	0.051342107
58	0x3ded82f5	0.11597244
59	0x3e9a36d6	0.30119962
60	0x3dbdb929	0.09263832
61	0x3de0881b	0.1096346
62	0x3de3c6dc	0.11121914
63	0x3d8a7fb1	0.067626365
64	0x3e968676	0.2939946
65	0x3dd7aaad	0.10530601
66	0x3e4a7346	0.19770536
67	0x3e3ef6c3	0.1864882
68	0xbe01f67d	-0.12691684
69	0xbe411533	-0.18855743
70	0xbe67e3a4	-0.22645432
71	0xbe2c9e28	-0.16857207
72	0x3e305a12	0.17221859
73	0xbda28cd9	-0.07937021
74	0xbe05a5bc	-0.13051504
75	0xbe51c100	-0.2048378
76	0xbbb8bfa1	-0.0056380783
77	0xbe80ca2a	-0.2515424
78	0xbe1f05a6	-0.15529498
79	0xbddf9ede	-0.109189734
80	0xbea4c424	-0.32180893
81	0x3e53d049	0.20684923
82	0x3d9a348a	0.07529552
83	0xbd890a61	-0.06691433
84	0xbdbb6a40	-0.09151125
85	0xbd025001	-0.03181458
86	0x3da17347	0.078833155
87	0x3e18d72c	0.14925832
88	0xbe0a624f	-0.13514064
89	0x3dfa34d8	0.122171104
90	0x3e23db1e	0.16001555
91	0x3bd67f13	0.00654591
92	0xbe7cb65e	-0.24678943
93	0x3d13fa18	0.03612718
94	0x3e9534f0	0.2914195
95	0xbbc7cf47	-0.0060977074
96	0xbde5cc6f	-0.11220633
97	0xbb101749	-0.0021986535
98	0xbe8016e0	-0.25017452
99	0xbd27931c	-0.04091178
100	0xbde1183f	-0.10990953
101	0x3e245c42	0.16050819
102	0x3df729e0	0.12068534
103	0xbb997f02	-0.00468433
104	0x3e8a7720	0.2704401
105	0xbe22fc9c	-0.15916675
106	0xbd88553f	-0.066568844
107	0x3c0396ee	0.00803159
108	0x3e25ec36	0.16203389
109	0xbd7929a4	-0.060830727
110	0xbd446dc7	-0.047956254
111	0xbe24deb2	-0.16100577
112	0xbd441e80	-0.04788065
113	0x3e746919	0.23868217
114	0x3e11ceff	0.14239119
115	0x3e235145	0.1594897
116	0x3e37bcf4	0.17943174
117	0x3dba2189	0.090884276
118	0xbcde1833	-0.027111148
119	0x3d920f05	0.07131771
120	0xbe70b84c	-0.23507804
121	0xbe138b9a	-0.14408723
122	0x3d92f5f6	0.071758196
123	0xbe0bdd12	-0.1365855
124	0x3df8bcc4	0.12145379
125	0x3e49828a	0.19678703
126	0x3ddef4a1	0.10886503
127	0xbd8ef6b4	-0.06980649
128	0x3cb6a571	0.022295685
129	0xbdfcb46e	-0.12339102
130	0xbd82b859	-0.06382818
131	0x3c8bfbc9	0.017087834
132	0xbd05a194	-0.032624796
133	0x3e073fdf	0.13207959
134	0x3e1187c0	0.14211941
135	0x3d5007c3	0.050788652
136	0x3dd8abac	0.10579619
137	0x3e3f5aa1	0.18686916
138	0xbdc1ce3d	-0.09463165
139	0x3e266e1f	0.16252945
140	0x3e2c1168	0.16803515
141	0x3e6351d9	0.22199191
142	0xbdd6c995	-0.104876675
143	0xbdb85d6c	-0.09002194
144	0xbe955ec7	-0.29173872
145	0x3da52d40	0.080652714
146	0x3e6b74c8	0.22993767
147	0x3dbfde51	0.09368575
148	0x3d675d2b	0.056485336
149	0x3c9b814c	0.018982552
150	0xbe207794	-0.15670615
151	0x3d9d3ccf	0.07677614
152	0x3df22ce7	0.11824971
153	0x3d1eb734	0.038748935
154	0x3c2f91e3	0.010715934
155	0xbd9a9dec	-0.075496525
156	0xbd67357c	-0.05644749
157	0xbe7af26b	-0.24506538
158	0xbebdbe84	-0.37059414
159	0x3e036e7b	0.12835114
160	0xbd842b76	-0.06453602
161	0xbe5e0ae7	-0.21683846
162	0xbbb128a3	-0.0054064556
163	0x3c9ad8ad	0.018902147
164	0x3d60eea0	0.05491507
165	0xbdf65af6	-0.12029068
166	0x3db1b1ef	0.08676516
167	0xbd5b2617	-0.053503122
168	0xbe39c441	-0.18141271
169	0xbdd1afe0	-0.102386236
170	0xbc58e463	-0.013238045
171	0x3dd3de62	0.103451505
172	0xbe3d4b6b	-0.18485801
173	0x3dbbc731	0.09168852
174	0x3e56a0f9	0.20959844
175	0x3e489cab	0.19591014
176	0xbcd5932c	-0.026071154
177	0xbdae6dd1	-0.085170396
178	0xbe2b2770	-0.16714263
179	0xbd13379d	-0.03594171
180	0x3de85644	0.11344579
181	0x3e377b33	0.1791809
182	0xbd75d681	-0.06001902
183	0xbe674ba9	-0.22587456
184	0xbcb83b71	-0.022489281
185	0xbdb3ff4d	-0.08788929
186	0xbe0a1f89	-0.13488592
187	0xbe92c3fd	-0.28665152
188	0x3d2a2503	0.041539203
189	0xbbca4efd	-0.006173967
190	0x3abc38a0	0.0014360137
191	0xbc8a8784	-0.016910322
192	0xbca5b284	-0.020226724
193	0x3da06fcf	0.07833826
194	0x3e8273e2	0.25479037
195	0x3d154c9e	0.03645002
196	0xbe815c0f	-0.25265548
197	0xbe0ebda6	-0.13939533
198	0xbdb8bd20	-0.09020448
199	0x3cb87454	0.022516407
200	0x3e207fc7	0.15673743
201	0x3e49e8ee	0.19717762
202	0x3e088e6a	0.13335577
203	0xbe2e9c12	-0.17051724
204	0xbe71d1cf	-0.23615192
205	0xbe4424ab	-0.19154613
206	0xbd4ea20d	-0.050447512
207	0x3df6f2a9	0.120580025
208	0xbe03f2d6	-0.12885603
209	0x3d5b1f43	0.05349661
210	0xbe2fa716	-0.17153582
211	0xbc3f02c0	-0.0116583705
212	0x3e5cd149	0.21564211
213	0x3e03e6ae	0.12880966
214	0xbdf05aba	-0.11736055
215	0xbcfb3dbc	-0.030669086
216	0xbe09c2f2	-0.13453272
217	0xbdb48413	-0.08814254
218	0x3d3a2aa6	0.04545083
219	0x3c0881c6	0.008331722
220	0x3e2dec8a	0.16984764
221	0xbe2e02c0	-0.16993237
222	0x3d03d07c	0.032181248
223	0x3d17da22	0.037073262
224	0x3e015028	0.12628233
225	0xbe72a089	-0.23694052
226	0x3e20cd66	0.15703353
227	0x3e0cb0e9	0.13739361
228	0xbe7205fd	-0.23635097
229	0x3e5dae34	0.21648484
230	0x3db9248d	0.09040175
231	0xbc0c5b5f	-0.008566706
232	0x3acde8a8	0.0015709596
233	0xbe7cc898	-0.24685895
234	0xbe354947	-0.17703734
235	0x3e675a79	0.22593106
236	0xbd9dfec5	-0.07714609
237	0x3d59784e	0.053093247
238	0xbe1ea06f	-0.15490888
239	0xbe1ea9b6	-0.15494427
240	0xbe87a001	-0.2648926
241	0x3d16e96f	0.036843713
242	0x3c37bf8d	0.011215103
243	0x3e9623f3	0.29324302
244	0x3e0c273e	0.13686845
245	0xbc86ad49	-0.01644005
246	0x3e80e2d3	0.25173053
247	0xbd8cddde	-0.06878255
248	0xbe0a2323	-0.13489966
249	0x3cb4e222	0.022080485
250	0xbe1ab16e	-0.15106747
251	0x3de34266	0.11096649
252	0xbc9f161d	-0.019419724
253	0xbcd47fbd	-0.025939817
254	0x3e6cb6fa	0.23116675
255	0xbd3a1ccb	-0.045437615

blocks.2.conv2.bias f4 [16]
0	0xbdffd29a	-0.12491341
1	0x3e5614da	0.20906392
2	0x3e238cab	0.1597163
3	0x3e0030da	0.12518635
4	0xbc0af879	-0.008482092
5	0x3dad30aa	0.084565476
6	0x3d9d1184	0.076693565
7	0xbe29ebc5	-0.16593845
8	0xbe1411fe	-0.14459988
9	0x3e23f8e2	0.1601291
10	0xbe52013c	-0.20508283
11	0xbe3fd83d	-0.18734832
12	0x3c91c96a	0.017796237
13	0x3dc9963e	0.098431095
14	0x3d9f1ed8	0.07769555
15	0xbd2e0d63	-0.042493235

blocks.2.conv2.weight f4 [16, 16, 1, 1, 1]
0	0x3c903ace	0.017606165
1	0x3dd88434	0.10572091
2	0xbe6e2c82	-0.23259166
3	0x3d38ef5b	0.045150142
4	0xbe565f87	-0.20934878
5	0xbe91c210	-0.2846837
6	0x3cd086ea	0.025454957
7	0x3cf64f25	0.030067036
8	0xbb43e095	-0.00298885
9	0xbe50dcca	-0.20396724
10	0x3e235636	0.15950856
11	0xbe3be8d2	-0.18350533
12	0xbe393fb9	-0.18090715
13	0xbcf48ca3	-0.029852217
14	0xbdc9483d	-0.098282315
15	0x3d712ee7	0.05888262
16	0xbe4221df	-0.18958233
17	0xbe5fe942	-0.21866325
18	0x3e25f316	0.16206011
19	0x3e5568f0	0.20840812
20	0xbe76ff56	-0.2412084
21	0x3d389b76	0.045070134
22	0x3e36d12d	0.17853232
23	0xbe41e4c0	-0.18934917
24	0xbd9f4f34	-0.07778779
25	0x3e673493	0.22578649
26	0xbe0111f3	-0.12604503
27	0x3e6c5de7	0.23082696
28	0x3e973a92	0.29536873
29	0x3dfb725c	0.12277672
30	0xbd8c5df2	-0.06853856
31	0x3db428c7	0.0879684
32	0x3dff6784	0.12470916
33	0xbdfc2984	-0.12312606
34	0x3e4491bc	0.19196218
35	0x3df9bb8f	0.12193977
36	0x3e5f9455	0.21833928
37	0x3e6ccd01	0.23125078
38	0xbe289431	-0.1646278
39	0x3e60cc32	0.21952894
40	0xbe0b6316	-0.13612017
41	0xbd3e4822	-0.04645551
42	0x3d4c8c00	0.049938202
43	0x3d284372	0.041079946
44	0xbe1547f5	-0.1457823
45	0x3dfb01f6	0.122562334
46	0x3d834729	0.06410057
47	0xbc3d64bd	-0.011559662
48	0x3e8aced4	0.27110922
49	0xbe59d820	-0.21273851
50	0xbc47891f	-0.012178688
51	0x3e012f54	0.1261571
52	0x3e80ab01	0.25130466
53	0x3dfa767a	0.12229629
54	0x3c7df594	0.015500445
55	0x3e035848	0.12826645
56	0x3e073bcd	0.13206406
57	0xbe056bf9	-0.1302947
58	0xbd820c64	-0.063500196
59	0xbe67a172	-0.2262018
60	0xbdbdaa85	-0.0926104
61	0xbe7e13bf	-0.2481222
62	0xbdc641c8	-0.096805155
63	0x3d95f551	0.07322181
64	0xbd991360	-0.074743986
65	0x3e4314c0	0.19050884
66	0xbe0c9ba2	-0.13731244
67	0x3e21a415	0.15785249
68	0xbd60b297	-0.054857817
69	0xbd63b961	-0.055596713
70	0xbe125d05	-0.14293297
71	0xbe172a6b	-0.14762275
72	0x3e57090e	0.20999548
73	0x3de3c416	0.11121385
74	0x3d5280c0	0.051392317
75	0x3d9c0f25	0.07620076
76	0xbe1d3737	-0.15353094
77	0x3e382126	0.17981395
78	0x3d82a921	0.06379915
79	0xbe03fb38	-0.12888801
80	0xbc99122f	-0.018685428
81	0x3d3f835f	0.046756145
82	0xbe471946	-0.19443235
83	0x3da8d7ec	0.08244309
84	0xbe3949cf	-0.18094562
85	0x3cc10028	0.023559645
86	0x3d50a11a	0.05093489
87	0xbcf998f7	-0.030468447
88	0xbdb79034	-0.089630514
89	0x3de1e9fd	0.11030958
90	0xbd8cef05	-0.06881527
91	0xbe6c1efa	-0.23058692
92	0xbe8656cb	-0.26238093
93	0x3e806686	0.2507822
94	0x3d1b2eeb	0.03788654
95	0xbe014a29	-0.12625946
96	0xbe5932ae	-0.21210739
97	0xbda6e8fc	-0.08149907
98	0xbea1ba6c	-0.3158754
99	0x3e5e6b85	0.21720703
100	0xbd26cb18	-0.04072103
101	0x3e0fc6ba	0.14040652
102	0xbcf9e332	-0.030503843
103	0x3ccf02e1	0.025269927
104	0xbd52dd97	-0.051480856
105	0x3dfb2010	0.12261975
106	0x3ca0f026	0.019645762
107	0x3e6ce1ba	0.23132983
108	0xbe11764c	-0.14205283
109	0x3e9447fa	0.28961164
110	0xbd377bab	-0.044795673
111	0x3de6b7bd	0.11265514
112	0xbe4448be	-0.19168374
113	0xbd848dc2	-0.06472351
114	0x3da53b0d	0.08067904
115	0xbe1c07ac	-0.15237302
116	0xbd58af0d	-0.052901316
117	0x3d94f6b7	0.072736196
118	0xbd433461	-0.047657374
119	0xbe19eea1	-0.15032436
120	0xbd920617	-0.07130068
121	0xbdc47b4f	-0.09593832
122	0x3e19ead5	0.15030988
123	0xbdf0ad0b	-0.11751755
124	0x3dcbda55	0.09953753
125	0x3e3efe8a	0.18651786
126	0x3e62ddec	0.22154969
127	0x3e006a6d	0.12540598
128	0xbde99a3d	-0.11406372
129	0xbd0d0fcc	-0.034438893
130	0x3cea3c6c	0.028593265
131	0xbdcaafbc	-0.098968
132	0x3e230187	0.15918551
133	0x3d6d30f3	0.05790801
134	0xbd40fdcd	-0.047117043
135	0x3dca05f3	0.09864416
136	0x3e710811	0.23538233
137	0x3d996670	0.074902415
138	0xbe426171	-0.18982483
139	0x3e2d17e3	0.16903643
140	0x3d96a766	0.073561475
141	0x3e354cec	0.17705125
142	0xbc39194e	-0.011297537
143	0x3dc0cc55	0.09413973
144	0x3cf9c3e5	0.030488918
145	0xbcee114b	-0.02906098
146	0x3cb7f8f6	0.022457581
147	0xbe23fe49	-0.16014971
148	0xbdbb9cc2	-0.091607586
149	0x3e313852	0.1730664
150	0x3d51613f	0.05111813
151	0xbe4d6196	-0.20056757
152	0xbdc861fa	-0.097843125
153	0xbd13f57c	-0.036122784
154	0x3e95097a	0.29108793
155	0x3d2719e2	0.04079617
156	0x3e07eedf	0.13274716
157	0x3e25b258	0.16181314
158	0x3e890be5	0.26766887
159	0xba23cf8b	-0.0006248883
160	0x3e2f27a3	0.17104964
161	0xbe7081bf	-0.23486994
162	0x3dab615f	0.083681814
163	0xbe68c33e	-0.22730729
164	0x3de90ac8	0.113790095
165	0x3c94c165	0.018158624
166	0xbddb3c87	-0.10704904
167	0xbe5406e6	-0.20705757
168	0x3d00966a	0.031393446
169	0x3eaba3e2	0.3352347
170	0xbdaf0c89	-0.08547313
171	0xbb221977	-0.0024734417
172	0x3e16764b	0.14693563
173	0x3c7055ad	0.014668864
174	0xbe183a11	-0.148659
175	0xbcb22954	-0.021748222
176	0x3e00a682	0.12563518
177	0xbd833b0c	-0.06407747
178	0xbdb66b55	-0.08907191
179	0xbc09b6d1	-0.008405403
180	0xbe0eb347	-0.13935576
181	0xbdf10589	-0.11768634
182	0xbe2c2da1	-0.16814281
183	0x3d695425	0.056965012
184	0xbe5b1ed6	-0.21398482
185	0x3e182e73	0.14861469
186	0x3ca0df5a	0.019637752
187	0xbe28b9ad	-0.1647708
188	0xbe3aff9e	-0.18261573
189	0xbdb0edf8	-0.08639139
190	0x3dadd00a	0.08486946
191	0x3da2dc64	0.079521924
192	0x3d42238a	0.047397174
193	0x3bb52859	0.0055284915
194	0xbd630323	-0.055422913
195	0x3db67ec2	0.08910896
196	0xbc97d5aa	-0.0185345
197	0xbdf9e8ab	-0.12202581
198	0x3dd93190	0.106051564
199	0x3cdf965c	0.027293377
200	0xbe13c325	-0.1442991
201	0x3dd07449	0.1017843
202	0xbe89e0d3	-0.2692934
203	0x3d84a8ad	0.06477485
204	0xbdcfbd38	-0.101435125
205	0x3ddad3ab	0.10684904
206	0x3d16147a	0.03664062
207	0xbd7f3d84	-0.062314525
208	0xbe543e4d	-0.20726891
209	0x3e1cea66	0.15323791
210	0xbbf303fa	-0.0074162455
211	0xbdad3047	-0.08456474
212	0x3c0a3608	0.008435734
213	0x3e3581c0	0.17725277
214	0x3e3df386	0.18549928
215	0xbccddd85	-0.025130043
216	0xbd22c7f6	-0.03974148
217	0xbdda9dc7	-0.10674625
218	0x3e009c07	0.1255952
219	0xbe8690b7	-0.26282284
220	0x3d596fdc	0.053085193
221	0x3dba2028	0.090881646
222	0xbe49cf93	-0.1970809
223	0x3e8b4be7	0.27206346
224	0xbe7ea5fd	-0.24868007
225	0x3e2c87e3	0.16848712
226	0x3e11cbe3	0.14237933
227	0xbe293cb9	-0.1652707
228	0x3db97992	0.09056391
229	0x3d9b779a	0.075911716
230	0x3e81afa3	0.25329313
231	0xbe16c689	-0.14724173
232	0xbe709b99	-0.23496856
233	0xbe53a95a	-0.20670071
234	0x3e0baaef	0.13639425
235	0xbb2be4b8	-0.0026228856
236	0x3da4711e	0.08029388
237	0x3d8c77f9	0.068588205
238	0x3d665db8	0.05624172
239	0x3e16c1c9	0.1472236
240	0xbe42b3be	-0.19013879
241	0x3e5059b5	0.2034672
242	0xbb8ecf54	-0.0043582115
243	0x3d556e30	0.052107036
244	0x3ead6c9a	0.3387192
245	0x3d48e38b	0.049045127
246	0x3e47cacd	0.19510956
247	0x3dbce175	0.0922269
248	0x3e1c3fc0	0.15258694
249	0xbe45d882	-0.19320872
250	0xbdbdcfa8	-0.09268123
251	0xbe447cca	-0.19188228
252	0x3e24ccf6	0.16093811
253	0xbddde754	-0.10835138
254	0xbe21b981	-0.1579342
255	0x3e035b58	0.12827814

blocks.2.norm1.bias f4 [16]
0	0xbca40f25	-0.020026753
1	0x3d638845	0.05554988
2	0x3df0142b	0.11722597
3	0xbdc7104f	-0.097199075
4	0x3d89bd9e	0.0672562
5	0xbd4ae56b	-0.049535196
6	0x3de4738c	0.11154851
7	0x3dba6064	0.09100416
8	0x3c5675df	0.013089626
9	0xbce42316	-0.027848762
10	0x3daf6340	0.08563852
11	0x3d729ab9	0.059229586
12	0x3d80eb72	0.06294908
13	0x3d258679	0.040411446
14	0x3e96cacd	0.294516
15	0x3ddcc691	0.10780061

blocks.2.norm1.weight f4 [16]
0	0x3f6ffb35	0.93742687
1	0x3f63dd79	0.89009815
2	0x3f9abc08	1.2088633
3	0x3f6c4001	0.9228516
4	0x3f773f99	0.9658142
5	0x3f6bda63	0.92130107
6	0x3f5c243c	0.8599279
7	0x3f85cead	1.0453697
8	0x3f44609f	0.7670993
9	0x3f7880f5	0.9707177
10	0x3f583e37	0.8446993
11	0x3f83a643	1.0285114
12	0x3f70d40c	0.9407356
13	0x3f8226f0	1.0168133
14	0x3f318f08	0.69358873
15	0x3f857284	1.0425572

blocks.2.norm2.bias f4 [16]
0	0xbdcc98ce	-0.09990083
1	0x3d0fa203	0.035066616
2	0xbcd0db12	-0.025495086
3	0x3d486506	0.04892447
4	0xbd59b175	-0.05314775
5	0x3c959861	0.018261136
6	0x3c9dc7c0	0.019260287
7	0x3cf6625e	0.030076202
8	0xbd19235f	-0.037387248
9	0xbd2e98c5	-0.04262616
10	0x3e0eabd1	0.1393273
11	0xbce088bf	-0.027408956
12	0x3c5ebd02	0.013594868
13	0x3db07980	0.08616924
14	0x3cdc87da	0.026920248
15	0x3da0cdea	0.07851775

blocks.2.norm2.weight f4 [16]
0	0x3f4bc59b	0.79598397
1	0x3f729046	0.94751394
2	0x3f78604d	0.97021943
3	0x3f781592	0.96907914
4	0x3f771097	0.9650969
5	0x3f7bbeca	0.98337996
6	0x3f8090c6	1.0044181
7	0x3f7a3377	0.9773478
8	0x3f7193d8	0.94366217
9	0x3f741125	0.9533866
10	0x3f73e264	0.9526732
11	0x3f70da14	0.9408276
12	0x3f81ccc4	1.0140615
13	0x3f859054	1.043467
14	0x3f721d48	0.9457593
15	0x3f72c3d9	0.9483009

in_proj.bias f4 [16]
0	0x3d984320	0.07434678
1	0x3ddc33e3	0.10752084
2	0x3df39cfe	0.11895178
3	0xbb99585f	-0.004679724
4	0x3e973654	0.29533637
5	0xbd2b214c	-0.0417798
6	0xbdee45b8	-0.116343915
7	0xbd0cd610	-0.034383833
8	0xbd85e669	-0.06538088
9	0xbc7ffccf	-0.015624239
10	0xbe2f16d0	-0.17098546
11	0x3e56c99e	0.20975348
12	0x3e242f31	0.16033627
13	0xbcc6ff2f	-0.024291603
14	0xbdb4a899	-0.0882122
15	0xbe3c5497	-0.18391643
