adapter_kvae3d_to_hunyuan.safetensors (safetensors, 11736 bytes, 28 tensors)

blocks.0.conv1.bias f4 [16]
000000 6f 8d 78 3c 43 7d d3 3d 89 92 25 3d df bb 8c 3e
       0.015170439 0.10326626 0.04042295 0.27487084
000010 83 0d 80 be bb d8 7b bd 07 0b 2d be 67 84 08 be
       -0.2501031 -0.061485987 -0.16898738 -0.13331757
000020 16 22 93 bd 62 6a 0c 3e 9e 97 4a be c3 2b e1 bc
       -0.07184236 0.13712457 -0.197844 -0.027486688
000030 0f 68 0a 3e e9 33 2d 3e 4b 57 09 3e aa a8 59 bd
       0.13516258 0.16914333 0.13412206 -0.053139366

blocks.0.conv1.weight f4 [16, 16, 1, 1, 1]
000000 5a 3c f2 3d ac 9d b9 bd fd 83 ce 3d f3 91 56 be
       0.118279174 -0.09063277 0.100837685 -0.20954113
000010 06 0e dc 3d 6e df 39 be 48 b5 3e bc 18 a9 1b 3d
       0.10744862 -0.18151638 -0.0116399005 0.038003057
000020 64 bd bb be 32 d4 96 3d fb b6 70 bc 13 12 bd be
       -0.3666793 0.07364692 -0.014692063 -0.36927852
000030 f2 3a 59 be 73 99 8a be 9f a8 c8 3d 1c 7e 6a bd
       -0.21213892 -0.27070197 0.09797787 -0.057249174
000040 73 81 23 bd de 8d 38 3e 02 82 cc 3d b2 79 ed bd
       -0.039918374 0.18022868 0.099857345 -0.11595477
000050 95 ad e4 bb 69 a2 0a 3e 79 16 82 3e a5 8e b3 be
       -0.0069787004 0.13538517 0.2540777 -0.35069767
000060 fc db 6a 3d 8c 32 ef 3d 4a 75 d3 3d c8 7b e2 3d
       0.0573387 0.11679563 0.103251055 0.11058766
000070 5b 37 00 be 7e 3e ef bc aa 8b 63 3d 10 6a b7 3d
       -0.12521116 -0.029204603 0.055553116 0.08955777
000080 31 df 82 3e 83 d0 c7 bd 9f b5 3a 3d 7a 15 e6 bd
       0.25560907 -0.09756567 0.045583364 -0.11234565
000090 50 cd a2 3d 7b a7 93 bd ef 85 9f 3d 6b 12 0f be
       0.079493165 -0.07209679 0.07789218 -0.1397187
0000a0 aa 92 5d bd be cf b6 bd 82 0e 8b bd 17 38 df bc
       -0.054094948 -0.089263424 -0.067898765 -0.027248425
0000b0 c9 be ef bd 5b 4e 66 3c b4 f9 07 3e 4c 95 a9 be
       -0.11706311 0.014056767 0.13278848 -0.33121717
0000c0 a0 83 ad be 53 23 50 be d6 3f 82 be b4 fd e2 bd
       -0.33889484 -0.20325975 -0.25439328 -0.11083546
0000d0 c6 a8 ff bc 84 bd 09 bd 3b b6 3d bd 78 3f 9f bc
       -0.031208407 -0.033628 -0.046316367 -0.019439444
0000e0 3e 81 13 be c8 eb fc 3b be 6c 27 bd 44 12 1d 3e
       -0.1440477 0.007718537 -0.04087519 0.15338999
0000f0 d1 69 bc bc 76 2b d3 bb 4e d3 91 be 42 63 f9 3d
       -0.022999676 -0.00644439 -0.28481525 0.12177135
000100 c8 51 0a bd 81 4a 45 3e 55 24 b7 3d 91 ce d1 3d
       -0.0337694 0.19266702 0.08942477 0.102444775
000110 79 c5 cb 3d cf 3d 88 3d 21 fb 75 3e e5 2e 5b be
       0.09949774 0.06652414 0.2402158 -0.21404608
000120 c9 f4 92 3d 43 bd 15 3e fc 5e 9b 3b 3e a9 32 3e
       0.07175595 0.14622979 0.0047415476 0.17447373
000130 a6 f7 a5 3b 96 02 39 bd 59 eb b7 3d 57 e6 3e be
       0.0050649224 -0.04516848 0.08980436 -0.18642555
000140 98 8b 11 3d 7f 8d f0 bd e7 2c 97 3d 5f 0a 04 3e
       0.035533518 -0.11745738 0.07381611 0.12894581
000150 b8 bf 00 be 4e 2a 38 3b 54 ea 58 bd 05 cb 27 3e
       -0.12573135 0.0028101387 -0.052957848 0.1638604
000160 cc 9c c1 bd c7 a9 16 3e 6d 13 46 3d fb bd 15 3e
       -0.09453735 0.14713202 0.04835837 0.14623253
000170 89 66 fe 3c cf a2 b6 bd 40 a9 5f bd 66 84 fb bd
       0.031054752 -0.08917772 -0.05460477 -0.122811124
000180 8c ac 29 3d da f6 c2 bb ad 13 83 be 41 69 23 be
       0.04142432 -0.005949837 -0.2560095 -0.1595812
000190 5d f8 63 3e db 53 a0 be 82 04 ba 3c 03 52 75 bd
       0.22262712 -0.31313977 0.022707228 -0.059892666
0001a0 b0 5f 9d be dc 01 06 3d 4e 48 13 be 62 2c 0e 3e
       -0.30737066 0.032716617 -0.14383051 0.13884118
0001b0 8a 43 95 3d 59 12 af bd 20 5d 8d bc dc 9b b2 bc
       0.07288273 -0.085484214 -0.01725632 -0.021802835
0001c0 9f c0 88 be 33 2b 8a 3e dd 0f ee bd b8 50 95 3d
       -0.26709458 0.26986083 -0.116241194 0.072907865
0001d0 17 5f 2e 3d f1 9d c1 3d cf 34 73 be 4f 99 56 be
       0.042571153 0.09453953 -0.23750614 -0.2095692
0001e0 1b 02 2b be 5c de 30 be 3f 96 6c bd c2 d6 4d 3e
       -0.16700022 -0.17272323 -0.057760473 0.20101455
0001f0 f9 1b cb bc 2c a5 bf bd c0 18 3c be 83 4e 94 bd
       -0.024793612 -0.09357676 -0.18368816 -0.072415374
000200 3f a9 13 3e 7b be 57 bd 00 01 2a bd 6c 14 2f 3e
       0.14420031 -0.05267189 -0.04150486 0.17097634
000210 25 d8 89 bd 68 b2 be bd cd 02 8a bd cb 55 f3 3d
       -0.067306794 -0.09311372 -0.067388155 0.11881598
000220 60 71 8a bd 8d 43 97 3d 8f 9d da 3d dd f4 31 3e
       -0.06759906 0.07385931 0.10674583 0.17378564
000230 8e 85 f1 bd 2a ba 2b be b1 dc 8c 3c 56 ec 30 3d
       -0.11793052 -0.16770235 0.017195078 0.043194138
000240 a9 8c 77 3d 07 be b0 3d 16 35 b6 bd 41 13 e1 bd
       0.06043688 0.08629995 -0.08896844 -0.109900005
000250 66 2a 7a 3e 19 7a f6 bd 92 91 56 3e 59 6f 88 be
       0.24430236 -0.12035007 0.20953968 -0.26647452
000260 f7 c3 be be b2 e4 7b 3d e0 e0 37 bc 1e 27 42 3d
       -0.37258884 0.061497398 -0.011223048 0.047400586
000270 5a 1d aa be 72 f6 8c 3c 22 cd 54 bd 16 c7 c2 bd
       -0.33225518 0.017207358 -0.051953442 -0.09510629
000280 b4 15 0d 3e 8e 5a f4 b9 34 17 1a be 6c a2 f4 3d
       0.1377781 -0.00046606775 -0.15047914 0.11945042
000290 df 16 3f be 26 e7 af bd 08 40 4d be 43 f2 52 be
       -0.18661068 -0.0858901 -0.20043957 -0.20600228
0002a0 19 f6 84 3e 8e 59 64 be 2c ca 5f be 10 e7 4b 3e
       0.25969008 -0.22299787 -0.21854466 0.19912362
0002b0 9f 78 6f 3d c7 fc 10 3e 0b 84 7f 3e f4 3d c2 bd
       0.058464643 0.14158927 0.24952714 -0.09484473
0002c0 5c ab 07 bd 1e 86 0e be 88 56 94 3e 95 6b 91 be
       -0.033122405 -0.13918349 0.28972268 -0.2840239
0002d0 0c 80 20 be a6 e1 7d be 40 bc 11 3d 3c f3 b7 bd
       -0.15673846 -0.2479311 0.03557992 -0.0898194
0002e0 78 c2 0b 3e dc 51 37 be 55 ef 91 3e 0b 51 ba bd
       0.13648403 -0.1790232 0.28502908 -0.09097489
0002f0 f3 ff 23 be 70 40 bf 3d e3 cd a2 3d 03 6b 98 bd
       -0.16015606 0.09338462 0.07949426 -0.07442286
000300 19 d6 13 3e 9e 69 0d 3e 48 84 4a 3d a8 88 32 3c
       0.1443714 0.13809821 0.04944256 0.010896839
000310 e8 f9 2e 3e 35 33 61 be b7 87 8f 3e 60 46 39 3d
       0.17087519 -0.2199219 0.2803323 0.04523313
000320 de 55 e0 3d 07 58 33 be 89 b9 4c be b6 41 52 3e
       0.10953878 -0.17514049 -0.19992651 0.20532879
000330 30 fd 55 be 02 21 20 3e 82 12 d8 3d 94 d4 31 be
       -0.20897365 0.15637591 0.10550405 -0.17366248
000340 10 f3 26 3d b2 ae 01 be 97 d3 5f 3d 19 98 c9 3d
       0.040759146 -0.12664297 0.054645147 0.098434635
000350 42 93 11 be 45 ba f6 3d ba 83 a1 3d 3e 14 7f 3e
       -0.1421633 0.12047247 0.07886453 0.24910066
000360 09 ca 94 3d e1 cf cf bd fd b7 05 3e 06 fc e9 3c
       0.07265098 -0.10147072 0.13058467 0.028562557
000370 ef 85 b0 bd b1 ae 02 3e d6 b4 54 bd eb 6b 46 bc
       -0.08619296 0.12761952 -0.05193027 -0.012110691
000380 78 a4 4b bd 7a 8b 40 3e 87 4c 79 3d 02 83 02 3e
       -0.049717396 0.18803206 0.060863998 0.12745288
000390 3c 37 0d be 83 b7 41 3e 30 3c 03 3e 77 0c 5d 3b
       -0.13790601 0.1891766 0.12815928 0.0033729353
0003a0 5a d7 32 be fd 42 f9 3c e6 3c 16 3e 3f 1b 84 3e
       -0.17464963 0.03042745 0.14671668 0.25802037
0003b0 a8 d4 01 be 81 80 79 be 20 1b 2e 3e 9b c7 37 bd
       -0.12678778 -0.24365427 0.17002535 -0.044868093
0003c0 96 3b 8b 3c 08 8e 86 3b ac ff 0b be fa fa 08 3e
       0.016996186 0.004106287 -0.1367175 0.1337699
0003d0 f4 3f db 3e 6f 87 3b be d3 12 9e bd 64 c8 83 3d
       0.4282223 -0.18313383 -0.07718434 0.06434706
0003e0 31 e9 4b 3c a2 1e 8a be 5b 6d 96 be 61 5e 23 be
       0.012445734 -0.26976496 -0.29380307 -0.15953971
0003f0 71 13 2f bd 63 bd c9 bc 0a 58 21 be f1 72 d8 3c
       -0.04274315 -0.02462644 -0.1575624 0.026421996

blocks.0.conv2.bias f4 [16]
000000 78 ea 28 3e 4b 6b 1b be 77 6a 9e bb 5d 9a 33 be
       0.16495693 -0.15177648 -0.004834469 -0.17539354
000010 0c d8 38 3e 20 9e 39 3e 90 3a f9 bc 83 47 ca 3d
       0.18051165 0.18126726 -0.030423433 0.09876921
000020 91 67 77 bd bd f6 08 be a7 9c 1d be a6 4a 93 bd
       -0.060401503 -0.13375373 -0.1539179 -0.071919724
000030 70 e5 a1 3b 22 7a 8a be ca df 4a 3e 51 7c e1 3c
       0.004940681 -0.27046305 0.19811931 0.027525099

blocks.0.conv2.weight f4 [16, 16, 1, 1, 1]
000000 51 54 38 3e 27 a2 83 3e c6 ec 63 be 0d ad 95 3e
       0.18000914 0.2570965 -0.2225829 0.2923359
000010 85 3b 53 3e 33 34 15 3e d9 85 35 be 68 0d 04 3d
       0.20628174 0.14570694 -0.1772684 0.032239348
000020 ef 0f 21 3e 78 3b db bd 00 52 70 3d 52 98 cc be
       0.15728734 -0.10704702 0.05867195 -0.3995996
000030 06 71 3c be 6e 10 19 be a1 9d be 3d 31 68 a5 bd
       -0.1840249 -0.14947674 0.09307409 -0.080765136
000040 cc b0 50 3d 1d de a8 3e 49 9d 09 be aa 50 50 3d
       0.050949857 0.3298196 -0.13438906 0.050858177
000050 2c fe 96 3d 25 ce 9a bd be 96 80 be 4e aa e6 bd
       0.07372698 -0.0755885 -0.25115007 -0.11262952
000060 4e b5 b4 3c 77 fc f5 bd ad b8 6d 3e cf 22 11 3e
       0.022059109 -0.120110445 0.2321498 0.14173435
000070 1d cc fc bd e6 9a 26 3e c4 39 53 3c b5 70 b2 be
       -0.12343619 0.16270027 0.01289219 -0.34851614
000080 fa d3 96 3c 74 18 a0 be 70 3d 9a 3e 9e 07 84 be
       0.018411625 -0.31268656 0.30124998 -0.2578706
000090 25 ba c5 be ea 7c 0a be fe ae bc 3e 9b 6d 63 be
       -0.3861858 -0.13524213 0.36852258 -0.2220978
0000a0 5c f0 a4 3d 95 16 53 bd ab fb b9 be ca f7 2d 3e
       0.080536574 -0.051535208 -0.3632482 0.16989055
0000b0 8e 26 d7 bc 7c cb e0 bd e0 e7 c9 3d 33 ee 0c bd
       -0.026263501 -0.109763116 0.0985868 -0.034406852
0000c0 86 66 96 be f7 d6 83 3e 31 f9 9c 3d 23 15 4d 3e
       -0.29375094 0.25749943 0.07664717 0.20027594
0000d0 05 ef ac bd c8 72 e6 bd 3d ea 00 be 2b cc b9 3e
       -0.08444027 -0.112523615 -0.12589355 0.3628858
0000e0 e4 df 5b 3e ac 03 03 be 29 5a f2 3d e0 9b 2d 3e
       0.21472126 -0.1279437 0.11833603 0.16953993
0000f0 d4 09 19 be b3 9a 05 3d d5 9b c7 bb a0 fd 18 3d
       -0.14945155 0.032618236 -0.0060915747 0.03735125
000100 cb e3 57 3e 87 4a 61 3e 30 d5 2b 3d d1 f6 9e 3d
       0.2108299 0.22001086 0.04195136 0.0776192
000110 3a 6b 29 3a bf dd 8a 3e 1b ad f7 3c 69 54 75 3e
       0.00064628164 0.27122304 0.03023391 0.23957981
000120 7b 99 78 3e d7 71 b5 be 95 4d 14 3e 43 ea 50 be
       0.24277298 -0.35438415 0.1448272 -0.20401864
000130 48 07 9c bd 09 02 65 bd 05 5a 7a 3c 8d 3a 11 be
       -0.07618576 -0.055910144 0.015280251 -0.14182492
000140 71 4b 34 3d 3f 85 ae be 67 32 6e bc c8 1e 45 3e
       0.04401726 -0.34086034 -0.014538384 0.19250023
000150 67 fa 20 3e 7c c2 f4 bd fe f5 07 3c 36 a3 5a 3e
       0.15720521 -0.119511575 0.008298395 0.21351323
000160 89 da 92 3e 24 72 9e be c4 dc 73 3e 09 f0 26 3e
       0.28682354 -0.30946457 0.23814684 0.16302504
000170 17 47 11 be d8 6a a6 3e 5e 6f 69 3e e7 82 5b be
       -0.14187275 0.3250339 0.2279639 -0.21436654
000180 01 40 c5 3c 1b 49 2d 3e 5c 27 8a bd 62 8c 61 3d
       0.024078371 0.16922419 -0.067457885 0.05506552
000190 f7 ac 98 3e bb 2e d7 be ef 3d 2c 3e 40 ac 22 3e
       0.29819462 -0.4202784 0.16820501 0.1588602
0001a0 14 1b 9e be 0d 9d 81 3e 7c 79 64 3d 80 f2 04 be
       -0.30880034 0.25315133 0.05577992 -0.12983131
0001b0 18 49 8c 3e 92 20 cc bd 25 8a 44 3e 8a ab fe bd
       0.27399516 -0.0996715 0.19193323 -0.12435062
0001c0 c1 53 ad 3d a1 70 58 3e c9 2a 9c 3e c5 eb d7 bd
       0.084632404 0.21136715 0.30501392 -0.10543016
0001d0 6e 41 2a 3e 1a dd 0d be cc 9d 5d 3e 4b 93 26 bc
       0.16626522 -0.13853875 0.21642226 -0.010166953
0001e0 f9 c0 23 3e c4 19 85 bd dc 81 61 bc 61 87 64 be
       0.15991582 -0.06499055 -0.013763871 -0.22317268
0001f0 b4 1f 66 be f7 c6 4f bd 64 e4 39 be 9c e3 1d bd
       -0.22473031 -0.050726857 -0.1815353 -0.038547143
000200 5f 50 62 be ea 1f 45 3e 16 66 03 be 9f 69 a5 3e
       -0.22100972 0.19250455 -0.12831911 0.32307145
000210 84 29 7f bd 6b d3 6f 3e 03 67 5e be 6e 2f 88 3c
       -0.06229545 0.23420493 -0.21718983 0.016624179
000220 42 ad d8 3e c6 44 3e be d2 36 53 bc b8 c8 26 bd
       0.42319685 -0.18580922 -0.012891488 -0.040718764
000230 11 f3 c4 be 45 dd a0 3e ff dc 66 3e 37 f6 81 bd
       -0.38466695 0.31418815 0.22545241 -0.0634579
000240 b6 62 cc bd f6 a4 0f 3e 4c f8 2d be 6d 18 89 3e
       -0.09979765 0.14027771 -0.16989249 0.26776448
000250 96 fe 8c 3e 38 22 4c be f4 9c 70 bc 43 d4 8b 3e
       0.27537984 -0.19934928 -0.014685858 0.2731038
000260 32 41 c2 3d d0 ab 35 be 0f 2e 98 bd f5 ce 17 3e
       0.09485091 -0.17741323 -0.0743066 0.14825042
000270 3a c1 d8 be 1a fd 18 be b9 c0 9f 3d 1c ff 22 be
       -0.4233492 -0.149403 0.07800431 -0.15917629
000280 a7 19 39 be b4 f1 49 be d2 35 32 3d 78 bf c6 3c
       -0.18076192 -0.19721109 0.04350836 0.024261221
000290 19 4d 63 be 9f 81 69 3e 23 27 5f be 4e 80 09 3e
       -0.22197379 0.22803353 -0.21792273 0.1342785
0002a0 73 43 c0 3d d5 91 61 be a2 be 36 bc 17 61 57 3e
       0.09387865 -0.22028287 -0.011153849 0.2103313
0002b0 a2 cc a9 be 5b df 36 3e 65 aa f4 3d 5c a6 a3 be
       -0.33163935 0.17858641 0.11946563 -0.3196286
0002c0 d2 9c 93 bd 6d 98 33 3d 34 70 19 be 36 2b 12 bd
       -0.072076455 0.043846536 -0.14984208 -0.03568574
0002d0 51 3a 88 3e ec 22 d1 3d 4e c6 ae bd 27 1a 87 3e
       0.26606992 0.10211739 -0.08533917 0.2638714
0002e0 19 63 f5 3d 7a 2a 6f be bd 92 9a 3e 77 75 6f be
       0.11981792 -0.23356047 0.30190077 -0.23384653
0002f0 b7 00 7b 3e f9 90 02 be fa e0 f6 3c bb 44 7b be
       0.24511991 -0.12750615 0.030136574 -0.24537937
000300 67 2a 43 be 3b e2 45 be 3c d9 10 be f9 88 9d bd
       -0.19059144 -0.19324581 -0.14145368 -0.07692141
000310 a8 09 84 3e cc d3 95 3e 65 23 80 be 2d bd 03 be
       0.25788617 0.2926315 -0.25027004 -0.12865134
000320 31 cc 8d bd f7 c8 20 3d c1 04 66 3c 62 b4 3c bd
       -0.06923712 0.039254155 0.014039219 -0.046070464
000330 88 6c 97 3e db 7c a3 3e 3c 24 a5 ba 78 fd 89 3e
       0.2957499 0.31931195 -0.00125993 0.26951194
000340 c9 d0 14 be 27 68 55 3d 22 cd 4e 3e a2 88 43 bd
       -0.1453277 0.05210128 0.2019544 -0.047737725
000350 37 d1 ec bd 49 dd ae be 05 97 7f 3e f6 2f 28 be
       -0.11563342 -0.34153202 0.24959953 -0.16424546
000360 d0 0d 8f be a3 67 6e 3e 74 23 1c bd 35 8a 9c 3e
       -0.27940226 0.23281722 -0.03811975 0.30574194
000370 c9 46 05 be 69 60 b4 bd 40 cf 66 be 67 2c 01 3e
       -0.13015284 -0.08807451 -0.22539997 0.12614594
000380 8f 95 df bd 76 78 22 3e 31 8c 8f 3e 92 2b 7a be
       -0.10917198 0.15866265 0.28036645 -0.24430683
000390 a8 37 45 3d 1b 7e 0c be 3e 9f 9b be 09 f2 dc bd
       0.04814878 -0.1371998 -0.3039493 -0.10788352
0003a0 a1 44 a3 bd 8b 20 25 be 80 cc 9f 3d 4e 22 ac be
       -0.07972074 -0.16125695 0.07802677 -0.33619922
0003b0 07 ac c7 bd 5d ac 20 3e 16 79 31 bd 77 85 39 be
       -0.097496085 0.15690751 -0.043328367 -0.18117319
0003c0 64 a8 99 be 49 36 09 be 89 b1 27 3d fc c9 57 be
       -0.30011284 -0.13399614 0.040940795 -0.21073145
0003d0 31 7a 66 bd 59 9d 34 be bd 51 c2 be 45 e0 f3 3d
       -0.056268875 -0.17638148 -0.37952986 0.119080104
0003e0 3c 53 73 bc 42 85 41 be 6e fe e8 bb 81 61 6c 3e
       -0.014851388 -0.1889849 -0.0071104085 0.2308407
0003f0 ec 2b 2e be 1e 0b 8e bd d9 31 2d bd b5 5c 2c 3d
       -0.17008942 -0.06935714 -0.042283867 0.0420806

blocks.0.norm1.bias f4 [16]
000000 c2 a9 fa 3d 4c 68 07 3b 70 02 20 3d 0b 8b 07 3e
       0.1223941 0.002066153 0.039064825 0.13236634
000010 7d b3 5b 3d c4 3d ae 3d 8d 07 5b 3d 68 ab 1f 3e
       0.05363797 0.085078746 0.053473998 0.1559273
000020 2a 17 4e 3e 91 71 05 3d 8d 80 2b 3d 39 24 a2 3d
       0.20126024 0.03257901 0.041870642 0.07917065
000030 95 62 ac 3d 1a 33 b3 3d c1 80 8c 3d c8 61 c3 3d
       0.084172405 0.08749981 0.06860495 0.09540135

blocks.0.norm1.weight f4 [16]
000000 4d f9 6b 3f 19 7f 69 3f ec 7c 38 3f 50 0d 87 3f
       0.9217728 0.9120956 0.72065616 1.0550938
000010 96 1f 7b 3f 14 71 5f 3f 78 79 84 3f a7 fb 87 3f
       0.9809507 0.8728192 1.0349569 1.0623673
000020 bf 13 91 3f d9 2e 77 3f ed 0e 77 3f d8 82 83 3f
       1.1334151 0.9655586 0.9650715 1.0274305
000030 3b 0f 68 3f e0 cd 60 3f cd e8 5a 3f 8a 04 5e 3f
       0.9064824 0.8781414 0.85511476 0.86725676

blocks.0.norm2.bias f4 [16]
000000 db 8c ca 3d 5e ea 37 3e bd 32 0d 3e e5 e6 4e 3e
       0.09890147 0.17960498 0.13788886 0.20205267
000010 81 51 1c 3e f6 11 5f 3e d9 55 fa 3d 50 45 9f 3d
       0.15265466 0.21784195 0.122234054 0.07776892
000020 ed 1e 19 3e f9 0d 9d 3c 08 62 29 3e c7 01 21 bd
       0.14953203 0.019171702 0.16541302 -0.039308336
000030 04 10 88 3e fc 7d ce 3d f7 b8 f1 3d 33 76 50 3e
       0.2657472 0.10082623 0.11802857 0.2035759

blocks.0.norm2.weight f4 [16]
000000 8f 70 68 3f a8 5b 9d 3f 48 fb 84 3f 52 b9 96 3f
       0.9079675 1.2293596 1.0389185 1.1775305
000010 18 0b 86 3f 3b 7c 92 3f 4a c5 92 3f 74 a0 86 3f
       1.0472136 1.1444162 1.1466458 1.0517716
000020 7c 34 90 3f dc 4b 86 3f b0 aa 94 3f 26 d7 7b 3f
       1.1266017 1.04919 1.161459 0.98375165
000030 ef 2d 9b 3f ba 80 8c 3f 02 55 87 3f 86 49 93 3f
       1.2123393 1.0976784 1.0572817 1.1506813

blocks.1.conv1.bias f4 [16]
000000 96 17 ed 3d f8 ee fb 3c cf 7b bd 3d ca 63 47 3e
       0.11576764 0.030753598 0.0925213 0.1947166
000010 24 1d 0e 3e aa 3b 2c bd 86 4d 8e bc a6 9d fd 3d
       0.13878304 -0.042049088 -0.01737095 0.12383585
000020 aa dc bc 3d 0a d7 29 bd 91 ea 00 bd 0b d5 2e 3e
       0.09221776 -0.041464843 -0.0314737 0.17073457
000030 8f c8 7d bd f4 8a 93 bc c6 87 42 3d 5a 70 8c be
       -0.061958846 -0.018010594 0.047492765 -0.27429467

blocks.1.conv1.weight f4 [16, 16, 1, 1, 1]
000000 51 1c 73 3c 99 02 83 bc e9 53 2c bd 8e 43 52 3e
       0.014838294 -0.01599245 -0.04207221 0.20533583
000010 f4 b3 93 3e 9b b7 9d be d4 86 31 be 71 2f 9f 3d
       0.2884823 -0.30804142 -0.17336589 0.077727206
000020 ec 6b 67 be 72 81 18 3e 6e 5c 72 3e 2e 53 fd bb
       -0.22599763 0.1489313 0.23668072 -0.007730863
000030 99 03 20 be 2d 44 f2 bd f0 d9 c3 bd 2a 60 5b bd
       -0.15626372 -0.1182941 -0.09563053 -0.053558506
000040 d8 2c ed bd 6c 6f 38 3e cb d7 37 be 49 13 8c 3e
       -0.11580819 0.18011254 -0.17953412 0.27358463
000050 e8 15 da 3c 4b 89 99 3e b6 a9 e5 bd 96 f9 83 bc
       0.026621774 0.2998756 -0.112140104 -0.016110223
000060 40 a5 25 be 7c f6 8d bd 19 b2 95 3e 49 31 01 be
       -0.16176319 -0.06931779 0.2923744 -0.12616457
000070 c3 bb c4 bd 5b 21 04 3e f6 f4 29 be 0d c3 3a 3e
       -0.09606125 0.12903349 -0.16597351 0.18238468
000080 a9 b0 00 3e 77 10 ad 3d 9c 6b b6 3e 57 91 39 be
       0.1256739 0.08450406 0.35628974 -0.18121849
000090 54 78 22 3e 6d 74 72 b9 70 bd c0 3d 16 ee a1 be
       0.15866214 -0.0002312229 0.09411132 -0.31626958
0000a0 fb ce 60 3e b5 1c 82 be 37 bc fb 3d b4 43 80 3d
       0.21953957 -0.25412527 0.122917585 0.06262913
0000b0 71 90 21 bb 6d dd 9f bd 55 ce 36 bd b1 2c a2 bd
       -0.0024652744 -0.078059055 -0.044630367 -0.079186805
0000c0 36 ed 10 3d ca b7 38 3d 6d 86 1a 3e 78 be 1f 3e
       0.035382472 0.04509715 0.15090342 0.15600002
0000d0 b9 f3 3b 3e a5 ee c5 3d c2 ac a4 be d6 84 53 3e
       0.18354692 0.096646585 -0.32163054 0.20656142
0000e0 5d 54 49 be a9 4e 9a 3d 4c 0e 83 3d 36 e8 e6 3d
       -0.19661088 0.075345345 0.06399211 0.112747595
0000f0 a3 80 61 3e d3 e2 77 3d 6b 21 25 3c 0c ea 34 3e
       0.22021727 0.06051905 0.010078768 0.17667407
000100 65 f7 9f be ee 4e 48 3e 31 ee 75 bd a7 d8 37 3d
       -0.31243435 0.1956136 -0.06004161 0.04488435
000110 33 1a ef bd 99 83 d7 bc 35 ea 80 be d6 fd 3a 3e
       -0.11674919 -0.026307868 -0.25178686 0.18260893
000120 4f 61 4d bd 24 ff 9d 3d 42 e7 dd 3c a3 8e 43 be
       -0.05014163 0.0771468 0.027087811 -0.1909738
000130 6c 94 17 3e 8e 28 d8 bd b7 d6 8a 3e 37 f8 5c be
       0.14802712 -0.1055461 0.2711694 -0.21579061
000140 e5 67 9e 3e dc 1e cd bc 6a c8 7d bc 10 de dc bd
       0.3093864 -0.025039129 -0.015489677 -0.107845426
000150 f6 cc 84 3e 85 cc 16 3e 26 8a 37 3d 11 aa a0 3d
       0.25937623 0.14726456 0.044809483 0.078449376
000160 10 a0 a4 3b b8 de 00 be f5 bc 35 be d8 d8 e1 bd
       0.0050239637 -0.1258496 -0.17747863 -0.11027688
000170 99 2e 6e be 18 1c 41 3b 73 cc c1 3d f5 f0 00 be
       -0.23259963 0.0029466208 0.09462824 -0.12591918
000180 dd d3 29 3e 86 04 38 3d 6a a3 00 3e 0e 72 83 3d
       0.16584726 0.04492619 0.12562338 0.064182386
000190 77 44 4f bd bf ba 53 3e bc 8d 42 3e de 04 10 3e
       -0.050602403 0.20676707 0.1899938 0.14064357
0001a0 03 89 a6 bd d5 55 97 bd d3 cb 44 3c 87 cc ee bd
       -0.08131602 -0.07389418 0.012011486 -0.11660104
0001b0 03 65 41 3e f3 f0 a7 bd 99 fb 4c 3e c4 69 43 be
       0.18886189 -0.08200254 0.20017852 -0.19083315
0001c0 69 60 c2 bd f4 20 07 3d d3 60 8d 3e 5c 89 87 bc
       -0.09491045 0.03299041 0.27612934 -0.01654499
0001d0 d0 7b b9 3e c0 b6 c5 3d 3f a2 a7 3d 5f c1 3c be
       0.36227274 0.096539974 0.08185243 -0.1843314
0001e0 28 6e 45 be b2 2d fb 3d 3b ef 11 3e 8c ad eb 3c
       -0.19280303 0.12264575 0.14251415 0.028769277
0001f0 c9 a4 0a be 8b 71 9c 3d 06 b3 69 3d c5 db 5c be
       -0.13539423 0.07638844 0.057055496 -0.2156821
000200 ec 95 4f be 2a 7d 2b 3e cc fd 30 be 4d 4a 1c 3e
       -0.20272034 0.16746965 -0.17284316 0.15262718
000210 a1 84 ef bd d4 f9 8c 3e a6 b0 c8 bd 90 46 e7 3d
       -0.11695219 0.27534354 -0.09799318 0.112927556
000220 0e f0 f8 3d 5a 20 5f be 46 27 93 bd e5 6a 54 be
       0.12155162 -0.21789685 -0.07185225 -0.20743902
000230 79 32 e9 bd 2d 01 73 3d 61 2e aa 3d 3e a4 e7 3c
       -0.1138658 0.059327293 0.08309627 0.028276559
000240 84 15 7d 3d 01 22 6c 3d 5e 43 6a be 31 98 ed 3c
       0.061788097 0.057649616 -0.22877261 0.029003235
000250 90 cb c6 3e 88 04 9c 3d 16 f3 a5 3e 4f d8 f9 bd
       0.3882718 0.07618052 0.32412022 -0.12199461
000260 81 b4 21 be 38 8c b0 bd a3 bf 2e be 9a 6c 11 bc
       -0.15791513 -0.086204946 -0.17065291 -0.00887599
000270 1d 3f b5 bc 98 fe 10 3e f2 85 37 3e 6e 2e 0e 3e
       -0.022124821 0.1415962 0.1792219 0.13884899
000280 b6 13 9d be c2 78 6a bd 19 1c 14 be f2 9d 4e bc
       -0.306791 -0.05724407 -0.14463843 -0.012610899
000290 04 90 27 be 3f d3 03 bd 8e f7 97 bd 72 90 b6 3e
       -0.16363531 -0.03218388 -0.07420264 0.35657078
0002a0 1e 2c f2 3d 66 c8 08 be d8 49 4f 3e 45 01 01 3e
       0.11824821 -0.13357696 0.20243013 0.1259814
0002b0 cb df 87 3d 87 49 34 be 91 6a dd 3d ed e5 06 3e
       0.06634482 -0.17606173 0.108113416 0.13173647
0002c0 87 cd 24 be 66 4e 4c bd bf b7 cb bd f6 c8 56 3d
       -0.16094027 -0.049879454 -0.09947156 0.052437745
0002d0 63 85 80 3d 82 fa 6a bd 54 0b 42 3d 18 1e 53 be
       0.062754415 -0.05736781 0.047374085 -0.20616949
0002e0 31 04 42 3e a9 d6 94 3d 23 71 05 be 5e 69 1b be
       0.18946911 0.07267506 -0.1303144 -0.15176913
0002f0 8b 23 91 3d 34 ed c6 bc 77 92 2d bc f1 3f d6 3c
       0.070868574 -0.02428303 -0.010594002 0.026153537
000300 c8 59 b5 3d 05 1a dc 3b ee b5 af 3b ea 3e d8 bd
       0.08855015 0.006716969 0.005362264 -0.10558875
000310 96 49 7e 3e e1 3a c0 bd 1d ed 13 bd 1d fe 5f be
       0.24832758 -0.0938623 -0.0361148 -0.2187428
000320 37 4a 8c 3c ae 34 f1 3d a7 41 64 3d 3c 03 1e be
       0.017125232 0.11777626 0.055726673 -0.15430921
000330 76 58 7b be 4b 38 19 3e 0c 8a 40 be 28 40 d2 3d
       -0.24545464 0.1496288 -0.1880266 0.10266143
000340 ad 36 84 bd e4 b7 df 3d b3 d1 51 be 3b a0 22 3e
       -0.06455741 0.10923746 -0.2049015 0.15881436
000350 57 47 df be d5 30 6c be 8b 93 42 3e 49 a5 73 3e
       -0.43609115 -0.23065503 0.19001596 0.2379352
000360 db d7 8d 3d c6 69 67 be bc 81 87 3d 42 7d 4d bd
       0.06925937 -0.22598943 0.06616542 -0.050168283
000370 09 6e 30 3c ad c3 43 bd 80 43 1b 3d 89 cc 06 be
       0.010768422 -0.047794033 0.03790617 -0.13163961
000380 e4 05 eb 3d 93 23 24 be d3 24 63 3e e4 1c 11 3c
       0.11475733 -0.16029195 0.22182016 0.008856986
000390 e8 db 8c 3c d5 58 8a 3e 89 60 36 3e 2a 42 c8 bd
       0.017194703 0.27020898 0.17810263 -0.09778245
0003a0 c4 07 50 bd b8 f3 98 bd c8 38 7d be 92 4e f0 bd
       -0.050788656 -0.07468361 -0.24728692 -0.11733736
0003b0 a6 ec 7e 3d 40 07 09 3e 50 4a 0e 3c 85 2c 9f 3c
       0.062237404 0.13381672 0.00868471 0.019430408
0003c0 fc 41 d0 be 04 6c a0 3d 69 e4 4c bd 4f ee ec 3d
       -0.40675342 0.07833102 -0.050022516 0.11568891
0003d0 17 05 9c be ab bb db 3d 6d 90 2b be ec 48 9d 3e
       -0.30472633 0.10729154 -0.16754313 0.30719697
0003e0 7b ad ae 3d f9 00 19 be a2 84 d7 bd 00 72 36 3d
       0.085291825 -0.14941777 -0.105233446 0.044542313
0003f0 26 2d 64 bc 70 3b 6b 3e e6 9f 98 bd 04 91 ba bd
       -0.01392678 0.22971892 -0.07452373 -0.09109691

blocks.1.conv2.bias f4 [16]
000000 97 85 50 3c 8f 0e 8e 3e 49 08 77 3d 25 27 09 3e
       0.012727163 0.27745482 0.060310636 0.13393839
000010 07 97 9d 3d 3e d3 22 3c cf 55 21 3e fd c2 13 3e
       0.07694822 0.009938059 0.1575539 0.14429851
000020 5e da 0c 3e 53 4a 4a 3e ed 9e 9c bd f4 78 48 3c
       0.13755175 0.19754915 -0.076475 0.012235869
000030 bc 19 e0 bd 07 03 7e be f4 78 be 3d c4 71 85 bd
       -0.109424084 -0.24805842 0.09300414 -0.0651584

blocks.1.conv2.weight f4 [16, 16, 1, 1, 1]
000000 85 ed 63 be cf 19 b2 3d 63 7e d4 bd 02 c0 43 3d
       -0.22258575 0.08696329 -0.10375669 0.047790535
000010 81 5a 26 be 76 c5 14 be 79 4c 0e be fd 70 39 3e
       -0.16245462 -0.1452845 -0.1389636 0.18109508
000020 e4 1b 30 3d 93 f0 e9 3d 26 25 9e bb d0 9c 36 3e
       0.04299535 0.11422839 -0.004826206 0.17833257
000030 49 ce 6b 3e f4 a1 43 3e 39 7c 1e 3e 1d 25 2d be
       0.2302791 0.19104749 0.15477075 -0.16908689
000040 61 e9 d0 bd 84 95 f5 3d 1e 1a 64 be 86 43 88 3e
       -0.102007635 0.119914085 -0.22275588 0.26614016
000050 11 0e 09 3d bd de 3e 3b 7f 80 17 3d db 2f 23 3e
       0.03346068 0.0029124462 0.036987778 0.15936224
000060 b4 26 f1 3d f5 aa 27 36 58 32 fe 3d d7 00 91 bd
       0.1177496 2.498445e-06 0.12411946 -0.07080238
000070 49 23 93 be 8d 00 3e be a9 4b 1e bd 17 4f 0d 3e
       -0.28737858 -0.18554898 -0.038646374 0.13799702
000080 83 7d 3f bb 36 20 a7 be 50 df dc 3d 88 0a de bc
       -0.0029219098 -0.32641762 0.10784781 -0.027104631
000090 f9 f8 94 be 24 c9 cb 3c 75 81 8d be 92 26 56 3e
       -0.290962 0.024876185 -0.2763783 0.20913151
0000a0 9b ff a6 be 82 91 03 3e c2 57 31 3c 39 a8 dc bb
       -0.32616886 0.12848476 0.010824146 -0.006733921
0000b0 36 69 c8 3d 9a f7 a7 be 3a 4f 83 3d 1d 31 87 be
       0.097856924 -0.32806093 0.06411596 -0.26404658
0000c0 80 31 a8 3d c1 ab 9c 3e ed e2 9e be f9 35 4c 3e
       0.082125664 0.30599788 -0.31032506 0.19942464
0000d0 39 ad 45 3e fa c9 89 be e1 b1 f6 bc 68 3c 0e be
       0.1930436 -0.26911908 -0.030114116 -0.1389023
0000e0 2b 67 ef 3d af 44 84 bc 5a 47 74 3e 89 36 28 be
       0.116895996 -0.016146032 0.23855343 -0.16427054
0000f0 87 6a 5d be fb 2a 80 3e 99 22 dc be 0e e1 87 3e
       -0.21622668 0.25032791 -0.42995146 0.2653889
000100 29 ab 4c 3e 64 14 58 3e 41 8e 24 3d 8e dc 85 3e
       0.19987167 0.21101528 0.040174726 0.26144832
000110 49 ed f8 3d 23 8b bd 3c 66 d5 7e 3e d0 48 83 bd
       0.121546336 0.023137635 0.24886093 -0.06410372
000120 cb f2 8b 3e ec ef 9b bd de 22 00 3e 57 3a ee 3c
       0.27333674 -0.07614121 0.12513301 0.029080553
000130 42 48 c1 be ec e4 41 3e 38 e6 02 3d 26 4e a0 bd
       -0.3775044 0.18934983 0.031957835 -0.07827406
000140 9e c2 05 3e 45 bf 25 3d 29 ac 24 ba bc f3 70 3e
       0.13062522 0.040465612 -0.00062817574 0.23530477
000150 4d 37 96 3c 59 77 92 be 4a 83 19 3e 63 ab 61 be
       0.018336916 -0.2860668 0.14991489 -0.22038035
000160 bb 40 8b 3e 03 7e 7f be 6a aa 84 bd ad 41 7c bd
       0.27197823 -0.24950413 -0.064778164 -0.06158607
000170 61 73 c4 be 35 3a e9 3d e3 e2 04 be f1 ec a2 3e
       -0.38369277 0.11388055 -0.12977175 0.31821397
000180 2f 27 d0 be c7 65 1a 3e f8 55 1e 3e 5b 5b 12 be
       -0.40654895 0.15077887 0.15462482 -0.14292662
000190 90 b3 18 3e b9 69 64 3d 6f 6b 0a be 56 87 bd bd
       0.14912248 0.055764887 -0.13517545 -0.09254329
0001a0 93 d5 99 bd 9d 7f 14 be eb c1 b8 bc 5b c4 a9 3e
       -0.07511439 -0.14501806 -0.022553405 0.3315762
0001b0 13 dd fc 3d 99 a0 26 3e 12 24 01 3e 15 72 fc bc
       0.12346854 0.162722 0.12611416 -0.030816117
0001c0 b0 69 52 3d f3 ac 8e 3d eb 61 0b be f6 78 15 3e
       0.051370323 0.06966581 -0.13611571 0.14596924
0001d0 54 7b 23 bd e3 d4 b8 bd d8 64 7a 3e 84 5a 25 be
       -0.039912537 -0.0902498 0.24452531 -0.1614781
0001e0 fb 87 2c be d5 de 0e 3e 5d 1d ed 3d ec bd c7 bd
       -0.16848747 0.13952191 0.11577866 -0.097530216
0001f0 d8 46 2a be a0 0f cd 3d 5b 29 a2 3d 36 ba f4 bd
       -0.16628587 0.10012746 0.07918044 -0.119495794
000200 a7 06 89 3e 2e a0 c3 3c d4 59 46 bd dd 5a d1 bb
       0.26762888 0.02388009 -0.04842551 -0.0063890056
000210 95 e0 90 bc b5 50 a3 3c e8 8e 9c 3e 7c 31 6d 3e
       -0.017685214 0.019935945 0.3057778 0.23163408
000220 7f 2d df bd 05 ce 92 be 5b a5 50 3e a7 64 a2 3c
       -0.108973496 -0.28672805 0.20375578 0.019823385
000230 79 0e 0b be 6a a6 0b 3c c7 a5 d3 bd 68 d9 f0 3d
       -0.1357974 0.008523563 -0.10334354 0.11760217
000240 3c 99 eb bd 88 35 b6 bc a1 9a 5a be 7f 15 08 be
       -0.115038365 -0.022242323 -0.21348049 -0.1328945
000250 2b 4b 7e 3d 49 9d 9b be 09 25 1a 3e 57 40 8f bc
       0.062083405 -0.30393437 0.1505319 -0.017486734
000260 f5 5e 0e be f7 0f bb bd df b4 37 bd a1 29 48 be
       -0.1390341 -0.091339044 -0.044850226 -0.1954713
000270 d5 24 21 3e ab 3b a6 bd e7 83 7a bd e5 72 08 3e
       0.15736707 -0.081168495 -0.061160948 0.13325079
000280 06 f6 bc be 59 88 9f 3e a6 94 42 3e b9 4f b0 3b
       -0.3690645 0.31158713 0.19002017 0.0053805974
000290 fa 97 0f 3e 18 7a 27 be a5 1c 03 3e 0c 54 75 3d
       0.14022818 -0.16355169 0.12803896 0.059894606
0002a0 8f b3 77 bc 73 ff ea 3d 05 77 98 bd 71 7c 8c be
       -0.015118494 0.11474504 -0.07444576 -0.2743869
0002b0 49 1a b6 3d 47 a4 28 3e 63 a4 87 3d e6 61 58 3e
       0.08891732 0.16468917 0.06623151 0.21131095
0002c0 be c3 d9 bd 8a a3 ce bd 99 ea 6b be b2 35 5c 3e
       -0.10633038 -0.10089786 -0.2303871 0.21504858
0002d0 91 de 54 3c 5f 26 f6 bd 0b e2 0d 3e d3 d3 08 be
       0.012992517 -0.120190375 0.1385576 -0.13362055
0002e0 e7 92 4b 3e 75 cc 1f 3e f2 2d 79 be 73 d0 6c bc
       0.19880258 0.15605338 -0.24333933 -0.014453995
0002f0 25 fb 29 be 26 1f 93 3e 6c ec dd bd e7 47 9a bd
       -0.1659971 0.28734702 -0.108361095 -0.075332455
000300 17 ed 0f be 26 f2 dd 3d fc f5 f2 bd 54 62 5b 3e
       -0.14055286 0.10837202 -0.11863324 0.21424228
000310 4a e7 8a 3b d8 1e 73 bd 13 c9 32 bb 7d 67 95 3e
       0.0042389976 -0.059355587 -0.0027280494 0.29180518
000320 e9 1d 5e 3e 14 62 52 be 68 92 85 3e a5 26 cd be
       0.21691097 -0.20545226 0.26088262 -0.40068546
000330 fa e3 8a be a1 c5 e5 bd ec f2 8f be 08 89 b7 3e
       -0.27127057 -0.11219335 -0.28115022 0.35846734
000340 4a d3 74 3c 90 d6 a2 be 00 31 92 3e 6c b5 47 bd
       0.014942953 -0.31804323 0.2855301 -0.048757
000350 f2 37 7f be aa 71 27 3e 21 e4 f8 bd de 12 73 3e
       -0.24923685 0.16351953 -0.12152887 0.23737666
000360 68 05 8c be 33 62 10 3e e3 16 ce 3c 10 a1 91 3d
       -0.27347875 0.1409996 0.025157398 0.07110798
000370 fc 40 a4 3e 57 f4 92 be fd 64 10 3e 7c 61 02 3e
       0.3208083 -0.28702042 0.14101024 0.127325
000380 ce bc 94 be e4 df 72 3c e1 1f bf bd b9 46 07 3e
       -0.29050297 0.0148238875 -0.09332252 0.13210572
000390 9d b4 21 3e bf 8a 39 be 32 79 47 3e 90 e7 1a bc
       0.15791555 -0.18119334 0.19479826 -0.009454623
0003a0 0d 6c 9f 3e 00 4e 51 3d 9a b8 a5 3d 9b 56 87 be
       0.31137124 0.051099777 0.080918506 -0.26433262
0003b0 3a 86 c0 be b7 5d ea bd 59 9e 3c be 78 9d 22 be
       -0.37602407 -0.11443656 -0.1841978 -0.15880382
0003c0 07 b5 cb 3b 46 74 29 3e 12 e3 9e 3c 24 52 79 3e
       0.0062166485 0.16548261 0.019395385 0.2434774
0003d0 b4 f6 92 bd ce 5f 82 be 6f 50 8d 3e 97 3c 91 be
       -0.07175961 -0.25463718 0.27600428 -0.2836654
0003e0 ce a0 8c bc 35 82 3f be e5 9b 92 bd 46 1a 57 3d
       -0.017166521 -0.18702014 -0.07158641 0.05251529
0003f0 96 7c 5e bd bf 40 33 3e 70 f3 c7 bd 40 97 8b 3e
       -0.054318033 0.17505167 -0.09763229 0.27263832

blocks.1.norm1.bias f4 [16]
000000 62 a5 64 3e 02 0f 9d bd 96 27 81 3e 03 91 1c 3d
       0.22328714 -0.07668878 0.25225514 0.03822423
000010 72 79 1b 3e f5 dd 53 3d 89 b1 e7 3d a5 61 1d 3e
       0.15183046 0.051725347 0.11313159 0.1536928
000020 d4 19 86 bd 4a 01 a6 ba dd b6 bb 3c 99 0a a9 bd
       -0.06547895 -0.0012665179 0.022914344 -0.082539745
000030 b1 2a bc 3c 3e be 05 be 19 cf 5b bc fb 53 a0 bd
       0.022969576 -0.13060853 -0.013416075 -0.07828518

blocks.1.norm1.weight f4 [16]
000000 5a ac 92 3f 8a 78 5e 3f cd b7 86 3f be 04 81 3f
       1.1458848 0.8690268 1.0524842 1.0079572
000010 8f eb 89 3f 6b 64 7e 3f 2d b8 71 3f 28 3a 83 3f
       1.0775012 0.99371976 0.94421655 1.0252123
000020 d3 03 72 3f 7d 2d 54 3f c4 ab 80 3f ee bc 5c 3f
       0.94537085 0.8288191 1.0052419 0.86225784
000030 a4 4a 61 3f e1 89 5f 3f 18 fa 5f 3f af f9 62 3f
       0.8800452 0.8731976 0.8749099 0.88662237

blocks.1.norm2.bias f4 [16]
000000 96 de 45 3e 53 26 fa 3d 1c 2a ed 3d 3c 2c d7 3d
       0.19323191 0.12214341 0.11580297 0.10506484
000010 10 f2 fd 3d cc 12 1d 3e 5e 60 19 3e 7c 67 67 3d
       0.123996854 0.15339202 0.14978167 0.056495175
000020 48 ad f7 3d de 60 da 3d a9 9b 64 3d bf ab 2b 3e
       0.12093598 0.10663007 0.05581251 0.16764735
000030 ac 87 0a 3e 1f 3e 02 3e cf 5a 67 3e ec 6d 80 3d
       0.13528317 0.1271901 0.22593234 0.06270966

blocks.1.norm2.weight f4 [16]
000000 e3 a4 90 3f 62 ec 8f 3f e0 f5 88 3f fd 4b 8d 3f
       1.130032 1.1244013 1.0700035 1.1038815
000010 96 45 88 3f 38 29 8b 3f ae 47 8e 3f 80 7b 96 3f
       1.0646236 1.0871954 1.1115625 1.1756439
000020 de 51 90 3f ad 7b 72 3f b5 3e 93 3f c3 c8 97 3f
       1.1274984 0.94719964 1.1503512 1.1858143
000030 ad 8c 96 3f 4a 6a 93 3f 4e 81 a6 3f 54 21 85 3f
       1.1761681 1.1516812 1.3008211 1.0400796

blocks.2.conv1.bias f4 [16]
000000 65 3f 9a bd 5f b7 f8 3d 33 94 b2 3d 58 3f 08 3d
       -0.07531623 0.1214435 0.08719673 0.033263534
000010 2c ea 65 be 6e c2 bb bd ac 91 74 be c0 2b 90 3d
       -0.2245261 -0.09167944 -0.23883694 0.07039595
000020 61 ec 89 bd a4 a3 5f 3d b9 6a 44 3d 31 d7 7d bd
       -0.06734539 0.05459942 0.04795334 -0.0619728
000030 5f 11 8a ba 10 16 34 3e a4 6b 8f 3d e7 82 2b 3e
       -0.0010533741 0.17586541 0.07002953 0.16749154

blocks.2.conv1.weight f4 [16, 16, 1, 1, 1]
000000 f4 8e 01 be e8 ff ad 3d 25 47 ba bc a4 b6 62 3e
       -0.12652189 0.08496076 -0.022739002 0.22139984
000010 03 4b a1 bd 67 7b 94 3d 99 ca 91 3c 62 fa 67 3d
       -0.078756355 0.072501 0.017796801 0.056635268
000020 81 af bc bd 69 1e b3 3d af 47 bb 3b ea 88 43 bd
       -0.09213162 0.08746035 0.0057153325 -0.047737993
000030 ab 82 3c 3c 83 23 c6 3d ea 36 a6 3c dc 1d 8a bd
       0.011505763 0.09674742 0.020289857 -0.067439765
000040 a5 c7 22 3e 8a e9 08 bd f6 5e 37 be 79 1a 80 3d
       0.15896471 -0.033425845 -0.17907318 0.06255049
000050 af 0f ae 3e c6 b3 c0 3b 05 b9 ca bb 77 45 05 bd
       0.3399634 0.0058808057 -0.006186607 -0.03253695
000060 df 3c 92 be 4b 16 a1 3c c2 0b 16 be 5a 9f ce bc
       -0.28562066 0.01966395 -0.14652923 -0.02522247
000070 e5 d7 89 3d da ad 2e 3d bb 91 79 3d 7f d1 2c 3e
       0.06730632 0.042646267 0.060929995 0.16876791
000080 6e f9 9f be 87 50 36 3e 8e d1 42 be f3 80 49 3d
       -0.31244987 0.17804156 -0.19025251 0.04919524
000090 92 3b d0 3c 01 07 00 3e ac d1 b3 3d 15 0f ae be
       0.02541903 0.12502672 0.08780226 -0.33995882
0000a0 03 b4 6b bc 30 18 ee bd 9d 27 70 bd e4 8f 93 bd
       -0.01438618 -0.11625707 -0.05863153 -0.07205179
0000b0 92 75 2d be 70 d5 7e 3c 5c 08 b3 be 9a 99 70 3e
       -0.16939381 0.015553817 -0.34967315 0.23496094
0000c0 b4 91 47 3e 1a 34 64 bd c3 03 0e 3e bd 08 8f 3d
       0.19489175 -0.05571375 0.13868622 0.069840886
0000d0 52 c6 75 3c a2 b6 9f 3d e9 7c 09 3c ba 9d 56 3d
       0.0150008965 0.07798506 0.008391597 0.052396514
0000e0 ff 1c 71 bd 8c 1d e8 3d 24 2a d3 bc 6a 81 30 3d
       -0.058865543 0.113337606 -0.02577693 0.04309217
0000f0 a9 94 37 bd 1e 91 32 be 65 8c 84 3c c6 c4 d9 bd
       -0.044819508 -0.1743817 0.016180227 -0.10633235
000100 91 62 52 3e 0a 97 d1 bd 97 d3 49 bd 43 7a d4 3d
       0.20545413 -0.102338865 -0.049274053 0.10374882
000110 68 1f ab be 56 6d ae bd b1 4a 96 3d 9b 0c 6a 3e
       -0.334224 -0.08516948 0.07338465 0.22856371
000120 7b 44 32 3e e2 5f 4e be 3f 17 58 3e 49 31 94 3d
       0.17408936 -0.20153764 0.21102618 0.07235963
000130 85 17 0d 3e 64 a3 39 3e d4 7c e3 bd 65 fc 49 be
       0.13778503 0.18128735 -0.111077935 -0.19725187
000140 0d 67 37 be e8 9a 98 be c6 9b 13 3e ca db d8 3c
       -0.17910405 -0.29805684 0.14414892 0.026471991
000150 01 70 69 be ac 05 2a 3d f5 b9 ec 3d 3c 52 1e bd
       -0.22796632 0.041509315 0.11558906 -0.038652644
000160 0c 7a 85 3d 6d 9a be 3e 59 a4 83 be da ec 96 be
       0.06517419 0.37227193 -0.25711325 -0.29477578
000170 1d 89 4a 3d 9d 01 a9 be 5d 79 8f 3d df f7 32 3e
       0.049447168 -0.33009043 0.0700557 0.17477368
000180 86 a0 21 bd 78 22 45 bd 4a 19 a3 3e 24 18 ab bd
       -0.039459728 -0.048128575 0.31855232 -0.08354214
000190 85 a5 eb bc 04 d9 fd 3d b8 48 b5 bc f9 32 ac 3d
       -0.02876545 0.12394908 -0.022129402 0.0840816
0001a0 5f 84 86 be 5a be e0 3c 52 6d 14 be df 38 8b bd
       -0.26272866 0.027434517 -0.14494827 -0.06797957
0001b0 e0 77 f0 3b 06 b1 6b 3d 0e 1f 31 bd 32 ce e3 bd
       0.007338509 0.05754187 -0.043242507 -0.11123313
0001c0 9e d7 39 3e 55 87 c8 bc ff 93 0d be 9d 5c 18 be
       0.18148658 -0.024478594 -0.13825987 -0.14879079
0001d0 ac b4 10 3b 37 fd 30 be 40 0c 9f bd 84 01 bf 3c
       0.0022080345 -0.17284094 -0.077660084 0.023316152
0001e0 26 27 43 3e c9 78 68 bd 97 f1 fd 3d 37 27 92 3e
       0.19057903 -0.056755815 0.12399595 0.28545544
0001f0 0b 6b 8a 3c 33 02 45 be 26 79 44 be b7 74 3b bd
       0.016896745 -0.1923912 -0.1918684 -0.045765605
000200 7b bc 59 be 4c 3f 48 bd 5a 25 1b be 03 ff c4 bc
       -0.21263306 -0.04888849 -0.15150967 -0.02404738
000210 89 53 a6 be 06 e0 2a 3e ef b5 03 be 11 fa c6 3e
       -0.32485607 0.1668702 -0.12862371 0.3886266
000220 5f 3a d7 bd 21 a9 6d 3d 55 fb 14 3e 10 3b 67 3d
       -0.1050918 0.058022622 0.14549 0.05645281
000230 67 83 51 3e b2 4c 10 3b 14 e8 9b bd fb f8 4f 3e
       0.20460282 0.002201837 -0.07612625 0.20309822
000240 a1 f4 69 3e f3 0a 8d bc a2 a5 ba bd e7 b6 cc 3c
       0.22847225 -0.017217135 -0.09113623 0.024989558
000250 b0 cf 78 3d de c5 92 be 3e 71 e3 3c 7a d6 ea 3d
       0.06074494 -0.28666586 0.027763959 0.114666894
000260 14 4a 93 bc 21 d1 33 3e 5d fa 10 3c 05 af 3d 3d
       -0.01797966 0.17560245 0.008848754 0.04630949
000270 ad a1 2d 3e a5 59 24 be 99 47 e0 bd 84 6b 48 3d
       0.16956206 -0.16049822 -0.10951156 0.04893066
000280 f3 c8 d1 bc ad a2 5c be 65 d9 4d be 78 15 31 3d
       -0.025608515 -0.21546431 -0.2010246 0.043233365
000290 f9 36 a2 39 4d 48 1f 3e 02 87 40 be 62 d7 92 be
       0.00030940006 0.15554924 -0.18801501 -0.2867995
0002a0 be 37 1e 3e 83 c7 28 3c b9 1b 48 be b0 ae 46 3c
       0.15450951 0.010301474 -0.19541825 0.01212661
0002b0 f3 ea cc 3d 9d 99 28 3e 64 87 ee 3d 6a 26 02 be
       0.100057505 0.16464849 0.116469175 -0.12709966
0002c0 f6 f7 76 be ce fd 8f 3c d5 9c af 3d e7 13 e7 3c
       -0.24118027 0.017577078 0.08574835 0.028207732
0002d0 f6 8e ab be 33 2c f9 bd 33 4e 6d be fe 94 e0 bb
       -0.33507508 -0.121666335 -0.23174362 -0.0068536988
0002e0 e7 4e 02 be 70 19 60 bc 4f e7 b6 3d 20 d8 9d be
       -0.12725411 -0.01367794 0.08930837 -0.30828953
0002f0 5b f6 93 be 63 e6 26 be 42 fc 03 be 09 8b 73 be
       -0.28898892 -0.16298823 -0.12889197 -0.23783506
000300 b8 56 5d 3d 04 e2 22 be 78 3a 83 3d 1f ee 24 3e
       0.05403778 -0.1590653 0.064076364 0.16106461
000310 cd 0e 41 bd 96 6e 55 be 0a 0f b3 3e 0c 10 21 3e
       -0.047133256 -0.20842966 0.3497241 0.15728778
000320 76 64 93 3d bf 7e 16 be 2e e7 22 be 83 89 13 3e
       0.07196896 -0.14696787 -0.159085 0.14407925
000330 86 09 44 be 47 73 d7 3d 2f 69 30 3c c6 0b 3c 3e
       -0.19144258 0.10520034 0.010767265 0.18363866
000340 71 19 3f 3d 1a 9d 13 be 11 c5 ff bb e3 d6 82 3c
       0.046655122 -0.14415398 -0.0078054746 0.015971607
000350 1f 2a 31 be ce f6 39 3e 20 eb 96 bd c2 83 55 3e
       -0.17301224 0.18160555 -0.07369065 0.20851043
000360 cf 07 e1 bb 84 13 15 be 46 2d 87 bc d1 ed 43 3e
       -0.006867386 -0.14558226 -0.01650108 0.19133689
000370 c6 a4 25 be 60 01 4d 3d fc b0 50 bd 27 4d 35 3d
       -0.16176137 0.05005014 -0.050950035 0.04426303
000380 2a 93 e2 3d 53 95 4d 3d 3c b8 4b be 34 ef d5 bd
       0.110632256 0.050191235 -0.19894499 -0.10446015
000390 94 11 90 3e db 49 05 3d f3 86 24 3c cf a6 82 bd
       0.2813841 0.032541137 0.01004194 -0.063794725
0003a0 42 fe 78 3e 5b f1 b6 3d bd 67 00 3d 70 2b 25 3e
       0.24315742 0.08932754 0.031348933 0.16129851
0003b0 45 0a 88 bd 7a 32 53 be 9d 74 d1 bd a6 20 32 be
       -0.06642584 -0.20624724 -0.1022732 -0.17395267
0003c0 e1 d5 44 3e dd a3 44 be 7f c2 84 bb 9b 0d 3b 3e
       0.19222213 -0.19203134 -0.004051506 0.18266909
0003d0 36 73 e2 bd a1 07 50 bb 97 73 34 3e 0a cc 24 3d
       -0.11057131 -0.0031742828 0.17622219 0.04023365
0003e0 2f c7 6f 3e 0f 83 51 3d b6 cb 3c bd 28 9c 5e 3c
       0.23415826 0.051150378 -0.04609271 0.013587035
0003f0 6e a7 03 bd ff a7 0a 3d 95 b2 1e 3c 24 e5 4e be
       -0.032142095 0.03385162 0.009686132 -0.20204598

blocks.2.conv2.bias f4 [16]
000000 d8 4c 89 bc 70 87 e0 3d dd eb 97 be ef e5 50 3d
       -0.016760275 0.10963333 -0.29672137 0.05100053
000010 5b ee 61 3e fc 2c 4c 3e 73 2d 20 3e d4 f5 65 be
       0.22063582 0.19939035 0.15642338 -0.22457057
000020 48 1b f1 3d 7f 78 ff bd 71 a8 6e bd 0b 65 9c be
       0.117727816 -0.12474155 -0.058266107 -0.3054584
000030 4e e6 af 3c 35 75 b7 bd 8d 6f 3f be 4a cc 45 be
       0.021472123 -0.08957902 -0.18694897 -0.19316211

blocks.2.conv2.weight f4 [16, 16, 1, 1, 1]
000000 32 08 46 3e f0 47 c8 be 7a 86 89 3e 6e 4b ed be
       0.19339064 -0.39117384 0.2686041 -0.4634661
000010 db a2 45 bd f5 98 74 3d 2a e6 3e be de ca 91 3e
       -0.048251014 0.059716184 -0.18642488 0.28475088
000020 fe f9 a1 bd 77 aa 04 be 4e 97 23 be 1b f7 9d bd
       -0.0790901 -0.12955652 -0.15975687 -0.07713147
000030 f1 2e f9 bd 2e 9d b7 3d 49 74 11 3d db de 09 3e
       -0.121671565 0.089655265 0.03551129 0.13463919
000040 8d 2a a1 bd dd d9 09 3e 3b 23 ae bd 1a b6 ad be
       -0.07869444 0.13462014 -0.085028134 -0.33927995
000050 75 a7 42 3e 8f b1 46 be de fb 3f be f9 62 ef 3d
       0.19009192 -0.1940367 -0.18748423 0.116887994
000060 a4 12 88 3c 10 cd 9d 3b 25 95 2e be 12 dd 4b be
       0.016610451 0.004815705 -0.17049082 -0.1990855
000070 54 49 81 bd ed 54 5a 3e fe d3 3e be 5a af bf bd
       -0.06312814 0.21321459 -0.18635556 -0.093596175
000080 16 69 1c 3c fb 2c 85 3c 68 9c 31 be f0 9f 2b 3e
       0.009546539 0.0162568 -0.1734482 0.1676023
000090 3e ba 5f be 12 07 69 be df 19 13 bd 89 55 0a be
       -0.2184839 -0.22756603 -0.035913344 -0.13509192
0000a0 88 d7 ed bc fd 98 51 3e 37 9f 59 be 40 70 1f be
       -0.029033437 0.20468517 -0.21252142 -0.15570164
0000b0 48 67 8c 3e f7 ff 82 3c 73 19 0f 3e d5 2e 8d be
       0.27422547 0.015991194 0.13974552 -0.27574793
0000c0 84 bd 45 bd a6 f0 c8 be ba ea 21 3d 9c 78 2c 3d
       -0.04827644 -0.392461 0.039530493 0.04210721
0000d0 b1 38 48 3e 42 ae 01 3e 83 45 22 bd 83 7a d7 bd
       0.19552876 0.1266413 -0.039617073 -0.10521414
0000e0 23 64 85 be 96 2c 04 3e 25 a4 85 3e c3 d7 0e 3e
       -0.2605296 0.12907633 0.26101795 0.13949494
0000f0 6d db 76 be 53 2c 9f 3d 6e 48 f4 3d a0 90 36 bb
       -0.24107142 0.07772126 0.11927877 -0.00278572
000100 24 78 96 3d 47 2a 5c be a5 57 5a be 76 19 5d 3e
       0.07347134 -0.21500503 -0.21322496 0.21591744
000110 e2 9d 7f 3e 52 cf f8 bb 5c 90 c1 bd 10 9f cc 3d
       0.24962571 -0.007593074 -0.094513625 0.09991276
000120 90 76 0d 3e f9 74 5c 3e 01 61 b3 3d 9b 58 2a 3d
       0.13814759 0.21528997 0.087587364 0.041588407
000130 b6 86 ad be ec f8 b4 3e b7 e4 c3 ba 19 06 85 3e
       -0.3389184 0.35346162 -0.0014945482 0.25981215
000140 0d 9c 7b 3e 59 71 aa be a9 d4 0f bb 59 13 15 bb
       0.24571247 -0.33289602 -0.0021946824 -0.0022747128
000150 fc a6 1a bc 46 d3 a1 3e 76 fd ea bd 0e a6 93 3e
       -0.009439226 0.316065 -0.11474125 0.28837627
000160 52 bd ca bd 23 93 ec bd 76 b8 b8 bd 75 d3 07 3e
       -0.09899391 -0.115515016 -0.09019558 0.13264258
000170 36 a7 13 3e ee bd 4f 3d f4 bb 1a be a7 12 58 3e
       0.14419255 0.05071824 -0.15110761 0.21100865
000180 be 63 73 be 50 5b 76 bd 01 26 2d 3e b3 bd 05 bf
       -0.23768517 -0.060145676 0.16909029 -0.52242583
000190 d1 8b 20 be e1 03 9b 3e 3b 5b 23 bd 36 3a 07 bd
       -0.15678336 0.30276397 -0.039881926 -0.0330145
0001a0 fb 4b 24 be 71 a3 66 3e 94 ce 1e 3e fc a7 96 3c
       -0.16044609 0.22523285 0.15508491 0.018390648
0001b0 8d 91 a6 3e fa 6d 71 be f8 ed 1e 3e 19 f5 07 bd
       0.3253292 -0.23577109 0.15520465 -0.033192728
0001c0 32 b2 69 3e dd ef 75 3c ab 7f 3d bd 0e ac 27 3a
       0.22821882 0.015010801 -0.04626433 0.00063961826
0001d0 a2 90 3a 3e 42 96 a9 be 08 ee 85 3d 3e a7 06 3e
       0.18219236 -0.3312245 0.065395415 0.13149735
0001e0 62 64 ee 3d 49 b6 4b 3e f0 ec b2 3d e7 02 0b be
       0.1164024 0.19893755 0.087365985 -0.13575326
0001f0 37 6b fb bc 41 ae b0 3d 89 82 c6 3d 6e d7 99 bc
       -0.030690772 0.08626986 0.09692866 -0.018779483
000200 98 78 f1 3d 23 42 80 bd c0 77 b6 3d 3d 88 d0 bd
       0.117905796 -0.062626146 0.08909559 -0.101822354
000210 75 c7 84 3e af 1d 4b bd 16 6f 2d be e3 0c ad bd
       0.25933424 -0.049588855 -0.16936907 -0.084497236
000220 3a 4d 9d 3e bc b3 4b 3e d6 06 2c be 2e 86 23 be
       0.30722982 0.19892782 -0.16799483 -0.15969154
000230 35 7e 7e 3c cc 3a a9 3e 06 eb 86 3d 93 6f 84 3e
       0.01553302 0.3305267 0.06587796 0.25866374
000240 ff 81 00 3e a1 25 27 3d 81 04 6a 3e 76 55 bf be
       0.1254959 0.04080737 0.2285328 -0.3736989
000250 2f ee 0e 3e 17 db 65 3e 5d 08 6a 3e 6b 14 47 3e
       0.13958047 0.22446857 0.22854753 0.19441383
000260 e9 32 ed 3d 46 cb 37 3e 67 6d 0e 3e ce b5 6d 3e
       0.11581976 0.17948636 0.13908921 0.23213884
000270 9e 59 0e 3e 4e 5e a6 3d b9 e5 6d 3d 65 e2 02 3e
       0.13901374 0.08123456 0.05808041 0.12781675
000280 3d c9 c2 3d 73 8d 92 be b6 93 eb bd 66 29 31 be
       0.095110394 -0.28623542 -0.11502783 -0.17300949
000290 5b de ac 3e 69 82 da 3d cf 0b c1 bd 30 a7 7e bd
       0.33763394 0.10669405 -0.094260804 -0.06217116
0002a0 cb 75 d4 3e 28 13 71 be b6 15 40 be e9 81 09 3d
       0.4149612 -0.23542464 -0.18758282 0.033571158
0002b0 3a 0e 40 3d 98 6c 98 3e ca c7 fe 3d 08 13 ce bd
       0.046888568 0.2977035 0.124404505 -0.10062224
0002c0 90 9e a5 3d bd 1e b9 be 16 83 02 3e 18 0c 01 be
       0.08086884 -0.36156264 0.12745318 -0.1260227
0002d0 e0 b4 54 be e0 e6 56 be 81 c8 8e bc e3 57 2e 3e
       -0.20772123 -0.2098651 -0.017429592 0.17025714
0002e0 f2 e3 bb be be b1 93 be b9 3a 15 3e cf 35 b2 3b
       -0.36697346 -0.28846544 0.14573182 0.0054385434
0002f0 ef 58 2f be 12 0c 00 3e 09 17 cd bd 00 50 6b 3d
       -0.17123769 0.12504604 -0.10014159 0.05744934
000300 8c cb 9e 3e 2c c2 a0 bd 74 a8 5b 3c 65 c8 8a bd
       0.3101467 -0.07849535 0.013406862 -0.067765035
000310 c2 a5 a7 3e d0 cc 05 be 7c 22 2f be 3d eb b0 bd
       0.3274365 -0.13066411 -0.17102998 -0.08638618
000320 b3 e9 56 3e 13 1b 81 be 90 41 ae 3c e6 76 a9 be
       0.20987587 -0.25215968 0.021271497 -0.33098525
000330 d2 4f 26 3e 94 02 24 3e 09 85 66 3e 7b bc 6c 3e
       0.16241387 0.16016608 0.22511686 0.23118775
000340 7a af 3a bd 62 63 39 3e c5 2b d1 3d ec 8c e3 bc
       -0.045577504 0.18104318 0.102134265 -0.027777158
000350 e0 53 83 3d 5b b2 88 be 53 54 34 3e e8 61 8e be
       0.06412482 -0.26698574 0.17610292 -0.27809072
000360 cd 16 91 be 99 8d f2 ba 8f 1e b0 3d a1 e3 ce 3d
       -0.28337708 -0.0018505334 0.085995786 0.101020105
000370 98 f1 db 3d d8 36 21 bd 09 10 83 bd a5 67 b9 bd
       0.1073944 -0.039358944 -0.06399543 -0.09052972
000380 cd 7e 69 3e 71 59 82 be a2 75 ed bc 0d 6d 55 3e
       0.22802277 -0.25458863 -0.028986756 0.20842381
000390 6d ae 10 3e 63 12 dc 3d 67 98 b4 bd 1d 66 9d 3d
       0.14129038 0.107456945 -0.08818131 0.07685492
0003a0 44 5e 4c 3d c8 ef f2 bb e8 6d 14 3e 48 d7 1a ba
       0.049894586 -0.007413838 0.14495051 -0.0005906713
0003b0 4e d9 74 be c8 ec cb 3c 93 2c 8d bd 36 4b 6e bd
       -0.2391102 0.02489318 -0.068932675 -0.058177195
0003c0 0b 84 79 be 98 a6 83 3d 45 66 95 be 0e 85 ac 3e
       -0.24366777 0.064282596 -0.29179588 0.33695263
0003d0 ba ed 95 3e 0e 4f ab 3c ae 70 fb bd 31 93 d4 3c
       0.29282933 0.02091172 -0.12277351 0.025949093
0003e0 73 bd b0 bd 4b 64 0f be 33 92 3e 3d 1b 9f 9c bd
       -0.086298846 -0.14003102 0.046526145 -0.076475345
0003f0 ef aa 3d be 20 58 09 3e 67 25 09 3e 93 a6 ab 3d
       -0.18522237 0.13412523 0.13393174 0.08381381

blocks.2.norm1.bias f4 [16]
000000 10 60 a0 bb 19 3d 98 3d 08 c5 80 bc 6d 0f 8a 3c
       -0.004894264 0.074335285 -0.015718952 0.016853059
000010 c2 dd 4c 3e 0b 97 86 3d e1 9b dc 3d 88 53 5e 3e
       0.20006469 0.06571778 0.10771919 0.21711552
000020 7f 10 d3 3d 84 c4 af 3d 9d 5e db bc 42 11 18 3d
       0.10305881 0.08582404 -0.026778514 0.037125833
000030 85 a9 30 bd 20 04 c4 bc 9a 49 f8 3d ae de b0 3d
       -0.043130416 -0.023927748 0.121234134 0.08636223

blocks.2.norm1.weight f4 [16]
000000 a3 e2 6c 3f 96 21 67 3f 9a 67 5c 3f b6 89 7c 3f
       0.9253332 0.90285623 0.86095583 0.9864763
000010 7d a9 82 3f 52 b7 75 3f e3 73 77 3f dc 7c 88 3f
       1.0207974 0.9598285 0.96661204 1.0663104
000020 d6 d1 77 3f a6 5b 45 3f cf e5 83 3f 2c 13 82 3f
       0.9680456 0.7709297 1.0304507 1.0162101
000030 23 b0 5f 3f 37 19 6f 3f c0 9d 5c 3f c0 ec 6c 3f
       0.8737814 0.9339785 0.8617821 0.9254875

blocks.2.norm2.bias f4 [16]
000000 8f ad f1 3d a8 cc 4b 3e a4 d6 d9 3d db 8b 8a 3e
       0.11800682 0.19902289 0.106366426 0.27059826
000010 ad 31 bd 3d a3 1d 3c 3e 58 3c 31 3d b3 0c b8 3d
       0.092379905 0.1837068 0.04327044 0.08986797
000020 d7 a1 6d 3e 73 11 4d 3d f3 44 8c bd 72 33 16 3e
       0.23206268 0.05006547 -0.068490885 0.14668062
000030 3b 96 68 3d da 38 34 3e 6c 7e 86 bd 75 f2 b5 3d
       0.056783896 0.17599812 -0.06567082 0.08884136

blocks.2.norm2.weight f4 [16]
000000 c8 07 90 3f e3 be 9a 3f 01 12 8e 3f d8 61 af 3f
       1.1252375 1.2089504 1.1099244 1.3701735
000010 49 29 8c 3f 0c 1b 98 3f f6 39 73 3f 06 02 8c 3f
       1.0950099 1.1883254 0.95010316 1.0938118
000020 d9 03 9c 3f cb 1e 80 3f d4 98 6f 3f 33 1c 8b 3f
       1.2188674 1.0009397 0.9359257 1.0867981
000030 22 96 89 3f 6b 79 91 3f 7e 10 5b 3f 0f e8 8c 3f
       1.0748942 1.1365179 0.8557204 1.1008319

in_proj.bias f4 [16]
000000 75 50 a6 bd 66 ca d3 bd 2a 3d 40 3d c9 60 39 3e
       -0.08120815 -0.10341339 0.04693333 0.18103327
000010 7f 7a 1a 3e c7 cd ab bb 14 64 49 be 2b 10 4f be
       0.15085791 -0.0052430364 -0.19667083 -0.20221011
000020 b6 f8 50 3e a3 ce 5f be 30 20 a7 bd e0 cb e6 bd
       0.20407376 -0.2185617 -0.08160436 -0.11269355
000030 73 71 cd bd 03 75 0a be e6 56 b1 bd fd c3 a5 be
       -0.10031404 -0.13521199 -0.08659153 -0.3237609
