adapter_hunyuan_to_kvae3d.safetensors (safetensors, 11736 bytes, 28 tensors)

blocks.0.conv1.bias f4 [16]
0	0xbd00aad3	-0.03141291
1	0xbe1e65ea	-0.15468565
2	0xbcc5492a	-0.024082739
3	0xbe4b16f4	-0.19832975
4	0x3df813d8	0.1211316
5	0x3dc2e60d	0.09516535
6	0xbd288b55	-0.041148502
7	0xbe1fa51d	-0.1559033
8	0xbdce505b	-0.1007392
9	0x3e0af5ad	0.1357028
10	0x3d55b8b0	0.052178085
11	0x3e0bdb73	0.13657932
12	0x3d389b2d	0.045069862
13	0x3e1bd073	0.15216236
14	0xbe614485	-0.21998794
15	0xbc6803f6	-0.014161101

blocks.0.conv1.weight f4 [16, 16, 1, 1, 1]
0	0xbe274cdc	-0.16337913
1	0xbe2e1520	-0.17000246
2	0x3e172a06	0.14762124
3	0x3ddf5e01	0.10906602
4	0xbc0b5d5f	-0.008506148
5	0xbd7c8023	-0.06164564
6	0xbbead67a	-0.007166681
7	0x3e758a0c	0.23978442
8	0xbdabc726	-0.08387594
9	0x3e45fd58	0.19334924
10	0xbe9706ab	-0.29497275
11	0xbbe9210e	-0.007114536
12	0xbe13bf0b	-0.14428346
13	0xbe3941d2	-0.18091515
14	0xbe991f0b	-0.29906496
15	0x3e6b9427	0.23005734
16	0x3e4f8672	0.2026613
17	0x3e01c040	0.12670994
18	0x3cba5779	0.022746788
19	0xbe860889	-0.26178387
20	0x3da51afe	0.08061789
21	0xbcd78552	-0.02630869
22	0xbda20824	-0.07911709
23	0x3e5deca5	0.21672304
24	0x3c5b144d	0.013371539
25	0x3dff4026	0.12463407
26	0x3dcae2a2	0.09906508
27	0x3e2485f9	0.16066732
28	0xbe224911	-0.15848185
29	0x3a0c3522	0.00053484936
30	0xbdc2fac7	-0.09520488
31	0xbdc25515	-0.09488884
32	0xbda35fb7	-0.079772405
33	0x3de95b57	0.11394375
34	0xbe17a0d0	-0.14807439
35	0xbe55ffd1	-0.20898367
36	0x3b310990	0.0027013756
37	0x3d97516c	0.07388577
38	0x3e43eae1	0.19132568
39	0xbe04e2ed	-0.1297719
40	0x3daf5e67	0.08562928
41	0xbe14f822	-0.1454778
42	0x3e32ff54	0.17480212
43	0xbe2daa57	-0.1695951
44	0x3d07ab62	0.033122428
45	0x3b1eb449	0.0024216345
46	0x3e21d775	0.15804847
47	0xbda49558	-0.080362976
48	0xbd798c71	-0.06092495
49	0x3d326a7a	0.043558575
50	0x3be289ef	0.0069134156
51	0xbdf81651	-0.121136315
52	0x3dcc4e72	0.099759
53	0x3d87f86a	0.06639178
54	0x3d3ab4fa	0.04558275
55	0x3e68364a	0.2267696
56	0xbd9bfb12	-0.07616247
57	0xbe4543e4	-0.1926418
58	0x3de4d54a	0.11173494
59	0x3c8b9e0e	0.01704314
60	0xbd70af4f	-0.058760937
61	0x3d6da17f	0.058015343
62	0x3e360e98	0.17779005
63	0xbe95e080	-0.29272842
64	0x3c8a0587	0.016848339
65	0x3e37a779	0.1793498
66	0x3d9fd18f	0.07803642
67	0xbe35506b	-0.17706458
68	0x3d83391f	0.06407379
69	0xbdad4b2a	-0.08461602
70	0x3e5486d8	0.20754564
71	0xbcdadea5	-0.026717493
72	0x3d57d1d9	0.05269036
73	0xbc8bfcb0	-0.017088264
74	0xbc6e6c21	-0.014552147
75	0xbe30d031	-0.17266919
76	0xbde4f716	-0.111799404
77	0xbdbd1ae4	-0.092336446
78	0xbdefccdc	-0.11708996
79	0x3e513280	0.2042942
80	0xbe1614f9	-0.14656438
81	0xbda10232	-0.07861747
82	0xbd69adc7	-0.057050493
83	0xbe0bbdd5	-0.13646634
84	0x3d24cbd0	0.040233433
85	0xbe4357af	-0.19076417
86	0x3c4ad0f2	0.012378918
87	0x3e90b9a5	0.28266636
88	0xbd6bddd1	-0.057584587
89	0xbca75833	-0.020427799
90	0x3d68e3f0	0.056858003
91	0xbd57422f	-0.052553352
92	0x3e8c02d3	0.27345905
93	0x3d32af86	0.043624423
94	0xbd79c805	-0.06098177
95	0x3e322282	0.17395976
96	0x3e085fc8	0.13317788
97	0xbe26875b	-0.16262572
98	0x3e13168b	0.14364068
99	0xbd1af634	-0.037832454
100	0x3e14843f	0.14503573
101	0xbc224190	-0.009903327
102	0x3dd76e8e	0.105191335
103	0xbe052eb0	-0.13006091
104	0x3e5a13b7	0.21296583
105	0xbdce6f8a	-0.10079868
106	0xbd079ac0	-0.033106565
107	0x3c500d20	0.012698442
108	0x3e6ce777	0.23135172
109	0xbd464c5c	-0.048412666
110	0x3dacc614	0.08436218
111	0x3d2c4bff	0.042064663
112	0x3e493800	0.19650269
113	0x3dfa74e7	0.122293286
114	0x3e83a862	0.25714403
115	0xbe5e7722	-0.21725133
116	0x3dadd145	0.084871806
117	0xbea7fd83	-0.32810602
118	0x3de9bb7a	0.114127114
119	0x3e1748d6	0.14773878
120	0xbdb53b5a	-0.08849211
121	0x3e0ab84e	0.13546869
122	0x3cadf7d1	0.021236332
123	0x3da9fd4e	0.08300267
124	0x3cb0ecad	0.02159723
125	0x3dac98a9	0.08427555
126	0xbe1d6732	-0.15371397
127	0x3e0d045e	0.13771197
128	0x3dba29b3	0.09089985
129	0x3d75dda6	0.060025834
130	0x3e91d961	0.2848616
131	0x3cd146b7	0.025546415
132	0x3e2eadbd	0.17058463
133	0x3d2843b7	0.041080203
134	0xbe707d76	-0.2348536
135	0xbc3e3bf2	-0.011610972
136	0x3e593c85	0.21214493
137	0xbe5f67a3	-0.21816878
138	0xbdfd5782	-0.123702064
139	0x3d4d54cb	0.050129693
140	0xbe294fb9	-0.16534318
141	0x3e0dd66f	0.13851331
142	0xbe9da0ff	-0.30786893
143	0xbd6afcff	-0.057370182
144	0xbd58617e	-0.05282735
145	0xbe014ddd	-0.12627359
146	0xbe0f0616	-0.13967165
147	0x3af781c0	0.0018883273
148	0x3d15ff71	0.03662056
149	0xbd9aa9db	-0.075519286
150	0x3ad780d0	0.0016441587
151	0xbd9c366f	-0.0762757
152	0x3e60de3d	0.21959777
153	0xbde8a9b3	-0.113604926
154	0xbe9ad05a	-0.30237085
155	0xbe6f11f3	-0.23346691
156	0x3e15ebb2	0.14640692
157	0xbde632ad	-0.112401344
158	0xbd470b0b	-0.048594516
159	0xbd275517	-0.040852632
160	0xbe6bb9ee	-0.23020145
161	0x3e01cb01	0.12675096
162	0x3e0ea172	0.13928774
163	0x3e4d0096	0.20019755
164	0xbdaf31a4	-0.0855439
165	0xbdcddb4e	-0.10051595
166	0xbe32114b	-0.17389409
167	0xbe03bdec	-0.12865418
168	0xbd762ee7	-0.060103323
169	0xbd2fd168	-0.042924315
170	0x3da1e4d8	0.079049766
171	0x3d921990	0.07133782
172	0xbe9f227a	-0.3108099
173	0xbd5d1a68	-0.05398026
174	0x3e36f7f3	0.17868023
175	0xbe41e7b9	-0.18936051
176	0xbda77a85	-0.081776656
177	0x3c97b83b	0.018520465
178	0x3e83e23f	0.2575855
179	0x3ce618d4	0.02808801
180	0xbdc68dd6	-0.09695022
181	0xbd8b898b	-0.068133436
182	0xbe15944c	-0.14607352
183	0x3e607083	0.2191792
184	0x3e6cd9bf	0.23129939
185	0x3db59d46	0.08867888
186	0xbe3f27c3	-0.18667512
187	0xbc88b45f	-0.01668757
188	0x3e1985d4	0.14992458
189	0x3d2eb82b	0.042656105
190	0xbd1b7c40	-0.03796029
191	0xbe3c2f63	-0.18377452
192	0xbe59b035	-0.21258624
193	0x3d06db4c	0.03292398
194	0x3da9a489	0.08283336
195	0x3e1044f8	0.1408881
196	0x3e09404a	0.1340343
197	0xbdd1a298	-0.102360904
198	0xbdefe9bc	-0.11714503
199	0xbd2fac00	-0.04288864
200	0x3d5cae7f	0.05387735
201	0x3e2c5e44	0.16832834
202	0xbe3fb12c	-0.1871993
203	0xbe4305de	-0.19045207
204	0x3e85aa2f	0.26106402
205	0x3e2aaed1	0.1666825
206	0xbe057caa	-0.13035837
207	0xbd02c932	-0.031930156
208	0xbe37378b	-0.17892282
209	0xbe2a197e	-0.16611287
210	0x3e04820e	0.12940237
211	0xbe3f56bb	-0.18685429
212	0xbd034ff1	-0.03205866
213	0x3d417a89	0.047236
214	0x3c685985	0.014181499
215	0xbc8c90ff	-0.017158983
216	0xbd7cb290	-0.061693728
217	0xbcec127e	-0.028817412
218	0x3e777605	0.24166115
219	0x3ddc7f2f	0.10766446
220	0xbe3bd7a5	-0.1834398
221	0xbe285b63	-0.16441111
222	0xbd497e68	-0.049192816
223	0x3cbe6c49	0.023244994
224	0xbd858b48	-0.065207064
225	0xbe8b6b66	-0.27230376
226	0xbd901366	-0.0703495
227	0x3e50b2ca	0.20380703
228	0xbe8e7fc7	-0.2783186
229	0x3d1f64f0	0.03891462
230	0xbdc1e300	-0.09467125
231	0x3e3821c3	0.17981629
232	0xbb2f3d6f	-0.0026739498
233	0xbe5b3fc8	-0.2141105
234	0x3c827537	0.015925033
235	0x3d852d38	0.065027654
236	0x3df3cd9e	0.11904453
237	0x3dc6d768	0.09709054
238	0xbe3650e0	-0.17804289
239	0x3d13a797	0.036048498
240	0x3e66bbfe	0.22532651
241	0xbd7826dc	-0.060583934
242	0xbdd5198e	-0.10405265
243	0x3e542763	0.2071815
244	0xbc918584	-0.01776386
245	0x3d70518f	0.05867153
246	0xbcd3069f	-0.025759993
247	0xbd9744a9	-0.07386143
248	0xbcb40ede	-0.021979745
249	0x3d54b953	0.05193455
250	0xbdb61fe8	-0.088928044
251	0x3dc37d6e	0.09545408
252	0x3d28212d	0.041047264
253	0xbe9301eb	-0.287124
254	0xbcc46045	-0.023971686
255	0xbddd4f79	-0.10806174

blocks.0.conv2.bias f4 [16]
0	0x3e89bf40	0.26903725
1	0xbd3f78b7	-0.046745982
2	0xbdb94113	-0.09045615
3	0x3dd8bad9	0.10582513
4	0xbe2024f3	-0.15639095
5	0x3a0ea5a6	0.00054415537
6	0x3e2c9c55	0.16856511
7	0xbccb112b	-0.02478846
8	0xbe0f6bed	-0.14006014
9	0x3d836b23	0.06416919
10	0x3e0dcd5a	0.13847867
11	0x3dfa4976	0.12221043
12	0x3d9c77fb	0.07640072
13	0x3d1fe39d	0.03903543
14	0x3d25e87f	0.04050493
15	0x3e4e6d6a	0.20158926

blocks.0.conv2.weight f4 [16, 16, 1, 1, 1]
0	0x3dfe5e02	0.12420274
1	0xbd7c4917	-0.06159314
2	0xbe535182	-0.20636562
3	0xbe448c4d	-0.19194146
4	0xbc6df0d3	-0.014522749
5	0xbdde3705	-0.10850338
6	0x3e235649	0.15950884
7	0x3e2860b3	0.16443138
8	0x3c971741	0.018443706
9	0xbe3dc9c6	-0.18534002
10	0xbdbf94e9	-0.09354574
11	0x3de1e056	0.11029117
12	0x3e204953	0.15652971
13	0x3de124e5	0.10993365
14	0xbe29152b	-0.16511981
15	0x3dda279c	0.10652086
16	0x3e7cd01e	0.24688765
17	0x3e2937b1	0.16525151
18	0x3e5424c7	0.20717154
19	0x3e0cc1ed	0.13745852
20	0x3de13685	0.10996727
21	0x3da684de	0.08130811
22	0xbe323086	-0.17401323
23	0xbde3b5cb	-0.11118659
24	0xbdf57d63	-0.11986806
25	0x3da16db4	0.07882252
26	0x3ca1e2ed	0.019761527
27	0xbe5a9750	-0.21346784
28	0x3e895093	0.26819286
29	0x3d405cc5	0.046963472
30	0xbe600d54	-0.21880084
31	0x3deb2f4a	0.11483629
32	0xbd452917	-0.04813489
33	0xbe05c7e7	-0.13064538
34	0xbe35b94b	-0.17746465
35	0x3d711a6e	0.058863096
36	0xbe11b4ce	-0.14229128
37	0x3b66c802	0.0035214429
38	0xbe1b8858	-0.1518873
39	0xbe634c80	-0.22197151
40	0x3e51fa33	0.205056
41	0xbe8ed46b	-0.27896437
42	0x3d444a25	0.047922272
43	0xbd97320f	-0.07382595
44	0xbcc03163	-0.02346105
45	0xbe7f3a59	-0.24924602
46	0xbdcf843d	-0.10132644
47	0x3ddca50c	0.10773668
48	0x3e1bc6c9	0.1521255
49	0x3e293cdf	0.16527127
50	0x3e0941b7	0.13403974
51	0x3caca1d5	0.021073261
52	0xbdf0ed49	-0.117640086
53	0xbe813aff	-0.25240323
54	0x3e09d9c8	0.13461983
55	0xbe1b5960	-0.15170813
56	0xbe0fac14	-0.14030486
57	0xbd3bd3c7	-0.045856263
58	0x3c5ac9b2	0.013353752
59	0x3e4a1db4	0.19737893
60	0xbd88bdd7	-0.06676834
61	0xbb49cd4d	-0.0030792535
62	0x3d8ba78b	0.06819066
63	0xbdf7985d	-0.12089608
64	0xbdbbb9ca	-0.09166296
65	0xbcf32653	-0.02968136
66	0xbdafd364	-0.085852414
67	0xbe79bd6d	-0.24388666
68	0x3e14888b	0.14505212
69	0x3d198ca2	0.037487634
70	0xbe5d691c	-0.21622127
71	0x3e56d452	0.20979431
72	0xbda5ee75	-0.08102123
73	0xbe5f69cb	-0.218177
74	0xbdf4f6e7	-0.119611554
75	0xbe66b05c	-0.22528213
76	0x3d22fde2	0.039792903
77	0x3dd042c9	0.10168988
78	0xbe2690ea	-0.16266218
79	0xbe1433f9	-0.14472951
80	0xbe4e3fc0	-0.20141506
81	0x3c868bb4	0.016424038
82	0x3e3c5814	0.18392974
83	0xbda92b08	-0.08260161
84	0x3e4b3505	0.19844444
85	0xbdac3b88	-0.08409792
86	0xbe44f82c	-0.19235295
87	0xbcb7bda0	-0.022429287
88	0xbd1b0d4e	-0.037854485
89	0xbe70d775	-0.2351969
90	0x3b1a2fe6	0.0023527085
91	0xbd537edb	-0.05163465
92	0x3db0677a	0.086134866
93	0x3e01962f	0.12654947
94	0x3e123462	0.14277795
95	0xbd36f43c	-0.044666514
96	0xbdc8c4bc	-0.09803149
97	0xbdb5cbaa	-0.088767365
98	0x3d1a3565	0.037648577
99	0x3cbc950b	0.023020288
100	0x3d9e8d2a	0.07741769
101	0x3d74472c	0.059638187
102	0xbb96ea42	-0.0046055624
103	0x3e025c93	0.12730627
104	0x3e41e635	0.18935473
105	0xbe157e61	-0.14598991
106	0x3d95a00e	0.07305919
107	0xbc176738	-0.009240918
108	0xbe318a05	-0.17337807
109	0xbdc31dc9	-0.095271654
110	0xbe4477a0	-0.19186258
111	0xbdc45a98	-0.09587592
112	0xbe48cb75	-0.19608863
113	0x3e737e1c	0.23778576
114	0x3e5544ad	0.20826979
115	0x3e819fe1	0.2531729
116	0xbe21a7e1	-0.15786697
117	0xbd341e8d	-0.043974448
118	0xbc7c29f1	-0.015390859
119	0xbdd5a8ef	-0.10432612
120	0xbe06877d	-0.13137622
121	0x3d965f01	0.07342339
122	0x3debde3a	0.11516996
123	0xbe1b4d4e	-0.15166208
124	0xbe44b68f	-0.19210266
125	0x3e286fa4	0.16448838
126	0xbe9d8d95	-0.3077208
127	0x3e1812f6	0.14850983
128	0x3e48e6ce	0.19619295
129	0xbd43bf61	-0.047789935
130	0xbdd60038	-0.104492605
131	0xbe140835	-0.14456256
132	0xbdafdac7	-0.0858665
133	0xbddf0e71	-0.10891426
134	0xbe430808	-0.19046032
135	0x3e269301	0.16267015
136	0xbe10495b	-0.14090483
137	0x3dd8ff4c	0.10595569
138	0x3dd59ff2	0.10430898
139	0xbd6d23d9	-0.057895515
140	0xbd5c28ee	-0.05374997
141	0xbe1bec97	-0.1522697
142	0xbe522c69	-0.20524754
143	0x3e486ee5	0.19573553
144	0x3cba9d14	0.022779979
145	0x3e306715	0.17226823
146	0x3d37f7bb	0.04491399
147	0x3e337878	0.17526424
148	0xbbff9c1e	-0.007800593
149	0xbe496f19	-0.19671287
150	0xbde6db53	-0.112723015
151	0x3cb2b41a	0.021814395
152	0xbdcf2ea6	-0.10116319
153	0xbd0fde04	-0.03512384
154	0xbdcee5ff	-0.10102462
155	0x3d016e7d	0.03159951
156	0x3dceb37c	0.10092828
157	0xbe593c01	-0.21214296
158	0xbd6ca849	-0.057777677
159	0xbe586412	-0.21131924
160	0xbe273715	-0.16329606
161	0x3e1f5ace	0.15561983
162	0xbc967eb7	-0.01837097
163	0x3e2cb8c4	0.16867357
164	0xbe431e35	-0.19054492
165	0x3e9bb00d	0.30407754
166	0xbe36364c	-0.1779415
167	0x3e313b29	0.17307724
168	0xbdad1cb5	-0.08452741
169	0xbe1368cc	-0.14395446
170	0xbe505ad3	-0.20347147
171	0xbd14deaa	-0.03634516
172	0xbdcf53fd	-0.10123441
173	0x3d1fb1df	0.03898799
174	0x3d81c2f7	0.06336015
175	0xbe7a2321	-0.24427463
176	0x3e310a4d	0.17289086
177	0x3e165510	0.14680886
178	0x3e31f338	0.17377937
179	0xbe4fd8b2	-0.20297506
180	0x3e381f27	0.17980634
181	0xbdf3e4fb	-0.11908909
182	0xbe577418	-0.2104038
183	0xbe39c535	-0.18141635
184	0xbdc82e95	-0.0977451
185	0x3dda393a	0.10655446
186	0x3d9c09fc	0.07619092
187	0xbd9e5a80	-0.07732105
188	0xbe240c53	-0.16020326
189	0xbdf115e8	-0.117717564
190	0x3d82966e	0.063763484
191	0xbe01601d	-0.1263432
192	0xbdf3229a	-0.11871834
193	0x3db112ad	0.0864614
194	0xbe5d9356	-0.21638235
195	0x3e8970c5	0.2684385
196	0x3c6a681f	0.014307051
197	0x3e027248	0.12738907
198	0x3e05e598	0.13075864
199	0xbe0c07e3	-0.13674884
200	0xbe69c236	-0.22827992
201	0xbdbda566	-0.09260063
202	0x3e000bae	0.12504455
203	0xbd3e6e30	-0.0464918
204	0xbe0e0fd1	-0.13873221
205	0xbda3cff2	-0.07998647
206	0x3e4fab18	0.20280111
207	0x3c3e112a	0.011600772
208	0xbe5ddf6c	-0.2166726
209	0x3e52c172	0.20581606
210	0x3d1d15ae	0.038350753
211	0x3db7d6f6	0.089765474
212	0x3e492b36	0.1964539
213	0xbdf23fee	-0.118286
214	0x3c162065	0.009162997
215	0xbe4391cf	-0.1909859
216	0x3cc0d068	0.023536876
217	0x3e83c472	0.25735813
218	0x3e62b8d1	0.22140814
219	0xbe1211ad	-0.14264555
220	0xbabf4b4a	-0.0014594581
221	0xbbac0679	-0.005249795
222	0xbe828f03	-0.25499734
223	0xbe2baee7	-0.16765939
224	0xbe724991	-0.23660876
225	0xbc639ec2	-0.013892831
226	0x3e5c199d	0.21494146
227	0xbe05b782	-0.13058284
228	0x3d09cbc4	0.03364159
229	0xbe05e854	-0.13076907
230	0xbe2d680f	-0.16934226
231	0xbe181de6	-0.14855155
232	0xbddc0ef4	-0.107450396
233	0xbe2a5fad	-0.1663806
234	0x3ea19e6c	0.3156618
235	0x3e530b27	0.20609723
236	0xbd108902	-0.03528691
237	0xbcf56fc6	-0.029960524
238	0xbb725d24	-0.0036981786
239	0x3d9c240d	0.07624064
240	0xbcd667ea	-0.026172597
241	0x3e76b104	0.24090964
242	0x3e1617c6	0.14657506
243	0xbd2a41b0	-0.04156655
244	0x3cd0a7ec	0.025470696
245	0xbe5768f0	-0.21036124
246	0xbdc35910	-0.09538472
247	0x3dbc62aa	0.09198506
248	0x3dd961f2	0.10614385
249	0xbe2c55e7	-0.16829644
250	0xbe0fd3c4	-0.14045626
251	0xbd108022	-0.035278447
252	0x3d4f8257	0.05066141
253	0x3eafdfc4	0.34350407
254	0x3e45d373	0.19318943
255	0x3dc1eae8	0.09468633

blocks.0.norm1.bias f4 [16]
0	0x3d784edc	0.06062208
1	0x3cec6802	0.028858189
2	0xbcda5ff1	-0.026657077
3	0xbc6e64dc	-0.014550414
4	0x3d9fc889	0.07801921
5	0x3dc9dd65	0.09856681
6	0xbc1fb504	-0.009747747
7	0xbd6c2d57	-0.057660427
8	0x3d2c3147	0.042039182
9	0xbd143bd9	-0.036189888
10	0x3dd60d9f	0.10451817
11	0x3dcf5e4c	0.101254076
12	0xbccbeef7	-0.02489422
13	0xbda4df81	-0.080504425
14	0x3e25cefd	0.16192241
15	0xbd660cec	-0.056164667

blocks.0.norm1.weight f4 [16]
0	0x3f813489	1.0094157
1	0x3f7c9f8e	0.9868096
2	0x3f73edba	0.95284617
3	0x3f7aefc5	0.9802211
4	0x3f867af9	1.0506278
5	0x3f8154f8	1.0104055
6	0x3f7343e3	0.9502546
7	0x3f741a5c	0.9535272
8	0x3f72314c	0.9460647
9	0x3f7013e7	0.9378037
10	0x3f8c031b	1.0938448
11	0x3f82a4c3	1.0206531
12	0x3f69252b	0.9107234
13	0x3f675e1a	0.9037796
14	0x3f8470cd	1.0346924
15	0x3f7408f6	0.95326173

blocks.0.norm2.bias f4 [16]
0	0xbcdb80f7	-0.026794894
1	0xbcc0f09c	-0.023552231
2	0x3b19e6ba	0.002348347
3	0xbd33bd28	-0.043881565
4	0xbcd4ea83	-0.02599073
5	0x3d5bff9f	0.053710576
6	0x3da6d581	0.081461914
7	0xbcc7c155	-0.02438418
8	0x3d4d528b	0.050127547
9	0x3d009ec9	0.03140143
10	0x3d9b9b88	0.075980246
11	0xbc17cc47	-0.009265012
12	0xbd0076fe	-0.03136348
13	0x3daa2398	0.0830757
14	0xbd33d430	-0.04390353
15	0x3dd610e4	0.104524404

blocks.0.norm2.weight f4 [16]
0	0x3f736636	0.95077837
1	0x3f7c24a8	0.98493433
2	0x3f74999c	0.9554689
3	0x3f76c41b	0.96392983
4	0x3f77a156	0.96730554
5	0x3f881f6c	1.0634589
6	0x3f7114b9	0.94172245
7	0x3f771fed	0.9653309
8	0x3f83a372	1.0284255
9	0x3f7d1cc7	0.98872036
10	0x3f893e98	1.0722227
11	0x3f797146	0.97438467
12	0x3f78c6df	0.97178453
13	0x3f8a1fea	1.0790989
14	0x3f7be7f4	0.9840081
15	0x3f819fdd	1.0126911

blocks.1.conv1.bias f4 [16]
0	0x3e67e3cf	0.22645496
1	0xbc91c919	-0.017796086
2	0x3e66a8b5	0.22525294
3	0xbd5f593a	-0.054528452
4	0xbe5e5fb2	-0.21716192
5	0xbd32b39a	-0.043628313
6	0x3e359c27	0.17735349
7	0x3e6155f7	0.22005449
8	0x3dce0a6b	0.10060581
9	0x3e086d30	0.13322902
10	0xbe71e4ce	-0.23622438
11	0xbcc665a5	-0.02421839
12	0xbe9b06b6	-0.30278558
13	0x3e9dca01	0.3081818
14	0x3d5b2068	0.053497702
15	0xbc238100	-0.009979486

blocks.1.conv1.weight f4 [16, 16, 1, 1, 1]
0	0x3e2150ff	0.15753554
1	0x3e1b533c	0.1516847
2	0xbdb90ccd	-0.09035645
3	0x3e448a72	0.19193438
4	0x3c083cb3	0.008315253
5	0x3d3b2e50	0.045698464
6	0x3e270d08	0.16313565
7	0xbea6a02a	-0.3254407
8	0xbe4f70d4	-0.20257884
9	0x3e3547a9	0.17703117
10	0xbe16a10b	-0.1470987
11	0x3d81b192	0.06332697
12	0x3d548f30	0.051894367
13	0x3c886739	0.016650783
14	0x3daef352	0.085425034
15	0x3dee04cd	0.116220094
16	0xbe4aadf3	-0.19792919
17	0xbe3de3f8	-0.18543994
18	0xbe2a8d3a	-0.16655436
19	0xbe1f98b5	-0.15585597
20	0xbdeaacde	-0.11458753
21	0xbdf6fe5b	-0.12060233
22	0xbc2ae569	-0.010430672
23	0xbe1a9283	-0.15094952
24	0x3e040db3	0.12895851
25	0xbdbd168c	-0.09232816
26	0xbeaac2b7	-0.3335168
27	0x3cdb247f	0.026750801
28	0xbd6181d9	-0.055055473
29	0xbc78da3f	-0.015188753
30	0xbebfc155	-0.37452188
31	0x3ddf1302	0.10892297
32	0xbda27918	-0.07933253
33	0x3d2fcfa9	0.04292265
34	0x3e8444f2	0.2583385
35	0x3ccc7f51	0.024963053
36	0x3be5f945	0.0070182406
37	0x3e0917c3	0.1338797
38	0x3de046d2	0.10951008
39	0x3d3744e2	0.044743426
40	0xbe885460	-0.26626873
41	0xbe54b67a	-0.20772734
42	0x3cfa3643	0.030543452
43	0x3cc0310a	0.023460884
44	0xbd4cd53d	-0.050008047
45	0xbe30a709	-0.17251219
46	0xbd2c1b34	-0.04201813
47	0xbe2c023b	-0.16797726
48	0xbd3434af	-0.043995555
49	0x3d90ab23	0.07063892
50	0xbde380f1	-0.11108578
51	0xbe080ee2	-0.13286927
52	0xbde2bc7d	-0.110711075
53	0xbe2dcb44	-0.16972071
54	0x3dfc06e8	0.12306005
55	0x3d26a2c1	0.040682558
56	0x3d8ac172	0.06775178
57	0x3e1504dd	0.14552636
58	0xbdcaceed	-0.09902749
59	0xbe9eeba9	-0.3103917
60	0x3d9c1f13	0.076231144
61	0xbdfc51e6	-0.123203084
62	0x3d01580a	0.0315781
63	0x3e0bee11	0.13665034
64	0xbbbec2ee	-0.0058215773
65	0x3e01a6dc	0.12661308
66	0xbd1ac42f	-0.03778475
67	0xbe19ec8c	-0.15031642
68	0xbc560b8d	-0.013064277
69	0x3d70fdf1	0.058835927
70	0x3e9c9fdf	0.30590722
71	0xbd405072	-0.04695172
72	0x3d770fa3	0.060317647
73	0x3e3a5482	0.181963
74	0xbc754efa	-0.014972443
75	0x3e1ce782	0.15322688
76	0xbd3bd152	-0.04585392
77	0xbe277077	-0.16351496
78	0xbe193d07	-0.14964686
79	0xbe0b94fe	-0.13631055
80	0x3e504ea6	0.20342502
81	0x3e02750c	0.12739962
82	0xbe2f8b9b	-0.17143099
83	0xbdf76a56	-0.12080829
84	0x3e02b447	0.12764083
85	0x3e9092d3	0.28237018
86	0x3e102230	0.14075541
87	0xbe13fd46	-0.14452085
88	0xbe46ead1	-0.19425513
89	0x3e3ff4b6	0.18745694
90	0xbe701d67	-0.23448716
91	0x3da75f27	0.08172446
92	0xbde5d9de	-0.112231955
93	0x3dcd824b	0.10034617
94	0xbd38cbe6	-0.045116328
95	0xbdecaf06	-0.115568206
96	0xbe510cbc	-0.20415014
97	0xbd9e3299	-0.077244945
98	0xbd2ee197	-0.042695608
99	0x3e1d37cc	0.15353316
100	0xbe38694e	-0.1800892
101	0x3c800c04	0.01563073
102	0xbc9787c4	-0.018497355
103	0xbdd2f83b	-0.103012525
104	0xbe229a8f	-0.15879272
105	0x3e8127d0	0.25225687
106	0x3d2e543b	0.042560797
107	0x3e530940	0.20608997
108	0x3e49d147	0.19708739
109	0xbdf2c1fd	-0.118534066
110	0x3cec73c1	0.02886379
111	0x3ddc995a	0.10771437
112	0xbb5be160	-0.0033551082
113	0xbe6396e1	-0.22225524
114	0x3c442738	0.011972241
115	0x3e0c6295	0.13709481
116	0x3e0ef8bc	0.13962072
117	0xbe711ac6	-0.2354537
118	0x3e5bd5fe	0.2146835
119	0x3e2a7655	0.16646703
120	0x3e4c50da	0.19952717
121	0x3d2a948a	0.041645564
122	0xbe34d4a8	-0.17659247
123	0xbcd7ad27	-0.026327683
124	0x3e448cf8	0.191944
125	0xbc0d9baf	-0.008643075
126	0xbd5fcda3	-0.05463947
127	0xbe15a56f	-0.14613889
128	0x3e02c097	0.1276878
129	0x3e118307	0.14210139
130	0x3e6b8a13	0.2300189
131	0xbe919e37	-0.2844102
132	0xbd7453bd	-0.05965017
133	0x3e3d2b76	0.1847361
134	0x3da527a4	0.080642015
135	0xbdff2881	-0.124588974
136	0x3b96e203	0.0046045794
137	0xbe6b3467	-0.22969209
138	0xbe8a7a31	-0.2704635
139	0xbbb8d43e	-0.0056405356
140	0xbdf459ed	-0.119312145
141	0xbd48b917	-0.04900464
142	0xbe273916	-0.1633037
143	0x3b8bbd54	0.004264513
144	0x3da5f5b6	0.08103506
145	0xbe0a8b63	-0.13529734
146	0xbd548435	-0.051883895
147	0x3e397661	0.18111564
148	0xbdc8ebd5	-0.098106064
149	0xbdb65d9f	-0.089045756
150	0xbd8c777a	-0.06858726
151	0xbd98eb9f	-0.07466816
152	0x3d1bb303	0.038012516
153	0xbcce7dba	-0.025206435
154	0x3e00c0d9	0.12573566
155	0x3bd47004	0.00648308
156	0x3df9a602	0.121898666
157	0xbe0f7774	-0.14010412
158	0xbd61246b	-0.05496637
159	0xbdc9b4b9	-0.09848923
160	0x3d8183d2	0.06323971
161	0x3e51411c	0.20434994
162	0x3d851eb4	0.06499997
163	0xbc308eb5	-0.0107762115
164	0x3e928358	0.28615832
165	0xbd5b8b3d	-0.053599585
166	0x3e21f5e6	0.15816459
167	0xbe4456fc	-0.19173807
168	0xbe2e88f7	-0.17044435
169	0xbd5e39d9	-0.054254387
170	0xbe1d9035	-0.15387042
171	0xbd163312	-0.0366698
172	0xbd57b96b	-0.052667063
173	0xb9c6e640	-0.00037937053
174	0x3dc4c603	0.0960808
175	0x3e032bc6	0.12809667
176	0x3e6e5df8	0.23278034
177	0xbe6b8393	-0.2299941
178	0xbabf972c	-0.0014617196
179	0x3daf1776	0.08549397
180	0x3e6f906b	0.23394935
181	0x3df10857	0.11769169
182	0x3e607533	0.21919708
183	0x3def0f2b	0.11672815
184	0xbdbfe34b	-0.093695246
185	0x3e3a0ba2	0.181685
186	0x3ddfa369	0.1091984
187	0xbe0d1f3c	-0.13781446
188	0x3d6a06a3	0.057135236
189	0x3cef2bd0	0.029195696
190	0x3d911817	0.07084673
191	0x3d08f611	0.033437792
192	0xbdbcaa29	-0.09212143
193	0x3e67f109	0.22650541
194	0xbe5467b0	-0.20742679
195	0x3e293e9f	0.16527794
196	0xbe46365a	-0.19356671
197	0xbda1a26d	-0.078923084
198	0x3e2702fb	0.1630973
199	0x3d096a9e	0.033548944
200	0xbe1fec4a	-0.15617481
201	0xbe7a0012	-0.2441409
202	0xbe3f1948	-0.18661988
203	0xbe68a455	-0.22718938
204	0x3d2635da	0.0405787
205	0xbe78fca1	-0.2431512
206	0xbe2c48ee	-0.16824695
207	0x3e28d6b5	0.16488154
208	0x3d6ab4b6	0.057301246
209	0x3b54a5d7	0.003244748
210	0x3daa3c24	0.08312252
211	0x3e34e21b	0.17664377
212	0xbc0189f7	-0.007906429
213	0xbe213767	-0.1574379
214	0xbdd9a1c7	-0.1062656
215	0x3e4053ed	0.18782015
216	0xbd828de1	-0.063747175
217	0xbd276760	-0.04087007
218	0x3d8691f9	0.06570811
219	0x3cecc203	0.028901106
220	0xbdd1d178	-0.10245031
221	0xbc591098	-0.013248585
222	0x3e2964d9	0.16542377
223	0x3dcde2d2	0.10053028
224	0xbe20173b	-0.15633862
225	0x3cf7c34e	0.030244496
226	0xbd8b3832	-0.06797828
227	0x3d431766	0.047629736
228	0xbde882aa	-0.11353047
229	0x3e0a0db1	0.13481785
230	0x3b7b3e5b	0.0038336727
231	0x3eb1cd7b	0.34727082
232	0xbe1e27b5	-0.15444835
233	0xbe222428	-0.15834105
234	0xbdec5908	-0.11540419
235	0xb9e2dcb3	-0.00043270513
236	0xbe1702f4	-0.1474722
237	0xbe763255	-0.24042638
238	0x3e6ab96c	0.22922295
239	0xbe899f6b	-0.2687944
240	0xbe07aced	-0.1324956
241	0xbd3e34c5	-0.046437044
242	0x3db036d7	0.0860421
243	0xbd045dc7	-0.032315996
244	0xbe52c9dd	-0.20584817
245	0xbe801329	-0.25014618
246	0x3dbf4749	0.093397684
247	0xbd122b2c	-0.035685703
248	0xbe3e9c5d	-0.18614335
249	0x3df7a7c0	0.12092543
250	0x3da32e82	0.07967855
251	0xbd94463d	-0.072399594
252	0xbe56964f	-0.20955776
253	0x3e53e349	0.20692171
254	0x3e9119f1	0.28340104
255	0xbe7259b6	-0.23667035

blocks.1.conv2.bias f4 [16]
0	0xbe085aa8	-0.13315833
1	0xbd82b76f	-0.063826434
2	0x3e243348	0.16035187
3	0x3db330f6	0.08749573
4	0x3d3c6a25	0.045999665
5	0xbde1dace	-0.11028062
6	0x3d5b4894	0.053536013
7	0x3cc52546	0.024065625
8	0x3daff3e2	0.08591439
9	0xb8913593	-6.924118e-05
10	0x3e456954	0.1927846
11	0xbcf0a445	-0.029375205
12	0x3cd1f748	0.025630608
13	0x3e235d04	0.15953451
14	0xbdbf6d6d	-0.09347043
15	0xbe8eae20	-0.27867222

blocks.1.conv2.weight f4 [16, 16, 1, 1, 1]
0	0xbe2f9ebb	-0.17150395
1	0xbe0ddb13	-0.13853101
2	0x3d076afb	0.03306101
3	0xbe6eff08	-0.23339474
4	0xbe3aa62d	-0.18227454
5	0xbe7acc4d	-0.24491997
6	0xbbc2a1ce	-0.005939699
7	0x3e018c1e	0.12651107
8	0x3dc729bb	0.09724756
9	0x3e8bbe07	0.27293417
10	0x3dd659b2	0.10466327
11	0x3e49452b	0.19655292
12	0xbdec8971	-0.11549652
13	0xbda318a7	-0.079636864
14	0x3e1b4e1f	0.1516652
15	0x3deba1ce	0.11505471
16	0xbe0f393d	-0.13986678
17	0x3cc175bc	0.02361571
18	0xbe100e23	-0.14067893
19	0x3e629c8e	0.22130033
20	0xbd84b1ff	-0.064792626
21	0xbdce5d21	-0.10076357
22	0x3e7453f1	0.23860146
23	0xbd16a696	-0.036779962
24	0xbdc65964	-0.09685019
25	0x3e32a0b9	0.17444123
26	0x3e0049fe	0.12528226
27	0x3e23ba55	0.15989049
28	0xbe56a4c7	-0.20961295
29	0xbe6895f7	-0.22713457
30	0xbe321aec	-0.17393082
31	0xbe4f0dbb	-0.20220082
32	0x3e4ee007	0.20202647
33	0xbe14a56d	-0.1451623
34	0xbe35be1b	-0.177483
35	0x3dee5dd6	0.116389915
36	0xbd86cc09	-0.06581885
37	0xbc058704	-0.008149866
38	0xbd9e0d8e	-0.07717429
39	0xbce16ea8	-0.027518585
40	0xbc8f3f82	-0.017486338
41	0x3e57d371	0.21076752
42	0x3e05df62	0.13073495
43	0xbd3bfd9c	-0.045896158
44	0x3d6bf776	0.057609044
45	0x3db38619	0.087658115
46	0x3e3bfbce	0.18357775
47	0x3a46145a	0.0007556133
48	0xbdbf7a0a	-0.09349449
49	0x3e3b3b04	0.18284231
50	0xbe3a5170	-0.18195128
51	0xbe350d7c	-0.17680925
52	0x3e09472a	0.13406053
53	0x3e3920f3	0.18078975
54	0x3c5e0f73	0.013553488
55	0x3e001557	0.1250814
56	0x3d16b542	0.036793955
57	0xbb193bc1	-0.0023381563
58	0xbe5d3507	-0.2160226
59	0x3d50a48a	0.050938167
60	0xbe7628ae	-0.24038956
61	0x3e1df7b0	0.15426517
62	0xbcd89a85	-0.026440868
63	0x3eaa97c8	0.33318925
64	0xbe5be58c	-0.21474284
65	0x3ca9414d	0.02066102
66	0xbba97347	-0.005171213
67	0x3c10fd36	0.008849433
68	0xbd37262d	-0.04471414
69	0xbe8450d2	-0.2584291
70	0x3e10026d	0.14063425
71	0x3dbdc7d4	0.0926663
72	0x3d25b943	0.040459882
73	0xbe829a01	-0.2550812
74	0x3e23ab71	0.15983368
75	0x3dec0f84	0.11526397
76	0xbdaba7bc	-0.08381602
77	0xbe2d9592	-0.16951588
78	0xbc8871b6	-0.016655784
79	0xbd6fe7e8	-0.058570772
80	0x3e4f418a	0.20239845
81	0xbc1b7503	-0.009488347
82	0x3c7987f0	0.015230164
83	0x3dda8c99	0.10671348
84	0x3d2c6606	0.042089485
85	0x3c90bf17	0.017669244
86	0xbe05fff1	-0.13085915
87	0x3e4cdd12	0.20006207
88	0x3e0a3a8c	0.13498896
89	0xbcd03c30	-0.025419325
90	0x3dff6619	0.124706455
91	0x3b9ff7fa	0.004881856
92	0x3e3fd5b9	0.18733872
93	0x3e6e8930	0.2329452
94	0xbe45a16f	-0.19299863
95	0xbbb6c39c	-0.0055775177
96	0x3dc6bba6	0.0970376
97	0x3d7e8da9	0.062146816
98	0xbcb43fd9	-0.022003101
99	0xbe36739f	-0.17817543
100	0xbd174e8e	-0.03694015
101	0xbd441534	-0.047871783
102	0xbe379966	-0.1792961
103	0x3e2733cc	0.16328353
104	0xbd1ceb92	-0.038310595
105	0x3da59777	0.0808553
106	0xbe8cab87	-0.27474615
107	0xbdca28d9	-0.09871072
108	0xbe5fe934	-0.21866304
109	0x3cb3714a	0.021904606
110	0x3db43be2	0.08800484
111	0xbe6c2722	-0.23061803
112	0x3c1267e6	0.008935904
113	0xbe050e20	-0.1299367
114	0xbd1af193	-0.03782804
115	0xbe2d0544	-0.1689654
116	0x3e21d957	0.15805565
117	0xbe024784	-0.12722594
118	0x3dfe8de1	0.12429405
119	0xbe174834	-0.14773637
120	0xbe0d6b18	-0.13810384
121	0x3dcbb8c9	0.09947354
122	0x3de351ae	0.110995635
123	0xbe2b0fc2	-0.1670523
124	0x3d856f18	0.0651533
125	0x3de74ed9	0.11294336
126	0xbe427361	-0.18989326
127	0xbe3e48bd	-0.18582435
128	0x3e448c69	0.19194187
129	0xbcb6ac87	-0.022299064
130	0xbe082e61	-0.13298942
131	0xbd5f2b05	-0.054484386
132	0x3cc7c393	0.02438525
133	0xbe8474ed	-0.25870457
134	0x3e2fcaa2	0.17167142
135	0x3dfc10f1	0.12307919
136	0x3d269122	0.040665753
137	0x3caf7ba5	0.021421263
138	0x3c91bdb0	0.017790645
139	0x3e08a120	0.13342714
140	0xbd7017db	-0.0586165
141	0x3cc81b62	0.02442712
142	0xbd6a6844	-0.05722834
143	0x3d178740	0.03699422
144	0xbe57275b	-0.21011107
145	0xbe1b4300	-0.15162277
146	0xbea77228	-0.32704282
147	0x3d6faecc	0.05851631
148	0x3cfd1e5f	0.030898271
149	0xbd5b9789	-0.053611312
150	0x3ddc725d	0.107640006
151	0x3e6617dd	0.2247004
152	0x3e0c39e6	0.13693962
153	0xbeac6e35	-0.3367783
154	0x3e4cffaf	0.2001941
155	0xbd8306e1	-0.063977964
156	0x3ea29995	0.317578
157	0xbd850fb8	-0.06497139
158	0x3cc1cd25	0.02365739
159	0xbe304512	-0.17213848
160	0x3e06e28f	0.13172363
161	0x3e6400d1	0.22265936
162	0xbdc46b07	-0.09590726
163	0x3e3a06d4	0.18166667
164	0x3e5ba358	0.2144903
165	0x3dfc6ebd	0.12325809
166	0xbdb9b299	-0.09067268
167	0x3d1015d2	0.03517706
168	0xbddfc83e	-0.10926865
169	0x3d435a58	0.04769358
170	0xbbb723f2	-0.005589002
171	0xbe2dd3d5	-0.16975339
172	0xbe113594	-0.14180595
173	0xbdb9374d	-0.09043751
174	0xbcf0a65d	-0.029376203
175	0x3e14190e	0.14462683
176	0x3bf75d8b	0.007548993
177	0xbcb6cfef	-0.022315947
178	0xbd58a442	-0.052891023
179	0xbe36f0e8	-0.17865336
180	0x3e173365	0.14765699
181	0x3dc9557b	0.09830757
182	0xbdbd1f09	-0.09234435
183	0xbde6d827	-0.112716965
184	0xbe781788	-0.24227726
185	0xbe930f06	-0.287224
186	0x3d7686e6	0.060187243
187	0xbd8fba2e	-0.07017933
188	0x3dfea649	0.1243406
189	0x3e3bf0a6	0.18353519
190	0x3e05b00b	0.13055436
191	0xbe2c84a8	-0.1684748
192	0xbe2aa0cd	-0.16662903
193	0xbd3e130b	-0.04640488
194	0xbd023c21	-0.031795625
195	0xbe81c49d	-0.25345317
196	0xbde8bb69	-0.11363871
197	0xbe469a73	-0.19394855
198	0x3e30f7bd	0.17282005
199	0x3e371b97	0.17881618
200	0xbe1e237f	-0.15443228
201	0x3e13605d	0.14392228
202	0xbe342f97	-0.17596279
203	0x3d1ef765	0.038810153
204	0x3e1367a9	0.14395012
205	0x3e388856	0.18020758
206	0x3dc595bb	0.096476994
207	0x3e0043da	0.12525883
208	0xbe396aa6	-0.1810709
209	0xbe6faf31	-0.23406674
210	0x3ddda369	0.10822184
211	0x3d8e35db	0.06943866
212	0x3da4b433	0.08042183
213	0xbdb33136	-0.087496206
214	0x3db02330	0.086004615
215	0x3caa2e95	0.020774165
216	0x3d2d8255	0.042360622
217	0x3df564d5	0.11982123
218	0x3e320f06	0.17388543
219	0x3d95c11e	0.07312225
220	0x3e175444	0.14778239
221	0x3cdaf1cd	0.026726628
222	0x3c0798b7	0.008276156
223	0x3e867a70	0.26265287
224	0xbd7179f3	-0.05895419
225	0xbe5946a0	-0.21218348
226	0xbc8a082a	-0.016849596
227	0xbd836737	-0.06416171
228	0xbdf99aa1	-0.12187696
229	0x3e5bd507	0.21467982
230	0xbe16c847	-0.14724837
231	0x3e81cf0f	0.25353286
232	0x3e217696	0.15767893
233	0x3e7d6a90	0.24747682
234	0x3df55825	0.11979703
235	0xbc78f249	-0.015194484
236	0x3a42ed6c	0.00074358913
237	0xbe32ddb7	-0.1746739
238	0xbe3c406d	-0.18383951
239	0xbde2090f	-0.11036884
240	0xbe8b3e60	-0.27196026
241	0xbd0b9913	-0.03408153
242	0xbd90f782	-0.07078458
243	0x3db29f1d	0.08721755
244	0xbd2ba20f	-0.041902598
245	0xbe8583c3	-0.2607709
246	0x3db16d4c	0.08663425
247	0xbd21fe92	-0.039549418
248	0x3d9a4e7b	0.075345
249	0xbe5672a1	-0.20942165
250	0x3c2c40fd	0.010513541
251	0x3e4ebfd8	0.2019037
252	0xbd61f971	-0.055169526
253	0x3da79958	0.08183545
254	0x3e050160	0.12988806
255	0xbdc4dea0	-0.09612775

blocks.1.norm1.bias f4 [16]
0	0x3d908ba5	0.07057885
1	0xbceeb86e	-0.029140677
2	0x3d6aa0f4	0.057282403
3	0x3d8a50a6	0.06753664
4	0x3d06e48a	0.032932796
5	0xbd191510	-0.037373602
6	0xbd1204d5	-0.03564914
7	0x3d59337f	0.053027626
8	0xbd9c24b6	-0.076241896
9	0xbd2bf107	-0.04197791
10	0x3d9c4411	0.0763017
11	0x3d616a5d	0.055033077
12	0x3c9fd58f	0.019511012
13	0x3dab2f31	0.083586104
14	0x3d7e5a27	0.062097695
15	0xbd978fb1	-0.07400454

blocks.1.norm1.weight f4 [16]
0	0x3f8376b8	1.0270605
1	0x3f77e818	0.9683852
2	0x3f7bd111	0.98365885
3	0x3f8357cb	1.0261167
4	0x3f852647	1.0402306
5	0x3f77c6c9	0.967877
6	0x3f7738c3	0.96570987
7	0x3f87b049	1.0600673
8	0x3f7516b8	0.9573779
9	0x3f6bd3cb	0.92120045
10	0x3f815702	1.0104678
11	0x3f80f376	1.0074298
12	0x3f77a3c3	0.96734256
13	0x3f7d4bf1	0.98944
14	0x3f829076	1.0200336
15	0x3f6e5936	0.93104875

blocks.1.norm2.bias f4 [16]
0	0x3d7cd326	0.061724804
1	0x3d821c2b	0.06353029
2	0x3df593c5	0.119910754
3	0xbd993390	-0.07480538
4	0x3d4f40d8	0.05059895
5	0x3c7a61d6	0.015282115
6	0xbd36cdc4	-0.044629827
7	0xbd603b64	-0.05474414
8	0xbcd2c056	-0.025726479
9	0x3dcb16a6	0.09916429
10	0x3ca216a7	0.019786192
11	0xbd050ea9	-0.032484684
12	0xbd6394fb	-0.055562
13	0xbcaa7582	-0.020807985
14	0xbd7e7a26	-0.06212821
15	0x3d71adf0	0.05900377

blocks.1.norm2.weight f4 [16]
0	0x3f8338f4	1.0251756
1	0x3f5e2412	0.8677379
2	0x3f8f3c12	1.1190207
3	0x3f7544a2	0.9580785
4	0x3f79c910	0.9757242
5	0x3f80a76a	1.0051091
6	0x3f74f062	0.95679295
7	0x3f6e1b64	0.93010545
8	0x3f799be6	0.9750351
9	0x3f8ac255	1.0840555
10	0x3f732576	0.94979036
11	0x3f720029	0.94531494
12	0x3f875894	1.0573907
13	0x3f78719d	0.9704836
14	0x3f6fb5af	0.936366
15	0x3f7c6f5a	0.9860741

blocks.2.conv1.bias f4 [16]
0	0x3e505236	0.20343861
1	0x3d2181f9	0.039430592
2	0x3d548440	0.051883936
3	0x3da45268	0.0802353
4	0xbdee588b	-0.11637982
5	0x3cce2cc5	0.025167832
6	0xbda94700	-0.08265495
7	0xbd9a505e	-0.0753486
8	0xbd888b7d	-0.0666723
9	0x3e1f7de8	0.15575373
10	0x3e5779dd	0.21042581
11	0x3e096532	0.13417509
12	0xbd3bef6b	-0.045882624
13	0xbe46c345	-0.19410427
14	0x3b78c2b6	0.0037957854
15	0xbc58da44	-0.013235632

blocks.2.conv1.weight f4 [16, 16, 1, 1, 1]
0	0x3e882ed0	0.26598215
1	0xbe032da9	-0.12810387
2	0xbe28ad45	-0.16472347
3	0xbdd3fc54	-0.10350862
4	0xbcdace4c	-0.026709698
5	0xbe095119	-0.13409843
6	0x3d4cf6f3	0.050040197
7	0x3e4f21b6	0.20227703
8	0x3e2daccb	0.16960447
9	0xbd82ebbd	-0.0639262
10	0x3e3ce05b	0.1844496
11	0x3e298697	0.16555248
12	0xbd8cae03	-0.068691276
13	0x3dc17c7a	0.0944757
14	0x3df70dcb	0.12063178
15	0x3e4e0184	0.20117766
16	0xbddd1237	-0.1079449
17	0x3c957fe5	0.018249461
18	0xbd37bdee	-0.044858865
19	0xbe62062d	-0.22072668
20	0x3e666f6d	0.22503443
21	0x3c202a1f	0.009775667
22	0x3dd28b4d	0.10280476
23	0xbe338094	-0.17529517
24	0xbe0b4248	-0.13599503
25	0xbe186c68	-0.14885104
26	0x3d8a9971	0.06767548
27	0xbe0ab91b	-0.13547175
28	0xbdc45855	-0.095871605
29	0xbdcd33e3	-0.10019662
30	0xbc623f96	-0.013809105
31	0x3c7106e6	0.014711117
32	0x3c74f9d9	0.014952146
33	0x3be4d040	0.006982833
34	0x3e2351eb	0.15949218
35	0xbe619534	-0.22029573
36	0x3e509728	0.20370162
37	0xbdee00bb	-0.11621233
38	0x3dfea1e2	0.124332204
39	0x3d697599	0.056996915
40	0xbe011cd7	-0.12608658
41	0xbdbbe8be	-0.091752514
42	0x3cca24b0	0.024675697
43	0xbe21ac4f	-0.15788387
44	0x3e050b5d	0.12992616
45	0xbddc5b4b	-0.107596
46	0x3c662a2a	0.014048139
47	0x3ce4ad64	0.02791471
48	0xbd290e1d	-0.041273225
49	0xbb82e1d9	-0.0039942083
50	0xbe833970	-0.2562976
51	0x3d1f77fe	0.038932793
52	0x3decfd2d	0.11571727
53	0xbd17f240	-0.037096262
54	0x3e13b630	0.14424968
55	0xbdc3a1fe	-0.09552382
56	0x3d1b7f69	0.037963305
57	0x3d578e68	0.052626044
58	0x3e3b5943	0.1829577
59	0xbd468a5f	-0.048471805
60	0xbd1413ed	-0.036151815
61	0xbe129eec	-0.14318436
62	0x3d5dcc30	0.054149806
63	0x3d6fc381	0.058536056
64	0xbe79e994	-0.24405509
65	0xbde84d9e	-0.11342929
66	0x3ea30a5e	0.31843847
67	0xbd46236e	-0.048373632
68	0xbdee2168	-0.116274655
69	0x3d584b3c	0.052806124
70	0x3d4234b7	0.047413554
71	0xbde837be	-0.11338757
72	0x3cee08c2	0.02905691
73	0xbce355d7	-0.027750893
74	0x3e4ad694	0.19808418
75	0x3cab5b03	0.020917421
76	0x3e3a271b	0.1817898
77	0x3dab537a	0.08365531
78	0xbdc128a2	-0.09431578
79	0x3d25ccfc	0.04047869
80	0x3df78aaa	0.12086995
81	0x3d0eb153	0.03483708
82	0xbd45656a	-0.04819242
83	0xbd350efd	-0.044203747
84	0xbe15313b	-0.14569561
85	0x3d1c7f64	0.038207427
86	0xbd3d0df9	-0.046155903
87	0xbd602dd5	-0.05473121
88	0xbda5168f	-0.08060943
89	0xbe2e793b	-0.17038433
90	0x3e010e50	0.12603116
91	0xbd891d67	-0.06695061
92	0x3e82b4cd	0.25528565
93	0xbcc9905d	-0.02460497
94	0xbe20a910	-0.15689492
95	0xbcaba948	-0.020954743
96	0xbdf94d8f	-0.12172996
97	0x3dfa1571	0.12211121
98	0xbcdde087	-0.027084602
99	0xbcef1029	-0.02918251
100	0x3df25168	0.11831933
101	0x3ca5ddbb	0.02024733
102	0xbe4e868d	-0.20168515
103	0xbdac4133	-0.08410873
104	0xbe1711f0	-0.14752936
105	0xbd94da5e	-0.07268213
106	0x3e015f4d	0.1263401
107	0x3dc43d2c	0.0958198
108	0x3cd9080f	0.0264931
109	0xbeadc2c2	-0.3393765
110	0xbe2e95e0	-0.1704936
111	0xbe04b5c0	-0.12959957
112	0x3e3cbd17	0.18431507
113	0xbb502ac8	-0.003176378
114	0x3e8a8933	0.270578
115	0x3cd09d17	0.025465531
116	0xbe27f7af	-0.16403078
117	0xbe27456b	-0.16335075
118	0x3e74812c	0.238774
119	0xbe67481a	-0.22586098
120	0xbb55c693	-0.003261958
121	0xbe3a9133	-0.18219452
122	0xbe90c8de	-0.2827825
123	0x3e399ca8	0.18126166
124	0xbe2cef98	-0.16888273
125	0xbe3e0583	-0.1855679
126	0xbebc5c68	-0.3678925
127	0xbdd21a65	-0.102589406
128	0x3e20ed6f	0.15715574
129	0xbd026e70	-0.031843603
130	0xbd673d03	-0.05645467
131	0xbe64862c	-0.22316808
132	0x3e641c89	0.2227651
133	0xbe9aaf27	-0.30211756
134	0x3e61b28d	0.22040768
135	0x3e10e5c0	0.14150143
136	0xbdb8dc85	-0.09026436
137	0xbe66e74d	-0.22549172
138	0x3dbb3aaf	0.091420524
139	0xbe03a53a	-0.12855998
140	0xbe326e8b	-0.17424981
141	0x3c748bdf	0.014925926
142	0xbcbdbf24	-0.023162432
143	0xbe6eb85c	-0.23312515
144	0xbe65d8f1	-0.22446038
145	0x3dc58d3c	0.09646079
146	0x3c155042	0.009113373
147	0xbe1f9f1a	-0.15588036
148	0x3e2bcbc7	0.16776954
149	0x3ca451d2	0.020058546
150	0xbe636493	-0.22206335
151	0xbd50f0c1	-0.05101085
152	0x3df568f9	0.119829126
153	0x3e0db897	0.13839947
154	0x3e10cde0	0.14141035
155	0xbe57bbfc	-0.21067804
156	0x3d90b52a	0.07065804
157	0xbdc123e2	-0.09430672
158	0x3d45ad92	0.048261233
159	0xbcd2ef16	-0.02574877
160	0x3d93f2fc	0.0722408
161	0xbe56228e	-0.20911619
162	0x3e319af2	0.17344263
163	0xbcf8aa1b	-0.03035455
164	0xbd755523	-0.059895646
165	0x3d259254	0.040422752
166	0x3e0ca077	0.13733087
167	0xbdcc4deb	-0.09975799
168	0x3e063bab	0.13108699
169	0xbdab4c43	-0.08364155
170	0x3c98c135	0.018646816
171	0x3e4575c5	0.19283207
172	0xbe23c23e	-0.15992066
173	0xbe129d7f	-0.14317892
174	0xbe33b509	-0.17549528
175	0x3dde6b7c	0.10860345
176	0x3da3fc77	0.08007138
177	0xbe879117	-0.26477882
178	0x3d6f8d62	0.058484443
179	0xbe78e2e0	-0.24305296
180	0x3d914907	0.07094007
181	0xbdf55907	-0.11979871
182	0x3d801802	0.06254579
183	0x3e41361e	0.188683
184	0x3e1a8c0a	0.15092483
185	0xbd85a0e9	-0.06524832
186	0xbe408f44	-0.18804651
187	0x3cb8fe7c	0.022582285
188	0xbda65be4	-0.081229955
189	0xbcf9fb03	-0.0305152
190	0xbe3523f0	-0.1768949
191	0xbd41a971	-0.047280733
192	0xbe066ddc	-0.13127846
193	0xbdda5be2	-0.106620565
194	0x3e312ae7	0.17301522
195	0xbdaf6484	-0.08564094
196	0xbd952a9e	-0.07283519
197	0x3e5bbe4f	0.21459316
198	0x3d8d3a23	0.06895854
199	0x3dcff946	0.10154967
200	0x3d174569	0.03693143
201	0x3dc31eb9	0.09527344
202	0x3d0418bf	0.032250162
203	0xbe5d05eb	-0.21584289
204	0x3e29e54c	0.16591376
205	0xbe6c50f2	-0.23077753
206	0xbe4f9cfe	-0.20274732
207	0x3e2472c1	0.160594
208	0xbd91400a	-0.070922926
209	0x3e753500	0.23945999
210	0xbc9359b6	-0.017987113
211	0x3df694dc	0.120401114
212	0x3dcad8f1	0.099046595
213	0x3dcb8c92	0.09938921
214	0x3e12dead	0.14342757
215	0xbe59639d	-0.21229406
216	0x3e354397	0.17701565
217	0x3d9a56de	0.075361
218	0xbe418118	-0.18896902
219	0xbdf246f7	-0.11829942
220	0x3e0fbb07	0.14036189
221	0x3c35df17	0.011100552
222	0xbdab9788	-0.08378512
223	0xbcb9244f	-0.022600321
224	0xbdeeeaa1	-0.11665846
225	0xbe1e0408	-0.15431225
226	0xbe0bf4c8	-0.13667595
227	0x3de7e507	0.113229804
228	0x3d159451	0.0365184
229	0xbd746374	-0.05966516
230	0xbe098c4a	-0.13432422
231	0xbdb14d3d	-0.0865731
232	0xbc7c07bb	-0.015382702
233	0x3e7b494f	0.24539684
234	0xbd8e1c0d	-0.06938944
235	0x3e23d0bc	0.15997595
236	0x3e01ae46	0.12664136
237	0xbdabfe82	-0.08398153
238	0x3d386b61	0.04502428
239	0xbdb298ce	-0.087205514
240	0x3c4589cf	0.012056782
241	0x3d2da938	0.042397708
242	0xbccdeee9	-0.025138335
243	0xbce05c5b	-0.027387789
244	0x3e746fe4	0.23870808
245	0xbc9e5f39	-0.019332515
246	0x3dd74ccc	0.10512695
247	0x3e483924	0.19553047
248	0xbdb1079c	-0.086440295
249	0x3cb68bae	0.022283401
250	0xbe10eabf	-0.14152049
251	0xbe4fe591	-0.20302416
252	0xbdb72906	-0.089433715
253	0x3e9eee46	0.31041163
254	0x3b17e0dd	0.00231748
255	0xbe46931f	-0.1939206

blocks.2.conv2.bias f4 [16]
0	0x3e3465fc	0.17617029
1	0xbdc395db	-0.09550067
2	0xbe09cdef	-0.13457464
3	0x3e7e0f43	0.2481051
4	0xbcc5e252	-0.02415577
5	0x3c5bcdc4	0.013415758
6	0xbe06a191	-0.1314757
7	0x3e13242a	0.14369264
8	0xbd41b4c1	-0.04729152
9	0x3d3fc8e6	0.04682245
10	0xbde5c4cc	-0.11219177
11	0x3d0a2ff8	0.033737153
12	0x3e2a8f14	0.16656142
13	0x3e6eb8a7	0.23312627
14	0x3dc7be45	0.09753088
15	0x3b5769c4	0.0032869438

blocks.2.conv2.weight f4 [16, 16, 1, 1, 1]
0	0xbd598028	-0.053100735
1	0x3a19ffbb	0.00058745936
2	0xbcf0e6dd	-0.02940696
3	0x3d3b2f1c	0.045699224
4	0x3e527670	0.20552993
5	0x3da22a03	0.07918169
6	0xbddfcd59	-0.10927839
7	0xbe1f9c76	-0.15587029
8	0xbcf3e0db	-0.029770305
9	0xbd63ddb3	-0.05563135
10	0xbd595efe	-0.053069107
11	0xbcde5e59	-0.027144598
12	0xbe31fee8	-0.17382395
13	0xbe39f1cd	-0.18158646
14	0x3d8dbb9e	0.06920551
15	0x3e389750	0.18026471
16	0xbd95195a	-0.07280226
17	0xbe122284	-0.14270979
18	0x3e75a326	0.23988017
19	0xbce99c3d	-0.028516883
20	0xbe44fe31	-0.19237591
21	0x3d5e234f	0.05423289
22	0x3dc20cbf	0.094750874
23	0xbe4428c6	-0.19156179
24	0x3e4bbe32	0.19896773
25	0xbe349e6b	-0.17638557
26	0x3e70e714	0.2352565
27	0x3c676e05	0.014125352
28	0xbd6a581a	-0.057212926
29	0x3e3b1797	0.18270718
30	0xbe1a457e	-0.15065572
31	0xbe3a7574	-0.18208867
32	0xbdbca3d8	-0.09210938
33	0x3b0ba0f8	0.0021305662
34	0xbd4f4f96	-0.05061301
35	0x3e5536fa	0.20821753
36	0xbd6ec12f	-0.058289703
37	0xbd8db0da	-0.069184974
38	0xbcf6dc0c	-0.030134223
39	0xbdff41ea	-0.12463744
40	0xbe538f22	-0.2066007
41	0xbe8b3f7c	-0.27196872
42	0x3e3ca573	0.18422489
43	0x3e4cf80f	0.20016502
44	0xbd923d32	-0.07140578
45	0xbe366761	-0.17812873
46	0x3e6f0795	0.23342736
47	0xbe62aaed	-0.22135516
48	0xbbf105ef	-0.0073554437
49	0x3d96613a	0.07342763
50	0x3e1cacf5	0.15300353
51	0xbd2bde35	-0.04195996
52	0xbdfd3500	-0.123636246
53	0xbe3ac895	-0.18240578
54	0xbd7bc034	-0.061462596
55	0x3da4bd67	0.08043938
56	0x3e7b3753	0.24532823
57	0xbd4369c0	-0.047708273
58	0x3c6e752a	0.014554301
59	0x3d257cb0	0.040402114
60	0xbdcbe706	-0.099561736
61	0x3e14eef7	0.14544283
62	0x3e3146b4	0.17312127
63	0xbcc6bed4	-0.024260916
64	0xbe7b0d11	-0.24516703
65	0xbda8a2c0	-0.08234167
66	0xbdadaa57	-0.08479755
67	0x3e2bd4fa	0.16780463
68	0xbd9c2b47	-0.07625442
69	0xbde750fd	-0.11294744
70	0xbe34c08d	-0.17651577
71	0xbd89b0c3	-0.06723168
72	0x3e3d6467	0.18495332
73	0xbc520639	-0.012818866
74	0x3d8f6775	0.07002155
75	0xbe50ee88	-0.20403492
76	0xbe103ff2	-0.14086893
77	0xbde317b9	-0.11088509
78	0xbdf0af0b	-0.11752137
79	0x3e599c6e	0.2125108
80	0x3e5e292d	0.21695395
81	0x3d491859	0.049095485
82	0xbe46f0be	-0.19427773
83	0xbe69482f	-0.22781442
84	0x3e2da11f	0.16955994
85	0x3c4dcd0e	0.012561096
86	0xbe31c76e	-0.17361233
87	0x3d778322	0.060427792
88	0x3d22fcf8	0.03979203
89	0xbe6d52de	-0.23176143
90	0xbcae8809	-0.021305101
91	0x3d847f3d	0.06469581
92	0xbd74136a	-0.059588827
93	0x3e1c95d4	0.1529153
94	0x3ce9e72d	0.028552616
95	0x3ccac91a	0.024754096
96	0x3e48ce7b	0.19610016
97	0xbe0c393d	-0.1369371
98	0x3dfaff0d	0.12255678
99	0x3c089450	0.008336142
100	0xbc42c6a4	-0.01188818
101	0xbe19113a	-0.14947978
102	0xbca9ca09	-0.02072622
103	0x3ca1f734	0.019771196
104	0xbe414537	-0.1887406
105	0x3e82370b	0.2543262
106	0xbc9e11af	-0.019295542
107	0xbd39b2c7	-0.04533651
108	0xbdc8267e	-0.09772967
109	0x3e55900b	0.2085573
110	0x3e4b88d7	0.19876419
111	0xbe1a37ab	-0.15060298
112	0x3dddaf54	0.10824457
113	0xbe0980ad	-0.13427992
114	0xbddfa117	-0.10919397
115	0x3e32d42d	0.17463751
116	0xbe0d359c	-0.13789982
117	0xbd9e2e8a	-0.0772372
118	0xbdf9a833	-0.121902846
119	0x3e87a615	0.26493898
120	0x3ceb7b90	0.028745443
121	0xbd70cc33	-0.05878849
122	0xbe1b2287	-0.1514989
123	0x3e4b520e	0.1985552
124	0x3e23276e	0.1593301
125	0xbe49e0ef	-0.19714712
126	0x3e3cb31c	0.184277
127	0x3bc942b6	0.0061419858
128	0xbe0b6b4d	-0.13615151
129	0x3e56609f	0.20935296
130	0x3e194f97	0.14971767
131	0x3e339a2d	0.17539282
132	0xbe2675f8	-0.16255939
133	0xbc7da847	-0.015482015
134	0x3e0e1e56	0.1387876
135	0xbe13c047	-0.14428817
136	0xbdb87774	-0.09007159
137	0x3e4121e9	0.18860592
138	0x3e355aa2	0.17710355
139	0x3e2d3552	0.16914871
140	0x3d5c269b	0.053747755
141	0x3d63e138	0.055634707
142	0x3c3f14d6	0.0116626825
143	0xbdfe1953	-0.12407174
144	0x3dc85245	0.09781317
145	0x3ea10753	0.314509
146	0xbd030181	-0.031983856
147	0xbe5fc091	-0.21850802
148	0x3d41495f	0.047189113
149	0xbe492453	-0.19642763
150	0xbe2245e7	-0.15846978
151	0xbe9f76a7	-0.31145212
152	0x3a68fbc8	0.0008887616
153	0xbda5ad29	-0.08089668
154	0xbe9fd8c5	-0.3122007
155	0x3e3a3b42	0.18186668
156	0xbe8ac7db	-0.27105603
157	0xbd45ee2f	-0.048322853
158	0x3de62d49	0.11239106
159	0x3e56669f	0.20937584
160	0xbe252cbf	-0.1613035
161	0x3e7bcf7c	0.24590868
162	0xbca28756	-0.019839924
163	0xbd70d3fc	-0.058795914
164	0xbc8f65e2	-0.017504636
165	0xbdac12e9	-0.08402044
166	0x3dd3b830	0.10337865
167	0x3dc44ee2	0.09585358
168	0x3df41a28	0.119190514
169	0x3e5775c1	0.21041013
170	0x3dd0a0e8	0.101869404
171	0xbe340579	-0.17580213
172	0x3c91b4a4	0.017786331
173	0x3cfad6ee	0.030620065
174	0xbe082c72	-0.13298205
175	0x3c957366	0.018243503
176	0xbdb36488	-0.08759409
177	0x3e3a3b1a	0.18186608
178	0x3cd0c45d	0.025484258
179	0x3ddbfaee	0.107412204
180	0x3e22b904	0.1589089
181	0xbdacb83c	-0.084335774
182	0x3e2594c6	0.16170034
183	0x3dc2d9d6	0.09514205
184	0x3d3f7bc6	0.0467489
185	0x3e08e50e	0.13368627
186	0xbe268b96	-0.16264185
187	0xbdd796fd	-0.105268456
188	0xbde392c3	-0.11111977
189	0x3e97099e	0.29499525
190	0x3dc0fe18	0.094234645
191	0x3e99d89a	0.30048066
192	0x3d9df36f	0.07712447
193	0x3dcc1c8e	0.09966384
194	0xbe5348c2	-0.20633224
195	0x3cb06850	0.021534115
196	0x3dbdb4cd	0.09263001
197	0xbdc38e4a	-0.09548624
198	0xbe01e4c5	-0.12684925
199	0xbe56d9f6	-0.20981583
200	0x3dd7c666	0.105358884
201	0x3e4d3ae0	0.2004199
202	0x3db962bb	0.090520345
203	0xbccf776d	-0.025325501
204	0xbdf5f103	-0.1200886
205	0x3e2f964c	0.17147177
206	0xbd51149e	-0.051045053
207	0xbdf212eb	-0.118200146
208	0xbe44f057	-0.19232307
209	0x3e36d770	0.1785562
210	0xbdbbc65d	-0.09168694
211	0x3dc12b42	0.09432079
212	0xbe0a6213	-0.13513975
213	0x3d0de55d	0.034642566
214	0x3e6e968f	0.23299621
215	0x3e5b216f	0.21399473
216	0xbd81949c	-0.06327173
217	0x3e6652bc	0.22492498
218	0xbe3657cf	-0.17806934
219	0xbe3af7e9	-0.18258633
220	0x3e18e1c9	0.1492988
221	0x3ddfef97	0.1093437
222	0xbde04602	-0.10950853
223	0x3ea9820b	0.33107027
224	0xbd40e98c	-0.047097728
225	0xbe34602b	-0.1761481
226	0xbdd93f2f	-0.106077544
227	0x3cae004c	0.021240376
228	0x3d83866a	0.06422122
229	0xbe30d9ff	-0.17270659
230	0x3e26dfa2	0.16296247
231	0xbe452ba7	-0.19254933
232	0x3e96bd04	0.29441082
233	0x3ce6988f	0.028148917
234	0x3e6cd323	0.23127417
235	0x3e869a79	0.26289728
236	0xbc2f9995	-0.010717769
237	0xbdc96c92	-0.09835161
238	0xbc87a458	-0.016557857
239	0x3df9e789	0.12202365
240	0x3e3a938e	0.1822035
241	0x3e01616c	0.1263482
242	0x3d9d0059	0.07666082
243	0xbbc39c5b	-0.0059695668
244	0xbe08e023	-0.13366751
245	0x3e78dfb7	0.2430409
246	0xbde115f4	-0.10990515
247	0x3d802907	0.06257825
248	0x3e8c5588	0.27409005
249	0xbd996534	-0.07490006
250	0x3da13c38	0.07872814
251	0x3e5fa888	0.21841633
252	0x3cb0673d	0.021533603
253	0xbea4678a	-0.32110244
254	0xbc2e2377	-0.010628573
255	0x3da9a305	0.08283047

blocks.2.norm1.bias f4 [16]
0	0x3d1971bd	0.037461985
1	0xbca33c65	-0.01992626
2	0x3d82112f	0.06350934
3	0x3c6c145e	0.014409153
4	0xbd370512	-0.04468257
5	0x3c7849c5	0.015154307
6	0x3ccbd9ed	0.024884189
7	0x3c083d2d	0.008315367
8	0x3d299dbd	0.041410197
9	0x3c02e99f	0.00799027
10	0xbd6a159c	-0.057149515
11	0x3d6cdda1	0.05782855
12	0x3d46f932	0.048577495
13	0x3da47938	0.08030933
14	0x3d53bb58	0.051692337
15	0xbd4a908d	-0.04945426

blocks.2.norm1.weight f4 [16]
0	0x3f7fdfcf	0.9995088
1	0x3f6ea48a	0.93219817
2	0x3f81b495	1.0133234
3	0x3f6f9502	0.9358674
4	0x3f71c288	0.94437456
5	0x3f7c66ce	0.9859437
6	0x3f725a3f	0.94668955
7	0x3f6b08f4	0.91810536
8	0x3f7d3b44	0.9891856
9	0x3f80db32	1.0066893
10	0x3f774943	0.96596164
11	0x3f830a8f	1.0237597
12	0x3f830183	1.0234836
13	0x3f8a093f	1.0784072
14	0x3f85427a	1.0410912
15	0x3f7796ae	0.96714294

blocks.2.norm2.bias f4 [16]
0	0xbc6da4b4	-0.0145046
1	0xbd5c174b	-0.05373315
2	0x3d2cb4f8	0.042164773
3	0x3d8ef100	0.06979561
4	0xbd3d64f8	-0.04623887
5	0x3cb798dd	0.022411758
6	0x3d84003f	0.064453594
7	0x3da3fd9b	0.08007356
8	0x3c3e95ad	0.011632365
9	0x3c90026d	0.017579282
10	0x3c811107	0.01575519
11	0xbccd9a09	-0.025097864
12	0x3db7cb36	0.08974306
13	0x3db043a9	0.08606655
14	0xbbc28af7	-0.005936976
15	0x3a4078b5	0.00073422055

blocks.2.norm2.weight f4 [16]
0	0x3f815196	1.0103023
1	0x3f860469	1.0470096
2	0x3f7ac743	0.979603
3	0x3f84bfcb	1.037103
4	0x3f6a5c58	0.91547155
5	0x3f7dfa19	0.99209744
6	0x3f880f38	1.0629644
7	0x3f854f4a	1.0414822
8	0x3f7e2d61	0.9928799
9	0x3f80770a	1.0036328
10	0x3f7bb031	0.9831572
11	0x3f7168e9	0.94300705
12	0x3f810c1f	1.0081824
13	0x3f8b7c69	1.0897342
14	0x3f7b35c8	0.9812894
15	0x3f83fcff	1.0311583

in_proj.bias f4 [16]
0	0x3e9246b0	0.28569555
1	0x3e6d8c95	0.23198159
2	0x3dd041b7	0.10168784
3	0xbe5c8e89	-0.21538748
4	0x3e179cfb	0.14805977
5	0xbc726f45	-0.014797037
6	0x3d9161dd	0.07098744
7	0xbbc93bd8	-0.006141167
8	0x3dabca0c	0.08388147
9	0xbbf01adf	-0.007327422
10	0x3da3e532	0.080027
11	0xbe3edecd	-0.18639679
12	0x3e03eae8	0.12882578
13	0xbe4be475	-0.19911368
14	0x3e2cd351	0.16877486
15	0xbe4ab3f4	-0.19795209
